checkpoints/forecast_fc_50_relu/model.Forecaster_fc_hidden(input_features=1,encoder_hidden_features=100,fc_hidden=100,output_length=5)train.train_model(m, train_data, val_data, num_epochs=50,batch_size=10000,learning_rate=1e-5).pt (torch, 86159 bytes, 8 tensors)

encoder.weight_ih_l0 f4 [100, 1]
000000 a0 5d a2 bd 96 80 1e bd ef 04 af 3d 45 f9 8e 3d
       -0.07928014 -0.038696848 0.08545863 0.06981138
000010 c5 b6 3f bd c7 76 c0 bd 25 8a 82 3d 68 cf fa bc
       -0.046805162 -0.09397655 0.06374005 -0.030616477
000020 c0 48 81 bd 84 99 08 bd 90 be 83 3d 80 3a 93 3d
       -0.06312704 -0.03334953 0.06432831 0.07188892
000030 59 2a a3 3d ed eb b6 3d 5c 98 4d bd ff 9e a0 bd
       0.079670615 0.08931718 -0.05019413 -0.07842826
000040 db b8 29 3d 43 e3 88 3d fe 28 c7 bd c8 f5 df bc
       0.041436058 0.06683972 -0.097246155 -0.027338877
000050 bd bc 38 3b e7 80 1c 3d 61 ab d9 3d 83 6f 4e 3d
       0.0028188669 0.03820887 0.10628391 0.050399315
000060 be d7 a1 bd 24 c5 95 bd 62 cf 42 bd 28 29 b4 bd
       -0.07902478 -0.07312992 -0.047561057 -0.087969124
000070 d6 84 34 3d 38 eb fb 3d 6e 7a 48 3d 2b 3b ea 3c
       0.044071995 0.12300724 0.048944883 0.028592667
000080 ce f7 69 bd b2 37 20 bd d2 60 89 3d 21 44 be bd
       -0.05712109 -0.039115615 0.0670792 -0.09290338
000090 ac 20 8f bb 60 f0 d6 3d 2c c0 f6 bb 08 77 e6 3c
       -0.0043679085 0.10495067 -0.007530233 0.02813293
0000a0 63 5e bc 3c 71 ba 11 3d aa 88 20 bd da a0 d9 bd
       0.022994226 0.035578195 -0.039192833 -0.10626383
0000b0 28 b2 be 3d 83 75 bd 3d 8d 0e b8 3d c0 a6 df 3c
       0.09311324 0.09250929 0.0898715 0.027301192
0000c0 9d e7 d4 3d 61 c0 7b bd ac d2 f4 3d 4f 47 df 3d
       0.10395739 -0.061462764 0.11954245 0.10902273
0000d0 f0 70 e5 bd 8a 58 de bd 64 bf 41 bd 1d bf e8 bd
       -0.11203182 -0.10856731 -0.047301665 -0.11364577
0000e0 66 da f9 bd 8a b0 1f 3d b0 e6 a0 bd 37 6a 2a 3d
       -0.12199859 0.03898672 -0.078565 0.0416052
0000f0 b3 46 af bd 56 9d 9e 3d d4 6c b0 3d 11 94 6f 3d
       -0.08558407 0.07744853 0.08614507 0.058490817
000100 e1 c0 ae 3d 4e 84 64 bd e6 94 df 3d 08 10 5d 3d
       0.085328825 -0.055790238 0.10917072 0.053970367
000110 92 ca 2c bd db 5f e6 3d 6b 80 8b 3d bb 99 c1 bd
       -0.042185374 0.11248752 0.06811603 -0.0945315
000120 2e 7a f2 bd 2e ba a9 3d f8 49 8d 3d 49 72 d4 3d
       -0.1183971 0.08287464 0.06898874 0.10373361
000130 89 78 b3 bd a9 ed ae 3d 79 d9 d8 3d d6 cd 37 bd
       -0.08763225 0.08541424 0.105883546 -0.044874035
000140 a2 c5 ad bd 5c b0 92 3d 0e f6 84 3d fc 74 e1 bd
       -0.08484961 0.07162544 0.06492244 -0.11008641
000150 8e 35 9a 3c 35 d7 2b bd 9a 82 69 3d 91 f4 be bd
       0.018824365 -0.041953284 0.057009317 -0.09323991
000160 88 c9 cd bd 3d 61 54 bc 7d 87 c0 bd 9f a6 be 3d
       -0.10048205 -0.012962637 -0.09400842 0.09309124
000170 42 4d 95 bc 39 a9 c4 bd 9b 1f d2 bd 24 71 84 bd
       -0.018225316 -0.09602589 -0.102599345 -0.06466892
000180 92 d8 ea 3d 75 6d 11 3d 42 39 22 3d 9c c7 99 bd
       0.11467089 0.035504777 0.039605387 -0.075087756

encoder.weight_hh_l0 f4 [100, 100]
000000 bf 8b 02 b9 73 2f 80 bd b4 20 80 3d f2 ac 82 3d
       -0.00012449826 -0.0625905 0.062562376 0.06380643
000010 d9 f1 21 3d f0 c7 b4 bc a6 60 31 3d 10 54 09 3d
       0.039537285 -0.022067994 0.04330506 0.033527434
000020 ea a1 db bc a8 10 a1 3b e8 73 8c 3d 14 b1 e3 3c
       -0.026810605 0.0049153157 0.06858045 0.027794398
000030 67 01 a4 3b 25 78 97 bd 83 cb c9 3d df 30 ca 3d
       0.00500505 -0.073959626 0.0985327 0.09872603
000040 a0 ba 49 bd 52 7f 92 bd 33 91 19 bc af 66 c2 3d
       -0.049250245 -0.07153191 -0.009372997 0.094922416
000050 5e 8e 6f 3c ea cf 2d 3d 16 42 40 3d 39 bf 4a bd
       0.014621345 0.04243461 0.046938024 -0.04949877
000060 83 be c4 bd 20 69 7e 3d e9 2f 43 bd bc 6e 88 3c
       -0.0960665 0.062111974 -0.047653113 0.016654365
000070 8d 9d c0 bd 52 9b 95 bd a9 87 5a bb 7d fa 98 3d
       -0.094050504 -0.073050156 -0.003334502 0.07469652
000080 b5 01 0e bd 38 96 36 3c 01 cf 86 3c d4 0a c4 3d
       -0.034669597 0.011144213 0.016456129 0.09572378
000090 2d b4 50 3c c6 17 76 bd d1 02 b5 3c e9 08 a1 3b
       0.01273827 -0.060081266 0.02209607 0.0049143923
0000a0 93 04 9e 3d a9 be ba bd 88 22 bb bc 8d 7d c6 bb
       0.07715716 -0.09118397 -0.022843614 -0.0060574473
0000b0 d2 bd 2b bd 7b a2 08 bd c3 cd e9 bd ec a0 9f bd
       -0.041929074 -0.03335808 -0.11416199 -0.07794365
0000c0 7e ed 6d bd e1 f2 06 ba cb 40 1c 3d 00 d3 2c 3d
       -0.05808782 -0.0005147886 0.03814773 0.042193413
0000d0 3c a2 2a 3d ae 6c 2f 3d 37 f4 53 3d 31 b9 48 bd
       0.041658625 0.042828254 0.051746573 -0.049004737
0000e0 a3 82 3a bc 45 22 19 bc f1 18 cd 3d 75 5b dc bc
       -0.011383685 -0.009346549 0.10014523 -0.026899079
0000f0 bc 89 92 bd 1c 15 a2 3d 7e 6d 13 3d e5 a5 d6 3c
       -0.07155177 0.079141825 0.03599309 0.026202152
000100 74 d5 8f 3d 9f b5 9e 3d 63 ce c8 bd ea 96 b8 bd
       0.07023135 0.07749485 -0.0980499 -0.090131596
000110 e9 0b 1f bd ee 93 4d 3d 3d 8c 7c bd f5 14 71 bc
       -0.038829718 0.050189905 -0.06165718 -0.014714469
000120 a5 d7 95 b9 32 22 c6 bd 19 73 cb bd b1 bb a5 3d
       -0.00028580162 -0.09674491 -0.099340625 0.0809244
000130 26 e4 c4 3d 92 6c 04 bd 31 df cb bc 3a a6 aa 3d
       0.09613828 -0.032330103 -0.0248867 0.083324865
000140 f4 9c 7f 3d 7d e0 15 3c 9c 9b 96 bd 7b 37 ca 3c
       0.06240554 0.00914776 -0.07353899 0.024684658
000150 12 4e 07 bd 33 90 53 3c 31 97 11 bd 2a b5 a4 3d
       -0.033033438 0.012912798 -0.035544578 0.08042367
000160 f4 b1 58 bd 04 04 eb 3d c5 83 c2 3d e3 d2 f4 bc
       -0.052904084 0.11475375 0.09497789 -0.029885715
000170 0d 3b ba 3d 4d 7a b6 3d 39 f0 76 bd 66 fa c0 bc
       0.09093294 0.08910046 -0.060287688 -0.0235569
000180 b9 ea 0b bd 50 c1 ec bd f1 bb de 3c b0 8b d3 bc
       -0.034159396 -0.11560309 0.027189227 -0.025823444
000190 b0 be ac bd d1 3a 81 3c d8 36 4d 3d 85 fd 41 3c
       -0.08434808 0.015775116 0.05010113 0.011840229
0001a0 5d f9 b1 3d 4f 1e 91 bd 26 e2 15 3d 2c fb c5 bc
       0.086901404 -0.07085859 0.036592625 -0.02416762
0001b0 c4 06 73 3d 9e 7f 8c 3c ed 75 3c 3d 68 fa c6 bd
       0.059332624 0.017150696 0.0460109 -0.0971573
0001c0 75 34 d3 bd 61 e6 36 bd 07 fa ac bd 30 c3 66 bd
       -0.1031274 -0.0446533 -0.084461264 -0.05633849
0001d0 40 da 7e 3d d2 b1 2f bd 66 d4 e9 bc eb a5 3b 3d
       0.06221986 -0.042894192 -0.028543662 0.04581253
0001e0 fb b6 e6 bc 8d 1b 61 bd 4a ff 74 3c 76 67 40 bd
       -0.028163424 -0.054957915 0.014953444 -0.046973668
0001f0 92 e3 9e 3d 12 65 85 3d c9 78 0c bd 28 07 87 bd
       0.07758249 0.06513418 -0.034294877 -0.06593162
000200 1b 50 1d 3d 3e 42 ad 3d d1 a5 c3 3c ee 4c 5a 3d
       0.038406473 0.084599 0.023882778 0.053296022
000210 1a 8e cc bc 88 4a 5c 3d 2a 8b 67 3d 71 2d 04 3c
       -0.024970103 0.053782016 0.0565292 0.008067475
000220 2b ae 91 bc 27 72 8f bd 51 a0 1f bd 57 18 ba bd
       -0.017783245 -0.07004195 -0.03897125 -0.09086674
000230 41 64 66 bd 6d 05 bf bc c4 4c 4a bd f5 4c 2d 3d
       -0.056247953 -0.023318017 -0.049389616 0.04230972
000240 b1 e4 13 3d f3 fc e8 3c 27 31 22 bd 9b 31 ba bd
       0.03610677 0.028440928 -0.039597657 -0.09091493
000250 66 10 84 bb e7 7d b3 bc 32 ff 4c bd 0e e2 4d 3d
       -0.004030275 -0.02191062 -0.05004806 0.05026441
000260 ba 53 2d 3d 41 36 44 3d ba 30 2c 3d fc 79 71 3d
       0.042316176 0.047903303 0.042038657 0.058954224
000270 60 46 3c bd 49 0f a9 bd bc b7 d5 bc 64 06 7b bd
       -0.045965552 -0.082548685 -0.026088588 -0.06128539
000280 06 76 4c bb ba 7f 59 bc 58 f6 8c 3d e7 36 5d bd
       -0.0031198277 -0.013275081 0.06882924 -0.054007437
000290 09 e2 a5 bd b0 ad aa 3d 92 30 37 bd 6b b7 4c bc
       -0.080997534 0.083339095 -0.044724055 -0.012494902
0002a0 20 e7 c8 3d 9d 24 ff bc 00 3f cb 3a 33 f2 fd b8
       0.098097086 -0.031145388 0.0015506446 -0.00012109093
0002b0 d2 ea a2 bd 75 4d b3 3d 29 2c 18 b9 9d 0b 5b bd
       -0.07954945 0.08755008 -0.000145123 -0.053477872
0002c0 fe bf 64 bc 06 ae 27 bd 52 3e 8f 38 7a 8a dd 3d
       -0.01396179 -0.040937446 6.8303794e-05 0.10817428
0002d0 99 69 92 3d 25 38 ac 3c 86 f2 83 3d 93 80 9b bb
       0.071490474 0.021022866 0.06442742 -0.004745552
0002e0 07 a5 95 3c 4f 17 c2 3d 3d 5c 1c bd 70 1a 47 bd
       0.018267168 0.09477102 -0.038173903 -0.048609197
0002f0 b1 51 91 bd 7b dd 49 3d b4 90 6f bc d2 06 59 bd
       -0.070956595 0.049283486 -0.014621902 -0.05298502
000300 4e 1d 5c bd bb c4 bf 3d 78 90 68 bd c9 43 81 3d
       -0.053738885 0.09363695 -0.0567784 0.06311757
000310 73 3f d0 3c d3 50 c0 bd 0c 65 df bd 95 79 5b 3d
       0.02542088 -0.09390416 -0.10907945 0.053582747
000320 90 0c cb bd 70 ab ad bd 0b 8a a4 3d c8 eb 78 3d
       -0.099145055 -0.08479965 0.08034142 0.060771734
000330 62 6d 0a 3d 55 b3 bf bd 0e 1c 74 3d 49 2c a7 bd
       0.03379572 -0.09360377 0.059597068 -0.081627436
000340 7b 8b 81 3d 6b 69 af bd 2e 82 99 3d 40 31 10 bd
       0.06325432 -0.08565029 0.07495533 -0.03520322
000350 0a 22 8e bd d1 8d 4a bd 73 b9 34 3d e6 48 05 3d
       -0.06940086 -0.049451653 0.04412217 0.032540224
000360 4b 44 d3 3d 4e 81 69 3d aa 5a b0 bd 21 32 b1 bc
       0.1031576 0.05700808 -0.08611043 -0.021630349
000370 6f c2 ba 3d b0 86 e3 3d cc ce 08 3d fc 94 b8 bd
       0.091191165 0.11109674 0.033400342 -0.090127915
000380 ef 8b 2c 3d 71 3d a5 bc ef 78 d3 bc e4 cb 3d 3d
       0.04212564 -0.0201709 -0.025814502 0.046337023
000390 ea dd 91 3d 26 99 a6 bd 24 54 87 bc 71 83 87 bc
       0.07122405 -0.081346795 -0.016519614 -0.016542168
0003a0 28 be 90 bc 8a cf 74 3d fb a3 44 bd 00 0b 8f 3d
       -0.017668799 0.059768237 -0.048007946 0.0698452
0003b0 5b 76 5e bd 19 4c d0 3d c1 e9 27 bd 68 22 5b bd
       -0.05431209 0.101707645 -0.04099441 -0.05349961
0003c0 b8 2f 54 bd 9b a5 dd 3c 77 ee 60 bd bf 41 e2 bd
       -0.05180332 0.027056506 -0.054914918 -0.11047696
0003d0 ad d4 0a bc 93 fd 0d 3d 76 05 8f bc 2c d6 36 bd
       -0.008473557 0.034665655 -0.017458659 -0.044637844
0003e0 fd 2d c1 3d dc 17 72 bd 19 a2 f7 bc ea f8 68 3d
       0.094326 -0.059104785 -0.030228661 0.056878008
0003f0 cf 2b ae bd e6 ec dc bd 32 02 d0 bd c6 76 63 3c
       -0.085044496 -0.10787372 -0.10156669 0.013883298

encoder.bias_ih_l0 f4 [100]
000000 9b 3a 73 bd 1e c5 10 3d e4 47 95 bc da bd 31 3d
       -0.059382062 0.035344236 -0.018222757 0.043393947
000010 e8 d2 da bd 97 ea 8e bd ec 25 73 3b ca a8 de 3c
       -0.106847584 -0.06978338 0.003710146 0.027180094
000020 d5 13 9d 3b 4f a1 5f bd 79 a0 4a bd 3d a2 67 bd
       0.004793624 -0.054597195 -0.049469445 -0.056551207
000030 7b 1e cd 3c df 7a f1 3c 48 70 17 3c 58 65 e1 bc
       0.025038948 0.029477535 0.0092430785 -0.027514145
000040 f1 b8 c8 3d e8 88 39 bc 82 0f 17 bd 6f cb a0 3d
       0.098009 -0.011324145 -0.036880024 0.07851302
000050 8f f6 7a 3d 61 97 41 bd e0 e3 11 bd d8 b6 d3 3d
       0.061270293 -0.047263507 -0.03561771 0.10337609
000060 2a 05 b3 3d d9 99 e5 bc 44 81 ad bd b4 fa c8 bd
       0.08741219 -0.028027462 -0.08471921 -0.09813443
000070 82 31 33 3d e1 ef 41 3d b0 49 07 bd de a8 8b 3d
       0.043748386 0.047347907 -0.03302926 0.06819318
000080 44 7b 83 bd a5 77 dd bd c2 43 0a 3d 5a 3d 46 3d
       -0.064199954 -0.10813836 0.033756025 0.048398353
000090 1b dc f3 bd 63 d7 c1 3d 7b df aa bd f4 a6 49 bd
       -0.11907216 0.0946491 -0.08343407 -0.049231485
0000a0 be 2e 9a bd e6 8f a5 3d 16 16 c4 bd 5a 23 16 bd
       -0.075284466 0.08084087 -0.09574525 -0.036654808
0000b0 39 c4 58 bc eb 1b 60 3d f0 f0 ac bc 65 02 97 3d
       -0.013230377 0.054714125 -0.021110982 0.073735036
0000c0 e3 83 95 3d fe be 84 bd 77 02 f3 3c 2d 12 aa 3d
       0.07300546 -0.06481741 0.029664261 0.08304248
0000d0 d3 68 cf bd e7 7f 31 bd 35 e5 e2 bd 26 3d ae 3d
       -0.101274155 -0.043334868 -0.11078874 0.08507757
0000e0 90 78 29 bd c9 5b 0c 3d 39 1f c8 bc 8f 67 2f bd
       -0.041374743 0.03426722 -0.02442895 -0.04282337
0000f0 88 46 e4 bd 6d d1 10 bc 6a 90 ad 3d 74 33 f0 3d
       -0.11146265 -0.0088389935 0.084748104 0.11728564
000100 87 4e 9a 3d 15 3a 99 3d 60 9f 72 3c 18 99 5f bd
       0.07534509 0.074817814 0.014808506 -0.05458936
000110 3c 2a 7e 3d 8e 5a d8 3d 3b 99 ce 3d 83 26 9a bd
       0.062051997 0.10564147 0.1008782 -0.07526877
000120 92 4e e7 3c 4d b6 50 3b cd e3 cb 3d bf 26 91 bd
       0.028235707 0.003184694 0.09955559 -0.07087468
000130 84 39 b7 3c 62 25 14 3d 1c 6a 8d 3d ef aa 69 3d
       0.022366293 0.036168464 0.069050044 0.05704778
000140 aa fb d9 bb e3 22 eb 3b 06 92 97 bd e1 b2 3e 3d
       -0.006652315 0.0071757897 -0.07400899 0.04655731
000150 0b 44 65 bc f0 6d 5e 3d ec 1d 82 3d ee 30 4a bd
       -0.0139932735 0.054304063 0.063533634 -0.04936307
000160 3f 35 10 bc 9d 72 d6 3c 53 f9 e5 bd 47 6f ad bd
       -0.008801757 0.026177699 -0.112291954 -0.0846849
000170 9a 3e 90 3d a7 a9 38 bc 4c 34 20 bc 1c ed cd bd
       0.0704319 -0.011270917 -0.009778094 -0.10054991
000180 68 1d 87 3d 8f 56 5e bc 9e 3d db 3d 67 3b 8f bc
       0.06597406 -0.013570442 0.10705112 -0.01748438

encoder.bias_hh_l0 f4 [100]
000000 16 43 cd bc 95 4a 98 bd 54 45 bd 3d 6b b7 9a bc
       -0.025056403 -0.074361004 0.09241739 -0.018886289
000010 11 e8 b2 bd 76 51 11 bd 8b a9 a3 3d 32 98 dc bd
       -0.087356694 -0.035478078 0.07991322 -0.107712165
000020 05 91 cd bd 4d a3 75 3d 50 34 b5 3d 49 d6 0a 3d
       -0.10037426 0.05997019 0.088478684 0.033895764
000030 13 c0 e3 3d a4 28 3c 3d 69 34 50 3c 0d 8b b9 bc
       0.111206196 0.045937195 0.012707808 -0.022649312
000040 c7 2b d1 3d 3b e7 81 3d 4e 50 b9 bd 6b 1e 80 bd
       0.10213428 0.06342932 -0.0904852 -0.06255802
000050 fd ef cc 3d fe 87 6d 3d ac 5f 41 3d 43 45 31 3d
       0.10006712 0.05799102 0.04721038 0.043278944
000060 94 2d a9 3d 07 81 cd bd 62 b8 92 bd 57 75 ca bd
       0.082606465 -0.10034376 -0.071640745 -0.09885662
000070 22 58 1e bc 7d cb dc 3c f8 21 47 3d 2a bd be 3d
       -0.009664567 0.0269525 0.04861638 0.09313424
000080 eb 12 8d bd 60 66 9f 3d 60 7e 10 bd 89 af 49 bb
       -0.06888374 0.07783198 -0.03527677 -0.0030774793
000090 31 80 c6 bd a9 81 68 3d b7 f9 8e bd 1e 68 98 3c
       -0.09692419 0.05676428 -0.06981223 0.018604334
0000a0 7b 57 7d bd c9 d7 24 bd f5 cc 56 3d 0a 86 5a bc
       -0.061851006 -0.04024485 0.052441556 -0.013337621
0000b0 cc 48 8d 3d 17 56 bd 3d 7a 28 da 3d e3 41 5a bb
       0.068986505 0.09244936 0.106522515 -0.0033303432
0000c0 86 e0 db 3d 0d 87 4a 3d 2c 4c 17 3d 90 68 a7 3d
       0.10736184 0.0494452 0.036937878 0.081742406
0000d0 62 df 13 3d b5 58 65 3d ab ce b9 bd a6 55 5b 3d
       0.036101706 0.0559928 -0.09072622 0.053548478
0000e0 75 8e 2f bd f3 03 2f 3d 9a c8 ca bd 60 0d 96 bd
       -0.042860467 0.042728376 -0.09901543 -0.0732677
0000f0 d3 a3 bd bd 56 57 0a 3d 1e ab 4a 3c 89 12 b3 3d
       -0.092597626 0.033774696 0.012369899 0.0874377
000100 97 0f cb 3d f5 66 24 3d f6 fc ca 3c 02 cb 43 3c
       0.09915083 0.04013725 0.024778824 0.011950256
000110 4f a1 91 bd 9a e7 96 3d 07 96 37 bd 7b 31 eb bd
       -0.07110845 0.07368393 -0.04482081 -0.11484047
000120 6d da dd bd 66 fa ac bc a2 3e 36 3d 7b b9 93 3d
       -0.10832677 -0.021115493 0.044493325 0.07213112
000130 09 45 8a 3d 7a 3d 66 3d 8b e3 74 bd 6c 59 97 bc
       0.06751449 0.056210972 -0.059787314 -0.018475257
000140 b8 1c a7 3b ee e2 92 3d 84 7c b2 bb 7b 50 d3 bd
       0.005099859 0.0717219 -0.0054469723 -0.10318085
000150 f3 fc a4 3c 88 88 df bd f8 f6 03 3d a4 3f a5 bc
       0.020140147 -0.10914713 0.03221795 -0.020171948
000160 b0 e1 7b bc 13 78 05 3c 42 c6 8c 3d 33 c5 a0 bd
       -0.015373632 0.008146304 0.06873752 -0.07850113
000170 f7 fd b4 3c a7 ff 86 bd 96 bd e0 bc 43 c1 67 3d
       0.022093756 -0.065917306 -0.027434152 0.056580793
000180 18 cf 86 3d 1d d7 d9 3c b5 17 e0 3d 21 e1 c4 bd
       0.06582469 0.026591832 0.10942022 -0.096132524

fc_hidden.weight f4 [100, 100]
000000 09 e8 c6 bd b7 04 08 be c6 7a 89 3c 23 a0 17 3e
       -0.09712226 -0.13283049 0.016782176 0.14807181
000010 62 51 22 3d ec 99 08 be 8e 79 02 3e 1d d6 aa bd
       0.039628394 -0.13339967 0.12741682 -0.0834162
000020 fe 50 02 be 1d 77 c0 bd 8e cb c3 3c e8 e0 1b 3e
       -0.12726209 -0.09397719 0.023900773 0.15222514
000030 0d 6c cb 3d 4d 57 84 3d ca af 82 bd 98 ce 1a 3d
       0.099327184 0.06461964 -0.06381185 0.03779468
000040 e3 50 1e bc a5 6d e0 3c 27 87 97 bd 4d 77 27 bd
       -0.00966284 0.027396033 -0.07398825 -0.04088526
000050 bb 73 17 bd a4 a4 13 3d 1e b2 ed 3d 41 d1 ac 3d
       -0.036975604 0.036045685 0.11606239 0.084383495
000060 ba 35 13 be 2f 58 f6 bd 10 e5 de 3c 23 28 bb bc
       -0.14375964 -0.120285384 0.027208835 -0.022846287
000070 19 41 c4 bc 75 0a 89 3d 97 ce 10 3e 71 36 94 3d
       -0.023956822 0.06691448 0.14141308 0.072369464
000080 60 da 29 bd 93 c5 f1 bd 96 88 a9 3d e3 69 8c bd
       -0.041468024 -0.118052624 0.08278005 -0.06856134
000090 59 9a af 3c eb 99 64 3d 64 89 53 3d 92 16 2f 3c
       0.021435903 0.05581085 0.051644698 0.0106865335
0000a0 cf 94 8c 3d 63 41 dd 3d a5 80 8f bd 19 5b 65 bd
       0.068643205 0.10803487 -0.07006959 -0.05599508
0000b0 ed ab f0 3d 49 84 a5 3c b5 50 e5 3d eb 84 16 3e
       0.11751542 0.02020468 0.11197034 0.14699142
0000c0 29 3b f8 3c 7e ba 37 3d 77 13 11 3d 70 bf c3 3b
       0.030301647 0.044855587 0.035418954 0.005973749
0000d0 3b a3 0d be ea 3d eb b9 12 c2 41 bc 38 57 1e be
       -0.13831799 -0.00044868822 -0.011826055 -0.15462959
0000e0 e5 24 04 be e7 12 b4 3d f9 3c 69 bd 51 2c 69 3d
       -0.12904699 0.08792668 -0.056942914 0.05692703
0000f0 df f2 b0 bd 48 a1 81 3d 86 84 0a 3e 01 d5 4b 3d
       -0.08640074 0.0632959 0.13527116 0.049763683
000100 80 2b 6e 3b 6c 18 01 be 6f 61 95 bb e2 88 c6 3b
       0.0036341846 -0.12606972 -0.004558734 0.006058798
000110 7b b5 be 3c 9e 49 1b 3e c6 b2 af 3c 58 17 b4 3b
       0.023279896 0.15164801 0.02144755 0.005495947
000120 f8 eb 98 bd aa 8f f3 3d 46 b7 fc 3d 0b 83 1a 3e
       -0.074668825 0.11892636 0.12339644 0.15089051
000130 c5 e7 53 bd 1b 1b d7 ba 92 94 07 bb 45 bb 96 bd
       -0.051734705 -0.0016411276 -0.002068792 -0.073599376
000140 91 81 02 be 67 6b cd 3d 56 0c c5 3d 5e 24 8e ba
       -0.12744738 0.10030251 0.096214935 -0.0010844579
000150 02 89 ac bc b5 f1 19 3d c4 46 0c 3d 5a 08 d0 bd
       -0.021061424 0.037584025 0.034247175 -0.10157843
000160 14 09 27 3d 5c 72 e7 bd a0 a5 06 be 07 17 0b 3e
       0.040780142 -0.11301109 -0.13149118 0.13583003
000170 55 df 4a bd 48 89 10 bd 62 6a 0a be d1 f9 2f 3c
       -0.049529392 -0.03528717 -0.13517144 0.010740713
000180 74 df 3b 3d 5c 2f b3 3d 4f b7 4a 3d 40 26 e1 3b
       0.0458674 0.087492675 0.049491223 0.006871015
000190 be 64 1d bc c5 8c b9 bd 0f 9d 12 3e db 23 dc bb
       -0.009606538 -0.09060053 0.14317726 -0.0067181415
0001a0 64 2b 2d bd 05 89 42 bb bd 34 de ba 83 f9 93 bd
       -0.04227771 -0.002968372 -0.0016952973 -0.07225325
0001b0 d8 67 ae bd 53 35 bd bd 0f 85 04 3e f8 ff 87 3c
       -0.085159004 -0.092386864 0.12941383 0.016601548
0001c0 20 10 21 3c 99 d8 0b 3e 56 a8 e9 3c bb 64 06 bd
       0.009830505 0.13656844 0.028522652 -0.032810908
0001d0 58 12 8a bc a0 0c 08 3e da e3 37 bd 82 65 af bd
       -0.01685445 0.13286066 -0.04489503 -0.08564283
0001e0 40 37 e5 3d 46 67 e7 3d 24 03 ee 3d 34 ff 5a 3d
       0.11192179 0.11298995 0.11621693 0.053466037
0001f0 b0 e0 c5 3c 88 04 16 be 47 54 da bd 14 56 56 bd
       0.02415499 -0.14650166 -0.10660606 -0.052328184
000200 3c 53 dd 3d 2d 06 3d bc 88 12 1a 3e 7c af dc 3d
       0.10806891 -0.011537117 0.15046132 0.107756585
000210 e4 55 46 bd 7c 75 13 be 6a b6 c4 3d 60 86 78 3b
       -0.048421755 -0.14400285 0.09605105 0.003792189
000220 b1 1e ee bb c9 d5 ee 3d 47 f5 02 be eb df ca 3d
       -0.0072668423 0.1166187 -0.12788878 0.0990599
000230 89 1f f0 bb f9 be 53 3d f6 c4 88 3c e2 43 42 bd
       -0.007327978 0.051695798 0.01669548 -0.04742802
000240 90 88 0e bd f4 e2 e6 3d 88 8a 75 3c 5e 84 f4 bc
       -0.034798205 0.112737566 0.014986642 -0.029848274
000250 9e 63 47 3d 5b 34 2c 3d 83 58 75 3c 34 0c 35 bb
       0.048678987 0.042042118 0.014974716 -0.0027625682
000260 dc c0 26 bd be e7 9e bc 94 d6 09 3d 3a 5c 28 3d
       -0.04071127 -0.019397613 0.033651903 0.04110358
000270 58 2c 05 be bb 2d af 3d 61 29 ec 3c 7e ee 0a 3e
       -0.13005197 0.08553644 0.028828325 0.1356754
000280 16 6e 94 bd f3 58 bc 3d 52 4f b8 3d 3e d1 27 3c
       -0.0724756 0.09196653 0.08999504 0.010242758
000290 79 4f f3 3d be 79 58 3b ed 94 b7 3d 52 f3 91 bc
       0.118803926 0.0033031548 0.08963952 -0.01781622
0002a0 f4 f7 96 bd 1e 47 de bb 7e d0 b1 3d f9 b3 86 bd
       -0.07371512 -0.00678338 0.08682345 -0.06577296
0002b0 b3 6c 0b be 36 cc 1c bd 26 8f 6b 3d 7a fe 53 3d
       -0.13615684 -0.03828069 0.057509564 0.05175636
0002c0 bd 87 8b bd c6 81 2c 3d 8d d7 d2 3d 48 77 0a 3d
       -0.068129994 0.04211595 0.10295019 0.03380516
0002d0 a1 a0 a3 3c 6d 9c 25 3d a9 c6 e2 3c 2c 31 bb bd
       0.019974055 0.040432382 0.02768262 -0.09140238
0002e0 50 62 a7 3c 98 06 0d bd ab c8 94 3d 36 65 8d bd
       0.020432621 -0.034430116 0.07264837 -0.0690407
0002f0 e9 03 97 3c 29 1d 2d 3d 1f aa ea bd de 90 a9 3d
       0.018434482 0.042264137 -0.11458229 0.08279584
000300 d5 6f c7 3a ea 66 19 be 7d 8a 0a bd 5c dc 55 3c
       0.0015215824 -0.14980665 -0.03382348 0.013053026
000310 84 6a 10 bd e3 79 ca 3d 9a e4 42 3d f7 51 18 be
       -0.03525783 0.09886529 0.047581293 -0.14875017
000320 15 18 9e bd bc 2f 09 be c5 64 bf 3d 4d 31 d0 3d
       -0.07719437 -0.13397115 0.09345392 0.101656534
000330 74 4e d1 bd 4a 11 7a bd 59 c1 b8 bb ae 80 d3 3c
       -0.10220042 -0.061051644 -0.005638283 0.025818195
000340 c1 50 9b 3c 66 81 47 3d c0 43 7d 3d 21 5c ec 3d
       0.018959405 0.04870739 0.06183219 0.1154101
000350 39 8c e8 3d 74 c0 f2 bc f6 89 06 be 5d 9a b8 bc
       0.1135487 -0.029632784 -0.13138565 -0.022534544
000360 ad be fb 3d 56 63 9e 3d 4d c8 c6 bd 00 d2 22 bb
       0.12292228 0.077337906 -0.09706173 -0.0024844408
000370 c9 d0 e8 3c a5 b9 8d 3d d5 30 2c bd 98 ce 63 3c
       0.028419869 0.069201745 -0.042038757 0.013904236
000380 7f ae 3f 3d 96 6b f8 bd 2b 14 b1 bd 3f 8d 96 bd
       0.04679727 -0.121298954 -0.08646425 -0.07351159
000390 2f 59 d7 bc 2d e8 59 3d 6e 60 9e 3d cf 6b 7a 3c
       -0.026287643 0.053199936 0.07733236 0.015284493
0003a0 3e 55 9a bc 17 cd 9b bd 38 8e cb 3a d0 d6 34 3d
       -0.018839475 -0.07607477 0.0015530055 0.044150174
0003b0 40 53 f7 bd 2f 13 04 3e 23 ac 9f bd bc 06 5a bd
       -0.120764256 0.12897943 -0.07796504 -0.05322908
0003c0 60 5b d4 3d 9d a2 0b 3e 89 6a f9 bd e1 96 61 3d
       0.10368991 0.13636251 -0.12178523 0.05507553
0003d0 e8 4b 8a 3d cb 7b b0 3c 6a 4d 05 3c f4 f8 08 3e
       0.06752759 0.021543404 0.008136133 0.13376218
0003e0 77 a3 dc bc 4a ac 99 bb 17 03 2d 3d 20 bd 97 3d
       -0.026933415 -0.004689728 0.042239275 0.074091196
0003f0 0d 80 0c 3d 0e cb e5 bd 0a cd e5 bd 56 47 0b be
       0.034301806 -0.1122037 -0.11220749 -0.13601431

fc_hidden.bias f4 [100]
000000 f8 97 ee 3b ca 9d a9 3d 75 11 f2 bb f5 a9 a1 bd
       0.0072812997 0.08282049 -0.007387335 -0.07893745
000010 ea 11 2e 3d 04 a0 8c bd 2d db aa bc 1d 21 96 3c
       0.042497553 -0.06866458 -0.020856464 0.018326337
000020 ed b0 12 3c d7 0e 3f 3d 58 45 81 3d b3 0c eb ba
       0.008953315 0.04664501 0.063120544 -0.0017932862
000030 12 a5 3b bd 3e 67 a5 3c 10 7c b0 3d 1d b3 99 3d
       -0.04581172 0.020190831 0.08617413 0.07504866
000040 68 6d 81 bd 20 30 bc 3c b9 ff 67 3d fa 72 71 3d
       -0.06319696 0.022972167 0.05664036 0.05894754
000050 ac a3 75 bd 30 38 ff 3d 0b ac 8e 3d bd f1 ad bd
       -0.059970543 0.12461889 0.06966408 -0.084933735
000060 b8 18 f3 3d 8a f6 22 3d 20 bb c6 3d 2f b8 00 3d
       0.11869949 0.0397859 0.0970366 0.03142565
000070 cc 4d 37 3d 94 93 af 3d 65 1e 60 3d ee d5 15 3d
       0.044751927 0.0857307 0.054716486 0.036580972
000080 74 fa ef bc 70 c5 8b 3d fc cb d5 3c 7a f7 9d bc
       -0.02929423 0.068247676 0.026098244 -0.019283045
000090 2a 71 6a bd 8f 68 af 3d d1 ce 3e bd e3 88 f4 3c
       -0.057236828 0.08564865 -0.046583954 0.029850429
0000a0 0d 59 9f bc 19 e9 14 bd 9a c1 d3 3c 0a 8c b6 3d
       -0.019451642 -0.03635511 0.025849152 0.08913429
0000b0 0e 3b 16 3e 39 71 02 3d dd ef 3f bd da b1 06 3d
       0.14670965 0.03184626 -0.04685961 0.032884456
0000c0 de 2f 0a 3e 20 00 81 bc 5e 9e cd bd c4 91 09 3e
       0.13494822 -0.01574713 -0.10039972 0.13434511
0000d0 15 55 82 bd ba a0 f8 bc fa 7e ac bd 66 9e 8d bc
       -0.06363884 -0.030350078 -0.08422656 -0.017287444
0000e0 61 51 af 3d a0 bc 9f 3d 47 d9 be bc 23 aa af bd
       0.08560444 0.07799649 -0.023296965 -0.08577373
0000f0 a7 2d 8f 3d 0b 23 b3 3d 17 2e 45 3d e8 3f 27 3d
       0.06991129 0.08746918 0.048139658 0.04083243
000100 da 2e ba bc 55 2c 80 3d 02 60 48 bd 66 4a 96 bd
       -0.022727419 0.06258456 -0.048919685 -0.07338409
000110 7e 93 0e bd 1b 12 e1 bc 51 7e a7 bd 8d 3a 8b 3c
       -0.03480863 -0.027474454 -0.0817839 0.016995693
000120 89 ff 91 3d 27 13 2a 3c 43 37 da 39 ab d2 d1 3d
       0.071288176 0.010380543 0.00041621373 0.1024526
000130 e3 02 1e bd 7d 7e 9c 3d fd 5f 92 3d 98 24 db 3d
       -0.03857697 0.07641313 0.071472146 0.10700339
000140 80 b5 a9 3d 43 02 66 bd 7e bf 75 3d f1 b8 dc 3d
       0.082865715 -0.0561545 0.059997074 0.10777462
000150 21 38 f1 3c f1 32 00 bd ab e6 a0 bd 05 31 10 3e
       0.02944571 -0.03129858 -0.078564964 0.140812
000160 c7 88 e0 3c 9a 2a 9b 3d 33 84 c3 bb c3 4f 59 bc
       0.02740897 0.07576485 -0.005966687 -0.013263646
000170 59 6e d0 3c fa 62 53 3d 80 1e 57 3c d5 5d 32 3d
       0.025443243 0.051608063 0.01312983 0.043546516
000180 2a 46 61 ba 8f e8 e8 bc 42 77 a3 bd 1a 41 aa 3d
       -0.0008593524 -0.028431205 -0.07981731 0.083131984

fc_out.weight f4 [5, 100]
000000 f0 83 50 3d c5 5d 84 3c b8 ce 13 3e da e2 61 3c
       0.050907075 0.016157994 0.14434326 0.013786996
000010 ba b6 d3 bc d7 9d 9b 3c 55 f4 93 3d f8 64 b0 bd
       -0.025843967 0.018996162 0.07224337 -0.08613008
000020 eb a7 b7 bd 99 52 bf 3b ab ef cc 3d 9a 49 5d 3d
       -0.08967575 0.005838704 0.100066505 0.05402527
000030 e6 eb 99 bd 14 c3 86 bd e6 e7 31 3c f1 7d 14 3e
       -0.07515697 -0.06580177 0.010858512 0.14501168
000040 f0 c1 ac bd d7 55 9b bd bb 09 a4 bd e7 ab e7 bc
       -0.08435428 -0.07584732 -0.080096684 -0.028280212
000050 ed 2f 37 3d 0b b8 56 3d b4 fd 8f 3d ca 4c fa 3c
       0.04472344 0.05242161 0.07030812 0.030554194
000060 3b 0b f6 3d ad 1c 57 bd e2 5f 70 3c 56 b2 8d 3d
       0.12013861 -0.05251758 0.014671298 0.069187805
000070 10 f6 c2 3c 63 49 43 bd 36 85 5d bd ed 7f fe 3d
       0.023798972 -0.04767741 -0.054082118 0.12426744
000080 e9 d0 85 bd 66 e9 c4 bd 46 52 89 bd e7 cd c9 bb
       -0.06533987 -0.0961483 -0.067051455 -0.0061585787
000090 90 d4 51 bd cc 1c 58 3d 39 09 f6 bb a3 73 a5 3c
       -0.051228106 0.052761838 -0.0075084236 0.020196741
0000a0 a4 74 c6 3c 04 f1 42 bd 63 7c 2f bd 70 8a 10 bd
       0.02422554 -0.04759313 -0.042843234 -0.035288274
0000b0 5d 4c 07 3e ea 91 a2 3d 1d 46 92 bd 7e 0b 5f 3b
       0.13212724 0.07937987 -0.07142279 0.003403395
0000c0 93 20 11 3e 27 ba fd bc fc 57 aa bd 2a ee 4a bc
       0.14172582 -0.030972553 -0.08317563 -0.012385884
0000d0 ae fc 68 bc a3 7a 0d 3e d8 78 ae bd f8 f7 06 bc
       -0.0142204 0.13816313 -0.08519143 -0.008237831
0000e0 63 2c 07 3e 93 85 66 3d ab f5 ad 3d c7 f2 4a 3c
       0.13200526 0.05627973 0.08494123 0.012386984
0000f0 d3 35 c8 bb 70 6a b8 3c 5a 44 8a bd 74 17 1c 3e
       -0.006109932 0.02251169 -0.06751318 0.15243322
000100 93 9e b4 3d 93 db 95 bc b6 79 94 bc a7 3a c5 3d
       0.08819308 -0.018293178 -0.018124443 0.09630328
000110 1d 32 0a bd 06 01 f6 bc b0 27 0f 3d 33 ee c8 bd
       -0.033739198 -0.030029785 0.03494996 -0.09811058
000120 a7 ea 2d bd 1a 5b 84 3c 4f fa 3f 3d c4 e5 1a 3e
       -0.04246011 0.016156722 0.046869572 0.15126711
000130 6d 5f d7 bc 8c 98 1f bd 84 40 04 3e 7b 66 89 3d
       -0.02629062 -0.03896384 0.12915236 0.06709
000140 43 f4 0d 3e 60 57 24 bd 7c 41 30 3d 40 64 ec 3d
       0.1386271 -0.04012239 0.0430312 0.11542559
000150 11 e0 ba 3d 37 1e 0a 3e e0 7e 46 bd 9d 95 02 3e
       0.091247685 0.13488089 -0.04846084 0.12752385
000160 b3 35 50 3c 8a 5a ed bc 73 e4 c1 3c 98 c6 23 3d
       0.012708115 -0.028973836 0.023668503 0.039984316
000170 53 02 3b bd 4c 96 f8 3d 93 5e 9f 3d de 2f 6a 3d
       -0.045656513 0.12138042 0.077817105 0.057174556
000180 99 eb c1 3d 0b 82 0a 3e a0 49 25 3d be 9a ab bc
       0.09468765 0.1352617 0.040353417 -0.02094781
000190 8c d6 88 3d 6f ed 48 3d 7c 3a 02 3e f3 f0 8f 3d
       0.066815466 0.04905456 0.12717623 0.07028379
0001a0 00 48 30 bd 10 de c2 bd d5 30 8b bd 4a 0b 8d 3d
       -0.043037415 -0.09515011 -0.06796423 0.06886919
0001b0 15 4c be bd 24 61 c0 3c a9 a9 b2 3d e7 4c b7 3d
       -0.09291855 0.02348382 0.08723766 0.08950215
0001c0 54 ec 97 bd 5c 1e ff 3c cf 70 11 3d 35 f6 82 3c
       -0.07418123 0.031142406 0.035507973 0.015986541
0001d0 33 ab 17 bc 80 18 c8 3d e9 37 5d bd 54 11 f1 bc
       -0.009257126 0.09770298 -0.0540084 -0.029427208
0001e0 38 e2 97 bd 1c 4c 1d 3e 3e e4 f3 3d a1 56 bd 3d
       -0.07416195 0.15361065 0.11908768 0.09245039
0001f0 75 7f 04 3e 8d 7a 72 bd 7c 7f 9b bd ac 7b ea 3c
       0.12939246 -0.059198905 -0.07592675 0.028623424
000200 51 4a 9d bd 22 4c 25 bd e8 53 a0 bd b6 1a 9f 3d
       -0.0768019 -0.04035581 -0.07828504 0.077687666
000210 9c ff 02 bd 2e 1b a4 bd 18 de e2 bc 67 73 8d 3c
       -0.03198205 -0.080129966 -0.027693793 0.017266942
000220 0a e0 5b 3d 0c 35 a2 bd 33 4e 7e bd 55 18 12 3e
       0.053680457 -0.07920274 -0.062086295 0.14267094
000230 80 b4 0d 3e eb 4a 81 bd 00 48 50 3b 83 e3 b2 3d
       0.13838387 -0.063131176 0.0031781197 0.08734801
000240 2d 57 14 3e b1 4d e4 3c ab 0e 1f bd 93 de fd bc
       0.1448638 0.027869077 -0.038832348 -0.03098992
000250 6c c4 fd 3d c7 f4 55 3d 2c 3b b6 bd 17 35 9f 3d
       0.1239098 0.05223539 -0.08898005 0.07773798
000260 00 47 b4 bd 7e 97 80 bb a2 fd 9b 3d db 2e f7 3d
       -0.08802605 -0.0039243093 0.07616736 0.12069484
000270 d9 e2 ec 3d 15 79 ac bd b8 c5 03 bc 14 48 b7 bd
       0.11566705 -0.08421532 -0.008042745 -0.08949295
000280 6b a1 92 bd f2 67 e1 3c 5a 46 b8 3d e5 94 10 3e
       -0.07159694 0.027515385 0.089977935 0.14119299
000290 77 f4 8d bd 13 f5 c7 bc ee 0a ea bc 59 ee 61 bc
       -0.069313936 -0.024408853 -0.028569665 -0.013789737
0002a0 e9 8f 85 bd 29 01 40 bd 97 5c a1 3b 43 0e be bd
       -0.06521589 -0.046876106 0.0049243676 -0.09280064
0002b0 61 16 4c 3d e7 eb b8 bc 07 ab df 3d 8f bd d5 3d
       0.04982603 -0.022573425 0.10921293 0.10436546
0002c0 8f f6 9c 3d 1d 1b 24 bd c9 55 28 3c 96 42 22 3d
       0.07664215 -0.04006492 0.010274359 0.039614283
0002d0 d1 c8 d6 3d e6 84 45 bd 59 ff 2e 3d 37 c8 6b bc
       0.104875214 -0.048222445 0.042723987 -0.014390997
0002e0 70 3e 41 bb c7 6d b5 3c 87 1b c4 bc de 1c d8 bc
       -0.0029486679 0.022147072 -0.023938907 -0.026380952
0002f0 47 44 ba bd 2a 98 aa bd 20 a0 59 bd 48 56 9e bd
       -0.09095054 -0.08329804 -0.053131223 -0.077313006
000300 d5 68 06 3a 55 82 86 3d 2a 08 78 bd 9e 28 24 3e
       0.00051273155 0.065678276 -0.06055466 0.16031119
000310 95 d3 cb 3d 07 05 56 3d 7d 07 c8 bd 55 a7 5f 3d
       0.099524654 0.05225089 -0.09767053 0.05460294
000320 81 35 c9 3d ca fb fe bc 0f c8 18 3e 93 d9 8b 3c
       0.09824658 -0.031125922 0.14920066 0.01707152
000330 27 81 1b 3c c5 c5 72 3d 70 cd 7a 3d bc 71 c1 3d
       0.009491242 0.05927064 0.061231077 0.09445521
000340 c9 50 e8 3c a7 cd d2 3d 4f da cd 3d e3 48 1b 3d
       0.028358834 0.10293131 0.10051405 0.037911307
000350 ec 89 e1 3c 21 77 8a 3b e2 b4 3c bd 46 c1 bb 3d
       0.027531587 0.004225627 -0.04607094 0.09167723
000360 e7 10 b2 3c 67 84 f6 bc b3 14 16 bd 6f 4a f2 3c
       0.021736575 -0.030092431 -0.036640834 0.029576508
000370 e9 2f a4 bd dd 07 ae bc ee 7f 9e 3d f7 da 42 bd
       -0.08016951 -0.021243984 0.077392444 -0.047572102
000380 17 41 dd 3c 77 ff 14 3d 14 70 a2 3d 39 4c 31 3d
       0.027008576 0.036376443 0.079315335 0.043285582
000390 83 68 ac bd 7d 3c 8b bd 0a ae 66 bd c1 c8 07 3e
       -0.084183715 -0.067986466 -0.05631832 0.13260175
0003a0 c0 26 a4 bc 3d 12 76 3d d9 b0 57 bd 8b 0d 92 bd
       -0.020038009 0.060075987 -0.05265889 -0.07131489
0003b0 4f 46 c1 bd 3a 90 22 3d a5 69 5f 3d 2a 11 f3 3d
       -0.094372384 0.039688326 0.05454411 0.11868508
0003c0 d6 a7 00 3d 08 f8 ba bd f0 c1 5b 3d 4e b3 69 3c
       0.03141006 -0.091293395 0.05365175 0.014263941
0003d0 45 9a a5 3d 30 58 06 3d 21 2f a8 bd 1c 47 7a bd
       0.08086065 0.032798946 -0.08212114 -0.06110297
0003e0 bc f1 78 3c d0 12 18 3d a8 c0 4b bd 77 0a 95 3d
       0.015194353 0.037127316 -0.04974428 0.07277387
0003f0 4a f3 02 3d c3 20 22 3d 15 48 b0 bc 4a 8b fc 3d
       0.0319703 0.039582025 -0.021518746 0.12331255

fc_out.bias f4 [5]
000000 9e fc d9 bc 9a f5 99 3d 93 fb 2d 3d 45 d2 03 bd
       -0.026609715 0.07517548 0.042476248 -0.03218295
000010 20 46 78 bc
       -0.015153438
