checkpoints/small_data_forecaster_fc_hidden_20/forecaster_fc_hidden(1,150,75,5)epoch_19.pt (torch, 141199 bytes, 8 tensors)

encoder.weight_ih_l0 f4 [150, 1]
0	0xbc53cefa	-0.012927765
1	0xbd415d24	-0.047207966
2	0x3d4eb9e0	0.050470233
3	0xbd0bd4a3	-0.034138333
4	0x3d950e26	0.07278089
5	0x3cde961c	0.027171187
6	0x3d83707a	0.064179376
7	0xbd4d40dc	-0.050110683
8	0x3d0ddb04	0.034632698
9	0x3d16e067	0.0368351
10	0x3d85d91e	0.065355524
11	0x3c6267b8	0.013818674
12	0xbd6f6fe6	-0.058456324
13	0xbd20d460	-0.039265037
14	0xbd242352	-0.040072747
15	0xbd8408f6	-0.06447022
16	0x3d99a9ea	0.07503112
17	0x3d2bfac6	0.041987203
18	0x3d4a61f3	0.049409818
19	0xbbf45646	-0.0074565737
20	0x3d48ba3c	0.049005732
21	0x3d3a0d94	0.045423105
22	0x3ce669ad	0.028126562
23	0xbc8519d9	-0.016247677
24	0xbd29cd2f	-0.041455444
25	0xbc968adb	-0.018376758
26	0x3d49f9df	0.04931056
27	0x3d20bb84	0.03924133
28	0x3d390598	0.04517135
29	0xbaaa32b5	-0.0012985083
30	0xbcd16038	-0.025558576
31	0x3d7cab8c	0.061687037
32	0xbbc6f7ca	-0.006072019
33	0x3d5ef60e	0.054433875
34	0x3d9326c0	0.07185125
35	0xbd3acff4	-0.045608476
36	0x3cfdc90f	0.030979661
37	0xbd71d564	-0.059041396
38	0xbc5708f7	-0.013124696
39	0xbd28efc8	-0.0412443
40	0x3d569a0c	0.052393004
41	0xbccd84d7	-0.025087757
42	0x3d4d653b	0.05014537
43	0xbce65d48	-0.028120652
44	0xbc3e6c66	-0.011622524
45	0x3d574154	0.052552536
46	0xbce5dc17	-0.028059049
47	0xbd92cfe8	-0.07168561
48	0x3cf20d9d	0.029547507
49	0x3cbf50b4	0.023353912
50	0x3d62fe06	0.055418037
51	0xbd28c124	-0.04119982
52	0x3d40f2d7	0.04710659
53	0x3d207523	0.03917421
54	0x3c17d828	0.009267844
55	0x3cd0bf7a	0.025481928
56	0xbd2c782f	-0.042106804
57	0xbd440de4	-0.04786481
58	0x3c8793c6	0.016549956
59	0x3d3b074e	0.045661263
60	0xbcb98c3f	-0.022649882
61	0xbd771cb1	-0.060330097
62	0xbcff7431	-0.031183334
63	0xbd4f3529	-0.050587807
64	0x3d8764a3	0.06610992
65	0x3d6ba9df	0.05753505
66	0xbce73f20	-0.028228343
67	0x3d156859	0.036476467
68	0xbbe08852	-0.006852188
69	0xbd2dc522	-0.04242433
70	0xbcacde96	-0.021102231
71	0xbd247939	-0.04015467
72	0xbcdaaddd	-0.026694233
73	0x3cdd9f55	0.027053514
74	0xbd2cff1e	-0.042235486
75	0xbd618848	-0.05506161
76	0x3d1097a4	0.035300866
77	0x3d3502a5	0.044191975
78	0xbd73bc17	-0.05950555
79	0x3cf77417	0.030206723
80	0xbd9a001c	-0.07519552
81	0xbd6b1ac0	-0.057398558
82	0x3d0ac7a8	0.033881813
83	0xbd4606ef	-0.048346456
84	0x3d33989c	0.04384671
85	0xbd14aaec	-0.036295816
86	0xbbcabe55	-0.00618724
87	0x3d75c284	0.059999958
88	0xbcd95c02	-0.02653313
89	0x3d12ef08	0.03587249
90	0x3d4baf2a	0.049727596
91	0x3d89b8ce	0.06724702
92	0xbd2e21fa	-0.04251287
93	0x3cf33974	0.029690482
94	0xbd4a5228	-0.049394757
95	0xbc8f35c0	-0.017481685
96	0xbcc5ec9a	-0.024160672
97	0x3c5104cd	0.012757492
98	0x3daef51f	0.08542847
99	0xbd80cf0a	-0.062894896
100	0x3d1b7255	0.037950832
101	0xbd1603d4	-0.036624745
102	0x3d19c8ab	0.037544888
103	0xbd3aeb35	-0.045634467
104	0xbd5e7de6	-0.054319285
105	0xbd2c421b	-0.04205523
106	0xbc9a0a2e	-0.018803682
107	0xbd5e10a1	-0.054215077
108	0xbd456253	-0.048189472
109	0x3d65ea9e	0.05613195
110	0xbcd5f151	-0.026116045
111	0x3d692f86	0.056930088
112	0xbd3a8246	-0.045534395
113	0xbc1e762f	-0.009671732
114	0xbd12e37f	-0.03586149
115	0xbd3aa5d7	-0.045568313
116	0xbd0ebff0	-0.034851015
117	0x3d0b2c05	0.033977527
118	0x3d191c66	0.0373806
119	0xbd5914d8	-0.052998394
120	0x3d506dd7	0.050886
121	0x3d35a047	0.044342306
122	0x3d202cab	0.0391051
123	0xbd7bbd96	-0.0614601
124	0xbd11e0f4	-0.035614923
125	0x3d4a4119	0.04937849
126	0xbcb1f073	-0.0217211
127	0xbd4ceb7b	-0.05002926
128	0x3d956a82	0.072957054
129	0x3d211be4	0.03933324
130	0x3d62b99c	0.055352792
131	0xbb94aa07	-0.0045368704
132	0xbd39fcc8	-0.045407087
133	0x3d56f948	0.052483827
134	0xbd1316c3	-0.03591038
135	0xbd2c8345	-0.042117376
136	0xbd336a06	-0.043802284
137	0xbd855700	-0.065107346
138	0x3d231778	0.039817303
139	0xbcdf8848	-0.027286664
140	0x3d2593b5	0.040424068
141	0x3d2cbb7e	0.042170994
142	0x3d35fe9e	0.044432275
143	0xbd12437b	-0.035708886
144	0x3d1b9f6e	0.03799384
145	0xbd6377e5	-0.055534262
146	0x3d8782ab	0.0661672
147	0xbc63568a	-0.013875613
148	0x3c665065	0.0140572535
149	0xbd412182	-0.047151096

encoder.weight_hh_l0 f4 [150, 150]
0	0x3d25c0d1	0.040467087
1	0xbd15f0ec	-0.036606714
2	0x3c37b372	0.011212217
3	0x3d07eb68	0.033183485
4	0xbdd7b4b0	-0.1053251
5	0x3c3267af	0.010888978
6	0x3c266dc8	0.01015801
7	0x3d85ea3f	0.065388195
8	0xbd82e66a	-0.06391604
9	0xbd80082e	-0.0625156
10	0xbcaa0056	-0.020752113
11	0x3d4c549d	0.04988538
12	0x3d1553d7	0.03645691
13	0x3cefc877	0.029270394
14	0x3cd5a894	0.02608136
15	0x3d455210	0.048173964
16	0xbca2b740	-0.019862771
17	0xbd763603	-0.060110103
18	0xbdaf5b7b	-0.085623704
19	0x3bf81b46	0.0075716106
20	0xbd43e160	-0.047822356
21	0x3d3f1ee2	0.04666031
22	0x3d3d9d74	0.046292737
23	0xbc1961a1	-0.009361655
24	0xbd5384a8	-0.051640183
25	0x3ca438f8	0.020046696
26	0xbcf3261b	-0.029681256
27	0xbd0fb125	-0.035081048
28	0xbdad8e5c	-0.084744185
29	0xbc7dd164	-0.015491817
30	0x3c1e3d76	0.009658208
31	0xbde336a8	-0.11094409
32	0x3dbcbaec	0.0921534
33	0xbc2ef8cd	-0.010679436
34	0x3c817ac2	0.015805606
35	0xbc649144	-0.01395065
36	0xbd8c84a3	-0.06861236
37	0x3ddce49b	0.107857905
38	0x3d4a0bfa	0.049327828
39	0x3b0c6b0f	0.0021426117
40	0x3c98847a	0.018617857
41	0xbce8c432	-0.028413866
42	0xbc2b63b4	-0.010460783
43	0x3d3bad39	0.045819495
44	0xbd4d5e6a	-0.05013887
45	0xbc7aa7e2	-0.015298815
46	0xbcba4966	-0.022740077
47	0xb98627d1	-0.00025588137
48	0xbd2f4a9d	-0.042795766
49	0xbc111612	-0.00885536
50	0xbd19d32a	-0.037554897
51	0xbd491ba3	-0.049098622
52	0xbdb8e900	-0.09028816
53	0xbdbe8428	-0.093025506
54	0xbcec415b	-0.028839758
55	0x3cbff7a4	0.023433514
56	0xbc1db395	-0.009625335
57	0xbb57aaa7	-0.0032908113
58	0xbdd77acf	-0.10521471
59	0x3bc11768	0.005892683
60	0xbbf78df0	-0.007554762
61	0x3cb8d4a3	0.02256233
62	0xbd10c86b	-0.035347383
63	0x3ca448cc	0.020054244
64	0xbd861d30	-0.06548536
65	0xbd3d2c53	-0.04618485
66	0x3dacc721	0.08436418
67	0x3b64fa33	0.003493917
68	0x3b0521a4	0.002031424
69	0x3cb20af0	0.021733731
70	0x3cd412f2	0.02588794
71	0x3dde7abb	0.10863253
72	0xbd7ea191	-0.0621658
73	0xbd66336e	-0.05620139
74	0xbcdad7fb	-0.026714316
75	0xbd008cae	-0.031384163
76	0xbdb3e39f	-0.0878365
77	0x3cd53c1e	0.026029643
78	0xbb12dc13	-0.0022409006
79	0xbd12a8ad	-0.035805393
80	0x3b0c0264	0.002136373
81	0xbca59822	-0.020214144
82	0x3c8d3b56	0.017240208
83	0xbd5431e1	-0.05180538
84	0xbc8fabc8	-0.017537966
85	0xbcbc16c5	-0.022960076
86	0xb99c2fc9	-0.0002979024
87	0xbdd6d727	-0.10490256
88	0xbb9a19cc	-0.0047027823
89	0xbdb76701	-0.08955193
90	0x3cac47a5	0.021030257
91	0xbdb31451	-0.087441094
92	0xbcd12c64	-0.025533862
93	0xbd9ae221	-0.07562662
94	0x3d3f1ce9	0.04665843
95	0x3d6da10f	0.058014926
96	0x3d12674e	0.03574305
97	0xbdc3fae1	-0.09569336
98	0x3c880bdf	0.016607223
99	0x3c5e867b	0.013581867
100	0xbddd2b6f	-0.107993
101	0x3d3459e0	0.044031024
102	0xbd18c685	-0.037298698
103	0x3d867b29	0.0656646
104	0x3ddf5c3b	0.109062634
105	0x3dc36575	0.09540836
106	0xbd167ad1	-0.03673822
107	0xbcc9042d	-0.024538124
108	0xbd57dc9e	-0.05270063
109	0xbc6671c0	-0.014065206
110	0x3d8166ae	0.06318413
111	0x3c4646ce	0.012101842
112	0x3db27a83	0.087147735
113	0x3dad1ca0	0.084527254
114	0xbce06cb7	-0.02739559
115	0x3c440b14	0.011965532
116	0x3d276564	0.040868178
117	0x3b9fb22e	0.0048735356
118	0x3d08cd00	0.03339863
119	0xbbf82e62	-0.0075738886
120	0xbd983c1a	-0.074333385
121	0x3c611f9a	0.013740445
122	0xbca70daf	-0.020392267
123	0x3db84741	0.089979656
124	0xbd1f06ff	-0.03882503
125	0xbd8faf26	-0.07015829
126	0xbc2b395d	-0.010450688
127	0x3bdb1b62	0.006686614
128	0xbcb34a0e	-0.021885898
129	0xbd36be89	-0.044615302
130	0xbda66241	-0.08124209
131	0x3db087e9	0.08619673
132	0x3c70e987	0.014704115
133	0xbc8ff502	-0.017572884
134	0xbd1546f6	-0.036444627
135	0x3db546d2	0.088513985
136	0x3dc1df2d	0.094663955
137	0x3d95531c	0.072912425
138	0xbd7e5f86	-0.062102817
139	0x3cfa4536	0.03055058
140	0x3d5846aa	0.052801766
141	0xbbf77a22	-0.007552401
142	0x3d3da259	0.046297405
143	0x3dd00f67	0.10159188
144	0xbc476e79	-0.012172335
145	0xbd28d0b5	-0.041214664
146	0x3c9a8ab2	0.018864963
147	0x3d9ce8d3	0.07661595
148	0xbd9044dd	-0.07044385
149	0x3ce3d9fb	0.027813902
150	0xb9a77e47	-0.00031946806
151	0x3e0bcf6d	0.13653345
152	0x3e188eeb	0.14898269
153	0x3d14f29e	0.03636419
154	0x3c63579c	0.013875868
155	0x3d4d99fe	0.050195687
156	0x3b3b3cf7	0.0028570273
157	0xbced5440	-0.028970838
158	0x3ce019ee	0.027356114
159	0xbc8a3726	-0.016872
160	0x3de5ecb9	0.11226792
161	0x3cf742fa	0.030183304
162	0x3cb791f2	0.02240846
163	0xbc14d784	-0.009084586
164	0xbdf1d3cb	-0.118079744
165	0xbcabdf8e	-0.020980623
166	0x3df76885	0.120804824
167	0x3dc38f08	0.095487654
168	0x3daa5c8b	0.083184324
169	0xbdd6bd19	-0.10485286
170	0xbd93a649	-0.07209451
171	0x3da7be4b	0.081905924
172	0x3d57c172	0.05267472
173	0x3d15f831	0.036613647
174	0x3d806dd3	0.06270947
175	0xbe05cd0e	-0.13066503
176	0x3d31a5a8	0.043370873
177	0xbcaa8b0d	-0.020818258
178	0x3b89536c	0.004190853
179	0xbdb77a23	-0.089588426
180	0x3b906abb	0.0044072545
181	0x3dc74511	0.0972997
182	0xbd86c67e	-0.06580828
183	0xbc556f7b	-0.013027067
184	0x3dcb4ee1	0.09927154
185	0x3d63b838	0.055595607
186	0x3de8cda2	0.11367346
187	0x3a5ec6f6	0.00084982754
188	0xbcbf099c	-0.023320012
189	0x3b9fa3d8	0.0048718266
190	0x3d158f12	0.036513396
191	0xbc317f6c	-0.010833602
192	0xbd839292	-0.064244404
193	0xbda151bd	-0.078769185
194	0x3c76e7d5	0.0150699215
195	0x3d3f0fb6	0.046645842
196	0xbdd20cf8	-0.1025638
197	0xbc37402a	-0.0111847315
198	0x3d957770	0.072981715
199	0x3e06c26a	0.131601
200	0xbd1142da	-0.035464145
201	0xbcb75744	-0.022380479
202	0xbd269294	-0.04066713
203	0x3cdfe34e	0.027330067
204	0x3cfa3f7f	0.030547855
205	0x3dd22256	0.10260455
206	0xbdb68c1a	-0.08913441
207	0xbd8e5a13	-0.06950774
208	0xba86ba4b	-0.0010278908
209	0x3dca23d3	0.09870114
210	0x3cea6780	0.028613806
211	0xbd0efcf9	-0.034909222
212	0xbd6f88e8	-0.058480173
213	0xbcf27ac2	-0.029599551
214	0xbc073b20	-0.008253843
215	0x3c1779d4	0.009245355
216	0xbd6edccb	-0.058316033
217	0x3df8d684	0.121502906
218	0xbdca14f8	-0.09867281
219	0xbdc5b2e9	-0.09653265
220	0xbddbc14b	-0.10730227
221	0xbe0d1d61	-0.13780738
222	0xbda2dff2	-0.079528704
223	0x3da45b8b	0.08025273
224	0x3cad0ed1	0.02112523
225	0xbdb61c7f	-0.08892154
226	0xbc6168f2	-0.013757931
227	0x3d8bd827	0.06828337
228	0xbdf5024a	-0.11963327
229	0x3d02205e	0.03176915
230	0xbd79bd52	-0.060971566
231	0xbd49dc39	-0.049282286
232	0xbc7f540e	-0.015584005
233	0xbad7b9de	-0.0016458591
234	0x3bc1b228	0.0059111305
235	0xbb857401	-0.0040726666
236	0xbd3535fb	-0.044240933
237	0x3c562491	0.013070242
238	0x3c188e01	0.0093112
239	0x3da01a87	0.0781756
240	0x3d3a59ed	0.045495916
241	0x3e10fa62	0.14158013
242	0xbdace431	-0.084419616
243	0x3daeca6c	0.08534703
244	0x3c72998b	0.014807115
245	0xbda9e550	-0.08295691
246	0xbdc0c20b	-0.09412011
247	0x3db2719f	0.08713078
248	0x3cb609b5	0.022221426
249	0x3d32b94e	0.04363375
250	0x3e1cc984	0.15311247
251	0xbcdbe3ab	-0.026841959
252	0x3d9ed3e8	0.07755262
253	0x3cd3d301	0.02585745
254	0x3d553ac2	0.05205799
255	0xbd292b03	-0.041300785

encoder.bias_ih_l0 f4 [150]
0	0x3cff879e	0.031192597
1	0x3d910859	0.0708167
2	0xbc9338e4	-0.017971464
3	0xbd894fec	-0.06704697
4	0x3cae8a19	0.021306084
5	0x3c3c0d8e	0.011477841
6	0xbda2d828	-0.07951385
7	0xbc34123a	-0.010990674
8	0xbd8f878a	-0.07008274
9	0x3ddf29ae	0.10896622
10	0x3d80ae8c	0.06283292
11	0xbd2aa9d0	-0.041665852
12	0xbc861001	-0.016365053
13	0xbcf622dc	-0.03004592
14	0xbcf7c0ff	-0.030243395
15	0x3d08a1c9	0.033357415
16	0x3cb52979	0.022114502
17	0xbc12861e	-0.008943109
18	0x3cb4b5cd	0.022059346
19	0xbdc7da32	-0.09758414
20	0xbd8846c0	-0.066541195
21	0xbcbbc5bb	-0.022921434
22	0x3d9b1051	0.075714715
23	0x3d551f6a	0.052031912
24	0x3cdb4792	0.026767526
25	0x3d039326	0.032122754
26	0xbda9effb	-0.08297726
27	0x3c16927a	0.009190196
28	0xbd88fbe8	-0.06688672
29	0x3ceea2d3	0.029130375
30	0xbc2f5023	-0.010700258
31	0x3c196354	0.009362061
32	0xbbe4044b	-0.0069585196
33	0x3d78ba2c	0.060724422
34	0x3aa722bc	0.001275144
35	0x3dcab387	0.098975234
36	0x3cca2851	0.024677427
37	0x3d1c7a27	0.03820243
38	0xbd4e9ab5	-0.05044051
39	0xbd3781d1	-0.044801537
40	0x3c3b9a26	0.011450326
41	0x3d0a6fe1	0.033798102
42	0x3d3f20bc	0.046662077
43	0x3d8a5514	0.067545086
44	0xbd219ca4	-0.039456025
45	0x3d2a79dc	0.04162012
46	0x3c4f6540	0.012658417
47	0xbd10c631	-0.03534526
48	0x3d9f2e6d	0.07772527
49	0x3b90a713	0.004414448
50	0x3ddf0380	0.108893394
51	0x3dd840e5	0.10559253
52	0xbcc9723f	-0.02459061
53	0xbbbf2c09	-0.005834107
54	0x3c351dce	0.011054469
55	0xbc8849b4	-0.016636707
56	0xbb89a149	-0.004200135
57	0x3d242298	0.040072054
58	0x3c8cb5b7	0.017176492
59	0xbc228d81	-0.0099214325
60	0xbd9aaefa	-0.075529054
61	0xbd870b25	-0.065939225
62	0xbd6093df	-0.05482852
63	0xbd2466d2	-0.04013712
64	0x3d1c5cf0	0.03817457
65	0xbce3f32f	-0.02782592
66	0x3d1489cc	0.036264226
67	0xbd476224	-0.04867758
68	0xbd2f43fd	-0.042789448
69	0x3cac7712	0.02105287
70	0x3cd416ff	0.025889872
71	0xbb9121aa	-0.004429062
72	0xb9e41895	-0.00043505864
73	0x3c1ead89	0.009684929
74	0xbc2510a1	-0.010074765
75	0x3b94cdef	0.0045411508
76	0x3d6b3dc6	0.05743196
77	0xbaf1f0e6	-0.0018458634
78	0xbd0af6b8	-0.033926696
79	0xbd9d39a4	-0.0767701
80	0xbd7a3804	-0.061088577
81	0x3ce03aae	0.02737173
82	0x3b1c14fd	0.002381622
83	0x3d4cd3d2	0.050006695
84	0xbcb8538e	-0.02250078
85	0xbd38b312	-0.04509265
86	0x3cd57711	0.026057752
87	0x3cb58860	0.022159755
88	0xbd1cb490	-0.038258135
89	0x3d0e7c0c	0.03478627
90	0xbd0a8121	-0.033814553
91	0xbc0c7a4f	-0.0085740825
92	0x3d5be37b	0.05368374
93	0x3a13d0fe	0.0005638747
94	0x3d84692c	0.064653724
95	0x3d800ceb	0.06252464
96	0xbd8be829	-0.068313904
97	0x3dabcba8	0.08388454
98	0xbd42be4d	-0.047544766
99	0x3b7399f2	0.0037170616
100	0x3d8e34ac	0.0694364
101	0xbca98020	-0.020690978
102	0xbafe7d9d	-0.0019416098
103	0x3d8a6788	0.06758028
104	0x3dca17fb	0.09867855
105	0x3bc02f5e	0.0058650216
106	0xbdb93354	-0.09042993
107	0x3c6c2958	0.014414154
108	0x3dd0b464	0.10190657
109	0x3c9a63cd	0.018846417
110	0xbda18839	-0.078873105
111	0x3d81d5d7	0.06339615
112	0x3c35cded	0.01109646
113	0xbdd216f2	-0.10258283
114	0xbcc64611	-0.024203332
115	0xbcfd2cb2	-0.030905101
116	0x3d63ce5c	0.05561672
117	0x3a8be109	0.0010671924
118	0x3b057413	0.0020363375
119	0x3d6b7ddd	0.05749308
120	0x3cb4a01b	0.022049
121	0xbdcc2a8c	-0.09969053
122	0x3d3d2f1c	0.046187505
123	0x3d533728	0.051566273
124	0x3de3190f	0.11088764
125	0x3d3b5b39	0.045741294
126	0xbcd35bf3	-0.02580068
127	0xbc9411e3	-0.018074935
128	0x3d548538	0.05188486
129	0xbd4d5c22	-0.050136693
130	0xbd56bdb0	-0.052426994
131	0xbda8418b	-0.08215626
132	0xbd02bf6c	-0.031920835
133	0xbdb0cc9d	-0.08632777
134	0xbd1cb4a1	-0.0382582
135	0x3cfa5ee1	0.03056282
136	0xbc970c5d	-0.018438512
137	0xbd9d9051	-0.07693542
138	0x3da84d78	0.08217901
139	0x3cbd6f0e	0.023124244
140	0xbc27e9a2	-0.0102485735
141	0xbdceb240	-0.10092592
142	0xbd805868	-0.06266862
143	0x3c6d2df8	0.014476292
144	0xbda805c1	-0.082042225
145	0x3d929042	0.07156421
146	0xbd3c1e88	-0.045927554
147	0xb8d935ec	-0.0001035741
148	0x3d948702	0.07252313
149	0xbcca4999	-0.024693297

encoder.bias_hh_l0 f4 [150]
0	0xbd9021dc	-0.07037708
1	0x3daef5f5	0.08543006
2	0x3d754646	0.05988147
3	0x3ce18506	0.02752925
4	0x3d5d1d31	0.053982917
5	0xbb22bb5c	-0.0024830913
6	0xbd5ac9c1	-0.053415064
7	0xbd7a5d57	-0.061124172
8	0x3d5a6f1f	0.05332863
9	0x3d8c56dc	0.068525046
10	0xbcbc0e20	-0.022955954
11	0x3bcc9e1e	0.006244435
12	0x3d834e8c	0.06411466
13	0x3d706757	0.058692303
14	0x3c7e8fbb	0.015537198
15	0x3d97fe31	0.0742153
16	0x3d8b2ccb	0.06795653
17	0x3d879e3c	0.06621978
18	0x3dccf7c4	0.10008195
19	0xbdc1a6aa	-0.09455617
20	0xbdc3ca75	-0.095601
21	0xbd125120	-0.035721898
22	0x3cf61036	0.030037027
23	0x3c87b4e2	0.016565744
24	0x3dd397b1	0.10331667
25	0xbdd7bd31	-0.10534132
26	0xbd54376c	-0.051810667
27	0x3d98f7f0	0.07469165
28	0xbd5189b3	-0.05115671
29	0x3cbe8028	0.023254469
30	0xbd94ce97	-0.072659664
31	0xbd3dc0e0	-0.046326518
32	0x3c3ca990	0.011515036
33	0xbc3df5ed	-0.011594278
34	0x3d21e34b	0.039523404
35	0x3d930be8	0.07180005
36	0x3d502f0f	0.05082613
37	0x3d3b5c39	0.045742247
38	0xbd96385c	-0.073349684
39	0x3cdb5fab	0.026779016
40	0xbd7572fd	-0.059924114
41	0xbda8ab6b	-0.082358204
42	0xbdbd6317	-0.092474155
43	0xbcc8b573	-0.024500584
44	0xbddc14b5	-0.10746137
45	0xbdcc32b3	-0.099706076
46	0x3ba20db1	0.00494548
47	0x3cbd98f3	0.023144221
48	0x3c36fb33	0.011168289
49	0xbc1e579d	-0.009664443
50	0xbcf8f4d3	-0.030390179
51	0xbb96b5b6	-0.0045992984
52	0xbd0987f3	-0.033576917
53	0x3d773a60	0.060358405
54	0xbb988f92	-0.004655787
55	0x3d3c8b29	0.04603115
56	0x3da48ab9	0.08034272
57	0xbcbff203	-0.02343083
58	0x3cb64915	0.022251645
59	0xbd724e00	-0.059156418
60	0xbdb1c281	-0.08679677
61	0x3d68d039	0.0568392
62	0xbbb42151	-0.0054971357
63	0xbd911f2a	-0.07086022
64	0xbb44ed6d	-0.0030048743
65	0x3b98fe1a	0.004668963
66	0x3bb42587	0.0054976377
67	0xbd8b3231	-0.067966826
68	0xbc741363	-0.0148972
69	0x3d182389	0.037143264
70	0xbdac5d82	-0.08416273
71	0xbd599300	-0.053118706
72	0x3d57647a	0.052586056
73	0xbc5d227b	-0.01349699
74	0x3db46c73	0.088097475
75	0x3d1e6ff0	0.03868097
76	0xbbf22e0c	-0.007390743
77	0xbd3f51a2	-0.04670871
78	0x3c69769f	0.014249473
79	0xbd34bdb7	-0.04412624
80	0xbce92de0	-0.028464258
81	0xbc952121	-0.018204274
82	0x3d7e6de6	0.062116526
83	0x3d38a937	0.04508325
84	0xbce3422c	-0.027741514
85	0x3c0f715e	0.008755056
86	0xbdd8aa3a	-0.10579343
87	0xbd49219b	-0.049104314
88	0xbda8a004	-0.082336456
89	0x3d8fca4a	0.070210055
90	0xbd39f23c	-0.04539703
91	0xbcec45cb	-0.028841874
92	0x3d1e6e8e	0.038679652
93	0xbd80b038	-0.06283611
94	0x3cae6ef4	0.021293141
95	0xbd1c0683	-0.038092148
96	0xbd375d25	-0.044766564
97	0x3d9bfc60	0.07616496
98	0x3d420b69	0.047374163
99	0x3d2207a0	0.039558053
100	0x3d160e01	0.03663445
101	0x3d816568	0.0631817
102	0xbd7e498b	-0.062081855
103	0xbbfd8c9d	-0.0077377097
104	0xbcb30f8f	-0.021858005
105	0x3d6e253a	0.05814097
106	0xbdd43a04	-0.10362628
107	0xbd94bb27	-0.07262259
108	0x3dcad30f	0.099035375
109	0x3bb02f3b	0.005376724
110	0xbcae2697	-0.021258635
111	0x3b8a069b	0.004212213
112	0xbb816ae0	-0.003949508
113	0xbd4a9dcd	-0.049466897
114	0x3c311c93	0.010810035
115	0x3de69af5	0.112600245
116	0xbcd340e6	-0.025787782
117	0x3d2cd5ec	0.0421962
118	0x3cc92152	0.024552021
119	0x3d1e7a65	0.038690943
120	0xbbb54667	-0.0055320743
121	0xbd8c68a7	-0.06855898
122	0x3dabbf3b	0.08386084
123	0x3d60d34a	0.054889
124	0x3d74d779	0.059775803
125	0x3d1cb592	0.038259096
126	0x3d968108	0.073488295
127	0xbda4136c	-0.08011517
128	0xbc7dbda5	-0.015487109
129	0x3c2e2aa6	0.010630285
130	0xbb6761bd	-0.003530606
131	0xbd3fc660	-0.046820045
132	0xbd032939	-0.032021735
133	0x3c93db15	0.018048802
134	0xbd1ddd63	-0.03854121
135	0x3dcb200c	0.09918222
136	0xbdabab79	-0.08382315
137	0x3d497653	0.04918511
138	0x3d87c74e	0.06629811
139	0x3c3b7ef2	0.01144384
140	0xbdd143bf	-0.10218
141	0x3d3c2712	0.045935698
142	0x3d2b261e	0.0417844
143	0x3d3ddb69	0.046351824
144	0x3d01e1a7	0.03170934
145	0x3ad2eb7c	0.0016091908
146	0xbda02d8a	-0.07821186
147	0xbdb20817	-0.08692949
148	0x3b2e1715	0.002656405
149	0xbd76b144	-0.060227647

fc_hidden.weight f4 [75, 150]
0	0xbd4f5d9d	-0.050626386
1	0xbe5ea2f5	-0.2174185
2	0x3e0dc3cf	0.13844226
3	0xbd5d9dcf	-0.054105576
4	0x3e16cb52	0.14725998
5	0x3e142e77	0.1447085
6	0x3da20759	0.07911558
7	0xbe540b75	-0.20707496
8	0x3d6c167b	0.057638627
9	0x3d833145	0.06405882
10	0x3d99b64f	0.07505476
11	0x3e3d8508	0.18507779
12	0xbe2ee0f2	-0.17077997
13	0xbe107321	-0.14106418
14	0xbe1fcd7e	-0.15605733
15	0xbd764a6d	-0.06012957
16	0x3e4b2343	0.1983767
17	0x3d839629	0.06425125
18	0x3dd6da6d	0.1049088
19	0xbd0c8ed9	-0.034315918
20	0x3e4e3506	0.20137414
21	0x3e1c7c52	0.152818
22	0x3e426221	0.18982746
23	0xbdae0ba1	-0.08498312
24	0xbe1eb660	-0.15499258
25	0xbe3158fb	-0.173191
26	0x3e4c6a22	0.19962361
27	0x3e3390c2	0.1753569
28	0x3dc817cf	0.09770166
29	0xbd84f30e	-0.064916715
30	0xbdc6e2dc	-0.09711239
31	0x3db89871	0.09013451
32	0xbe0eac63	-0.13932948
33	0x3e01dd19	0.12681998
34	0x3ddc7385	0.10764221
35	0xbe36eff3	-0.17864971
36	0x3e1332e0	0.14374876
37	0xbdb1151c	-0.086466044
38	0xbe3b3cca	-0.18284908
39	0xbe3b17c8	-0.1827079
40	0x3e53b182	0.20673183
41	0xbdb00798	-0.085951984
42	0x3e178d04	0.14799887
43	0xbe15ffb0	-0.14648318
44	0xbcea3397	-0.028589053
45	0x3e5fa85a	0.21841565
46	0xbe3898d3	-0.18027048
47	0xbe26f277	-0.1630343
48	0x3e3812cd	0.17975922
49	0x3d89e4e7	0.06733113
50	0x3e28f311	0.16498972
51	0xbd7c7bfb	-0.061641674
52	0x3e14ece4	0.14543492
53	0x3e157362	0.14594796
54	0x3dbdbe92	0.09264864
55	0x3e299769	0.16561665
56	0xbdd2a1e1	-0.10284782
57	0xbe053732	-0.13009337
58	0x3e19d70a	0.15023437
59	0x3dd99706	0.106245086
60	0xbe3cece6	-0.18449745
61	0xbdd0606f	-0.10174643
62	0xbd8d4252	-0.06897415
63	0xbdb2712b	-0.08712991
64	0x3e4386bf	0.1909437
65	0x3e386380	0.18006706
66	0xbd82831a	-0.06372662
67	0x3e203a44	0.15647227
68	0xbe24d822	-0.16098073
69	0xbe179ea7	-0.14806615
70	0xbd6c0b98	-0.057628244
71	0xbe1399c7	-0.1441413
72	0xbe3944e0	-0.1809268
73	0x3df06ac9	0.11739118
74	0xbe207a11	-0.15671565
75	0xbdcae701	-0.09907342
76	0x3e418220	0.18897295
77	0x3df4cc48	0.11953026
78	0xbd788b16	-0.060679518
79	0x3df86b8a	0.121298864
80	0xbe1360b8	-0.14392364
81	0xbdc0587d	-0.09391878
82	0x3d65e8bc	0.056130156
83	0xbdf6dfbb	-0.12054392
84	0x3e56b29a	0.20966569
85	0xbe51cb29	-0.20487656
86	0xbe29fc81	-0.16600229
87	0x3d856dcd	0.065150835
88	0xbd7d6550	-0.061864197
89	0x3e254746	0.1614047
90	0x3df0af76	0.117522165
91	0x3da93878	0.08262724
92	0xbdac0daf	-0.084010474
93	0x3e4e7ce3	0.20164828
94	0xbe0c523a	-0.13703242
95	0xbe345c76	-0.17613396
96	0xbe42aa0f	-0.19010185
97	0x3dc5bab4	0.096547514
98	0x3e3068c2	0.17227462
99	0xbdba8e78	-0.09109205
100	0x3dea1a9c	0.114308566
101	0xbe5e19af	-0.21689485
102	0x3dd3da35	0.10344354
103	0xbda9923f	-0.08279847
104	0xbe25975d	-0.16171022
105	0xbe2da136	-0.16956028
106	0xbe49491f	-0.196568
107	0xbe4f4521	-0.20241214
108	0xbdbc1c8f	-0.091851346
109	0x3deaebd5	0.11470763
110	0xbde8557b	-0.11344429
111	0x3e3fb36e	0.1872079
112	0xbe1f18f5	-0.15536864
113	0xbdee80b7	-0.11645644
114	0xbdcdbabc	-0.100453824
115	0xbd85b72c	-0.06529078
116	0xbdea5caa	-0.114434555
117	0x3e4d3e5c	0.2004332
118	0x3e1e7865	0.15475614
119	0xbe0940a0	-0.13403559
120	0x3df58d68	0.11989862
121	0x3e2fe492	0.17177036
122	0x3dc2f259	0.095188804
123	0xbd94160d	-0.07230768
124	0xbe59a276	-0.2125338
125	0x3e1b947a	0.15193358
126	0xbe2d3435	-0.16914447
127	0xbdfda412	-0.123848096
128	0x3e518f36	0.20464787
129	0x3e58271a	0.21108666
130	0x3e414b2f	0.18876337
131	0xbde56e2c	-0.11202654
132	0xbe2d0eaf	-0.16900133
133	0x3dcf9731	0.10136259
134	0xbe27154d	-0.1631672
135	0xbe0411e7	-0.12897454
136	0xbe26e1aa	-0.16297022
137	0xbdad58da	-0.08464213
138	0x3d9b8f16	0.07595651
139	0xbd9326ea	-0.07185157
140	0x3e495933	0.19662933
141	0x3e2b13ef	0.16706823
142	0x3deb1c87	0.114800505
143	0xbdd455f8	-0.1036796
144	0x3d9d3c1e	0.07677482
145	0xbe338503	-0.17531209
146	0x3d980c06	0.07424168
147	0xbdde5036	-0.10855143
148	0x3da6d5ce	0.08146249
149	0xbe45e79b	-0.19326632
150	0xbe286c99	-0.16447677
151	0xbe4ae66e	-0.19814464
152	0x3e545688	0.20736134
153	0xbd85a36c	-0.06525311
154	0x3e4c120c	0.1992876
155	0x3deaea12	0.114704266
156	0x3dd8b100	0.10580635
157	0xbe3761d0	-0.17908406
158	0x3e3faa18	0.1871723
159	0x3e157f98	0.14599454
160	0x3e280ded	0.16411562
161	0x3e2a8b5b	0.16654722
162	0xbdcb11cc	-0.09915504
163	0xbd85cf92	-0.065337315
164	0xbe2483eb	-0.16065948
165	0xbda7153a	-0.081583455
166	0x3d76db3f	0.060267683
167	0x3e092506	0.1339303
168	0x3e0ce2f6	0.13758454
169	0xbe028b3c	-0.12748426
170	0x3de3e042	0.11126758
171	0x3e12ccbf	0.14335917
172	0x3e5acce9	0.2136723
173	0xbdb72eb4	-0.08944455
174	0xbdb81b80	-0.0898962
175	0xbdce173d	-0.10063026
176	0x3e29b3ee	0.16572544
177	0x3ddbd7ef	0.107345454
178	0x3e4bc02f	0.19897531
179	0xbe2ba45f	-0.16761921
180	0xbe11f3cf	-0.14253162
181	0x3ddcbf81	0.10778714
182	0xbd984adf	-0.074361555
183	0x3defa4cd	0.11701355
184	0x3e1a6aa9	0.1507975
185	0xbe46e4c8	-0.1942321
186	0x3d79e7a6	0.061011933
187	0xbd713d8e	-0.058896594
188	0xbdc5f56b	-0.096659504
189	0xbde29eeb	-0.110654674
190	0x3de1fa02	0.11034013
191	0xbdf01824	-0.117233545
192	0x3df815b2	0.12113513
193	0xbdf3d607	-0.11906057
194	0xbddcb6db	-0.107770644
195	0x3dae4f3a	0.08511205
196	0xbe31fd89	-0.17381872
197	0xbe38b670	-0.18038344
198	0x3d5b8925	0.053597588
199	0x3e3ac667	0.18239747
200	0x3e41749a	0.18892136
201	0xbe5ccf12	-0.21563366
202	0x3e5b4a86	0.21415147
203	0x3d6cb010	0.057785094
204	0x3e3c7e61	0.18407585
205	0x3dcfd227	0.10147505
206	0xbe0fc95f	-0.1404166
207	0xbd7b511c	-0.06135665
208	0x3dba5a74	0.09099284
209	0x3d8fc58d	0.07020102
210	0xbdebcebb	-0.1151404
211	0xbe22d633	-0.15902023
212	0xbe203899	-0.1564659
213	0xbe0309f6	-0.12796769
214	0x3dc3f4b3	0.09568157
215	0x3e5511c9	0.20807566
216	0xbe1b7017	-0.15179478
217	0x3d6f55f9	0.0584316
218	0xbd8a01f0	-0.06738651
219	0xbddc1066	-0.10745315
220	0xbe4a1f5d	-0.19738527
221	0xbdf35edf	-0.118833296
222	0xbdaaeb8a	-0.08345707
223	0x3e51234e	0.20423624
224	0xbe474b2d	-0.19462271
225	0xbe1fdaf6	-0.1561087
226	0x3e390d43	0.18071465
227	0x3dc54cb3	0.0963377
228	0xbe1e91e1	-0.15485336
229	0x3e0f4993	0.1399291
230	0xbe4eb44b	-0.20185964
231	0xbe2d4d93	-0.16924123
232	0x3e119be5	0.14219625
233	0xbe101450	-0.14070249
234	0x3ddb2000	0.10699463
235	0xbe3fabb3	-0.18717842
236	0xbe42796f	-0.18991636
237	0x3dacc010	0.084350705
238	0xbe5273ba	-0.20551959
239	0x3e1c5728	0.15267622
240	0x3e45ae05	0.19304664
241	0x3e3c671e	0.18398711
242	0xbe071502	-0.13191608
243	0x3ddb7713	0.10716071
244	0xbe5ccec0	-0.21563244
245	0xbde523e9	-0.1118849
246	0xbde2329f	-0.110448115
247	0x3e0948ee	0.13406727
248	0x3d802134	0.06256333
249	0xbdfca2eb	-0.12335762
250	0x3dc9c0ff	0.09851264
251	0xbe257d78	-0.16161144
252	0x3e10ef62	0.14153817
253	0xbdbf1bac	-0.0933145
254	0xbe3505a1	-0.17677929
255	0xbe52d436	-0.20588765

fc_hidden.bias f4 [75]
0	0x3de706b8	0.112805784
1	0x3df30a85	0.11867241
2	0xbbbc3a66	-0.0057442663
3	0x3e1c3225	0.15253504
4	0xbbd1ad53	-0.0063988357
5	0x3cfda005	0.030960092
6	0x3e2a7d30	0.16649318
7	0xbd9bd9e7	-0.07609921
8	0xbd83ae19	-0.06429691
9	0xbd33fec4	-0.043944135
10	0x3dc404bb	0.09571215
11	0xbb589360	-0.0033046827
12	0xbc725074	-0.014789689
13	0x3d5f2729	0.054480705
14	0x3e0d5d35	0.13805087
15	0xbc8a1fd4	-0.01686088
16	0x3d915153	0.070955895
17	0xbd3639fa	-0.044488885
18	0x3e4bf60e	0.19918081
19	0x3d3433d5	0.043994743
20	0xbd6f329c	-0.058397874
21	0x3e28bb10	0.16477609
22	0xbc56ef90	-0.01311864
23	0xbdb9b4ba	-0.09067674
24	0xbd07f7ac	-0.033195183
25	0x3e183bb6	0.14866528
26	0xbcedd174	-0.02903054
27	0x3e4d3068	0.20037997
28	0x3dc2dea0	0.095151186
29	0x3d8587c1	0.06520034
30	0x3e1b4f3d	0.15166946
31	0x3e5790ae	0.21051285
32	0x3d9cf086	0.07663064
33	0x3d7dddcd	0.061979104
34	0x3ce30f2c	0.027717195
35	0x3d64ba9f	0.05584204
36	0x3d4ee260	0.050508857
37	0xbc4ce874	-0.012506593
38	0xbbda8505	-0.006668689
39	0x3e32bd72	0.1745508
40	0x3d9826b8	0.0742926
41	0xbd6bf1d6	-0.05760368
42	0x3e2db3ac	0.1696307
43	0x3dcca997	0.09993284
44	0x3dfb4055	0.1226813
45	0x3e3d196e	0.18466732
46	0x3e14dc68	0.14537203
47	0xbda927c3	-0.08259537
48	0x3d7db3ca	0.06193904
49	0x3e5f9092	0.21832493
50	0xbd435fa5	-0.047698636
51	0x3be7f098	0.0070782416
52	0x3d3510dd	0.044205535
53	0x3e9e696a	0.309398
54	0x3d2e4756	0.0425485
55	0x3e8209e3	0.25398168
56	0x3cf81aaf	0.030286161
57	0xbb8d9d7e	-0.004321753
58	0x3dff41ca	0.1246372
59	0x3e5d878d	0.2163374
60	0x3d116bae	0.035503082
61	0x3d8b3eca	0.067990854
62	0x3deee216	0.11664216
63	0x3e18502b	0.14874332
64	0xbd7601c7	-0.06006029
65	0xbd62c950	-0.055367768
66	0x3db42f9b	0.087981425
67	0xbdc6f7d3	-0.097152375
68	0x3e083991	0.1330321
69	0x3e0f911b	0.14020197
70	0x3e25a266	0.16175231
71	0xbd5e7f95	-0.05432089
72	0xbd611094	-0.05494745
73	0x3db29cb2	0.087212935
74	0x3d7e8266	0.062136076

fc_out.weight f4 [5, 75]
0	0x3e48e765	0.1961952
1	0x3e4d376f	0.20040677
2	0xbd3c3a4b	-0.04595403
3	0x3dc7d41d	0.09757254
4	0xbdb66009	-0.08905036
5	0x3bf1ffc7	0.0073852274
6	0x3e2f44bc	0.17116064
7	0xbda4d9fd	-0.080493905
8	0xbda88305	-0.08228115
9	0x3d7f2f77	0.062301125
10	0x3e4cf938	0.20016944
11	0x3d94a681	0.072583206
12	0xbd630d8a	-0.055432834
13	0x3dc537ac	0.09629759
14	0x3e728bb7	0.2368611
15	0x3d4ea3de	0.050449245
16	0x3e207ac8	0.15671837
17	0x3d877457	0.06613987
18	0x3e28223a	0.16419306
19	0xbd559899	-0.05214748
20	0xbca33280	-0.019921541
21	0x3e584692	0.2112067
22	0x3c1a67b8	0.009424143
23	0xbd96bd83	-0.07360365
24	0x3c5e78a3	0.013578567
25	0x3e1aa76b	0.15102927
26	0x3daad7bc	0.08341929
27	0x3d75a613	0.059972834
28	0x3e5cb3d5	0.21552975
29	0x3da98068	0.08276445
30	0x3e728794	0.23684531
31	0x3e2186cc	0.15774077
32	0x3e5fc7ef	0.21853612
33	0x3e301fba	0.17199603
34	0xbd85b4e6	-0.06528644
35	0x3d0fab78	0.035075635
36	0x3d3e7e0a	0.04650692
37	0x3cca1536	0.024668317
38	0xbd89d694	-0.06730381
39	0x3df81609	0.12113578
40	0xbd78b687	-0.060720947
41	0xbd3d7540	-0.046254396
42	0x3e638af3	0.22220974
43	0x3e2f9473	0.17146473
44	0x3e417cbb	0.18895237
45	0x3e0943ea	0.13404813
46	0x3e9d2890	0.3069501
47	0xbdd57bce	-0.104240045
48	0x3da6046a	0.08106311
49	0x3e5f646b	0.2181565
50	0xbca2cafa	-0.019872177
51	0xbd8d762e	-0.069073066
52	0x3e328b04	0.17435843
53	0x3e861d81	0.26194385
54	0x3d9bbd6e	0.0760449
55	0x3e627dc7	0.22118293
56	0xbd955c51	-0.072929986
57	0x3d0d3dab	0.03448264
58	0x3e59260e	0.21205923
59	0x3dd264b6	0.10273115
60	0x3e72e8c3	0.23721604
61	0x3e4171ae	0.18891022
62	0x3d7391a4	0.059465066
63	0x3df0c97f	0.11757182
64	0xbd74830e	-0.059695296
65	0x3d7497fc	0.059715256
66	0x3e767a0d	0.24069996
67	0xbdc27e62	-0.09496762
68	0x3e22b0f2	0.15887812
69	0x3e5b90ac	0.21441907
70	0x3e412f58	0.18865716
71	0xbd8a926a	-0.067662075
72	0xbd403be0	-0.0469321
73	0x3e549216	0.20758852
74	0xbdb809c2	-0.08986236
75	0x3e10edcd	0.14153214
76	0x3e13fee8	0.14452708
77	0x3cfb8817	0.030704541
78	0x3e17ddd1	0.1483071
79	0xbddb2afb	-0.10701557
80	0x3c3c3d3e	0.011489211
81	0x3dccf74b	0.10008105
82	0x3cc29961	0.023754777
83	0x3dd994b3	0.10624065
84	0x3df3e832	0.11909522
85	0x3de89caf	0.1135801
86	0x3ca33777	0.019923909
87	0xbda7164e	-0.08158551
88	0x3daa2491	0.08307756
89	0x3db1289f	0.08650326
90	0xbba0b927	-0.0049048844
91	0x3e545cbf	0.20738505
92	0xbd1eda50	-0.038782418
93	0x3e67d71c	0.22640651
94	0xbdc8ddd8	-0.09807938
95	0xbc217604	-0.009854797
96	0x3e7010f1	0.23443963
97	0xbd873257	-0.066013984
98	0xbd0c9d83	-0.034329902
99	0xbd6b64af	-0.057469066
100	0x3e4eed26	0.20207652
101	0xbcdba23a	-0.026810754
102	0x3e8daecf	0.2767243
103	0x3e444f30	0.19170833
104	0xbdca2aca	-0.098714426
105	0x3e178f76	0.1480082
106	0x3e4974b0	0.19673419
107	0x3e522bea	0.20524564
108	0x3e349a19	0.17636909
109	0xbc125595	-0.008931537
110	0x3d0a34a7	0.03374162
111	0x3da56a3d	0.08076904
112	0xbd069813	-0.032859873
113	0x3d8d3611	0.06895078
114	0x3e85940d	0.26089516
115	0x3d351b43	0.044215452
116	0xbd55aab4	-0.05216475
117	0x3e89dac5	0.2692472
118	0x3d892e15	0.066982426
119	0x3e858256	0.26076
120	0x3e23d4de	0.15999171
121	0x3e288791	0.16457964
122	0x3d95f8e1	0.073228605
123	0xbd9b1129	-0.075716324
124	0x3e4c4a10	0.19950128
125	0xbdd11bfc	-0.10210416
126	0x3d6c55f5	0.057699163
127	0x3de4c134	0.11169663
128	0x3ea7ce49	0.3277457
129	0xbd67ef08	-0.056624442
130	0x3e8728c9	0.26398304
131	0xbdbd309b	-0.092377864
132	0xbd906cdb	-0.070520125
133	0x3e3e214c	0.18567389
134	0x3e3fca3b	0.18729489
135	0x3e7c749b	0.24653856
136	0x3e56fb35	0.20994265
137	0x3e33fd06	0.1757699
138	0x3e36c537	0.17848669
139	0xbd80f4f5	-0.06296722
140	0x3d8ef686	0.06980614
141	0x3ddb9e63	0.10723569
142	0x3d24c7c8	0.04022959
143	0x3e4de43f	0.201066
144	0x3e836911	0.25666097
145	0x3db5846c	0.08863148
146	0x3db74acd	0.08949814
147	0xbdaee8a4	-0.085404664
148	0x3d9a00c6	0.07519679
149	0x3d951985	0.07280258
150	0x3e3932e7	0.18085824
151	0x3e189e67	0.14904176
152	0xbcecbb95	-0.02889804
153	0x3e57b152	0.21063736
154	0x3d5a58e4	0.05330743
155	0xbdd64106	-0.10461621
156	0x3e747404	0.23872381
157	0x3d222ba9	0.03959242
158	0xbcf2e065	-0.029648015
159	0x3de0b2d7	0.10971611
160	0x3e5f5d8a	0.21813026
161	0x3d07d577	0.03316256
162	0xbd3b97e6	-0.04579916
163	0x3e816f25	0.2528011
164	0x3de2971e	0.110639796
165	0x3dc40aae	0.095723495
166	0x3d5d0be9	0.053966437
167	0xbdd01a9c	-0.10161325
168	0x3e0042d7	0.12525497
169	0xbdbadb38	-0.09123844
170	0x3d7d3ec4	0.061827436
171	0x3e5f140a	0.21784988
172	0x3d6eb41b	0.05827723
173	0xbdb10c60	-0.086449385
174	0xbd46ff13	-0.0485831
175	0x3e6918c5	0.22763355
176	0xbda3c6ab	-0.07996877
177	0x3e5d1431	0.21589734
178	0x3e54cebe	0.20781991
179	0xbd1a4249	-0.03766087
180	0x3e3d05aa	0.18459192
181	0x3e1ab1bf	0.15106867
182	0x3e050324	0.1298948
183	0x3e85ac3a	0.2610796
184	0xbd8a60fe	-0.06756781
185	0x3c8bfd0f	0.017088441
186	0x3d1db0bb	0.03849862
187	0xbd8dc89e	-0.0692303
188	0xbcba87a5	-0.022769758
189	0x3e1e1728	0.15438521
190	0xba39e00b	-0.0007090575
191	0x3d21ec86	0.039532207
192	0x3d61b1cb	0.055101197
193	0x3e5cd13e	0.21564195
194	0x3e4731e2	0.19452623
195	0x3e2edcdd	0.1707644
196	0x3e66fad4	0.22556621
197	0x3d8227a8	0.0635522
198	0xbd1c6e8a	-0.038191356
199	0x3e6320d9	0.22180499
200	0x3d565f6c	0.052337095
201	0xbdac4a6a	-0.08412631
202	0x3e1d04ac	0.15333813
203	0x3e571222	0.21003011
204	0xbd11c5b6	-0.035588942
205	0x3e013534	0.12617952
206	0x3c054734	0.008134652
207	0xbc9021c2	-0.017594222
208	0x3e6295f3	0.22127514
209	0x3e56e3e3	0.2098537
210	0x3e5c10f1	0.21490838
211	0x3dd2405b	0.10266181
212	0x3e4d8c0b	0.20072953
213	0x3e5464e3	0.2074161
214	0xbd8b073a	-0.06788488
215	0x3d4b6d88	0.049665004
216	0x3e633f67	0.22192155
217	0x3db263ea	0.08710463
218	0x3e8492ee	0.25893348
219	0x3dd4f713	0.10398688
220	0x3e62a4a5	0.2213312
221	0xbd43a188	-0.04776147
222	0x3d4c31c2	0.04985214
223	0x3e4dff8c	0.20117015
224	0x3d22c7ca	0.039741315
225	0x3e00d983	0.12582974
226	0x3defa559	0.117014594
227	0x3de54a75	0.11195842
228	0x3e7b1d4b	0.24522893
229	0xbd2a053d	-0.041508902
230	0xbdb18363	-0.08667638
231	0x3e031a02	0.1280289
232	0x3dd9d5ac	0.10636458
233	0xbdab634d	-0.083685495
234	0xbd42bab8	-0.04754135
235	0x3e3f1010	0.18658471
236	0x3d7bb422	0.061451085
237	0xbd2a7619	-0.041616533
238	0x3e7472b7	0.23871885
239	0x3e22a8b3	0.15884666
240	0x3db23476	0.087014124
241	0x3e7f5fe6	0.24938926
242	0xbc0feb4e	-0.008784128
243	0x3e096246	0.13416395
244	0x3d2f8135	0.04284783
245	0xbd72f037	-0.059311118
246	0x3dbbcce9	0.09169943
247	0xbdb74dc0	-0.089503765
248	0x3cce4cfb	0.025183192
249	0xbd7cdf42	-0.061736353
250	0x3e4dd7c0	0.20101833
251	0xbd5448ef	-0.051827367
252	0x3dda99fc	0.106739014
253	0x3e421644	0.18953806
254	0x3c3b5344	0.011433426
255	0x3e7035b2	0.23457983

fc_out.bias f4 [5]
0	0x3e36e521	0.17860843
1	0x3e3b0dca	0.18266979
2	0x3dfb9c58	0.122856796
3	0x3b165d36	0.0022943742
4	0x3da7a89c	0.081864566
