checkpoints/forecaster_fc_hidden_250/forecaster_fc_hidden(1,100,100,5)epoch_249.pt (torch, 86159 bytes, 8 tensors)

encoder.weight_ih_l0 f4 [100, 1]
00000000: daf8 a13d bcdd 7b3c c6b4 77bd 0eef b73d
00000010: cf8b f33c fe00 893c 3ad5 cfbd a658 1fbd
00000020: 2725 3ebd 937b 06bd 79a7 ad3c 9f70 acbd
00000030: 22dc 02bd 8895 00bd 49e0 80bd 0f73 c8bd
00000040: 0170 173d 8ee5 fabd 4615 dd3d abbe 163d
00000050: d06e 70bd 3205 1c3d 229b 6fbd f7ca 7ebd
00000060: c777 9a3d 5a81 2e3d 53d9 fdbc 32f0 d6bd
00000070: 8a13 dfbd c26e ebbc 99a3 2dbd 104a 90bd
00000080: 64a2 c33c fddd 24bd 0d7d 6a3c 4b16 903d
00000090: bb4f 52bd d9fa 91bd 50a5 0a3d e3ac b4bd
000000a0: cf72 903c bb6e 51bd 7100 453d 4479 b9bd
000000b0: 75c4 2bbc e392 f33c d33b 8dbd 5766 9c3d
000000c0: 6edf 3fbd 0ba0 2b3d 22a7 c2bc e8c7 24bd
000000d0: c9f9 55bd 6317 163c 702b c9bb e083 fabc
000000e0: 7a65 9b3c 3927 fcbc 3c06 1fbd 0aa1 893d
000000f0: f48f 1a3d d735 d93d 896d dbbc 2785 c13c
00000100: 56b5 883c e433 753d 3ccc 20bd 75b9 4ebc
00000110: 17d9 bc3d 947b 04bd 11ae d6bc 80af 243d
00000120: 4704 2dbd cece a13c fccd 74bd 77cf e8bd
00000130: 0775 1e3d d3f8 693d 29b7 963d 39d0 f5bc
00000140: 2fea a53c 5e5a 193d 58b4 133d 0192 2e3d
00000150: 02c7 3ebd b0b5 fc3c e23f a03d b998 08bc
00000160: 59d5 efbd 9373 edbc 1eaf 04bd 1002 14bd
00000170: 8570 38bd 63fa 24bd c127 29bd 78fb 0ebd
00000180: 96a2 173c a008 4d3c c965 cfbc d607 243d
0.07908793 0.01537269 -0.060475133 0.08981143 0.029729752 0.016724106 -0.101480916 -0.0389029
-0.04642215 -0.032832693 0.021198021 -0.08419918 -0.031948216 -0.031392604 -0.06292779 -0.09787571
0.03697205 -0.12250815 0.10795073 0.03680293 -0.05869943 0.038090892 -0.058497556 -0.06220528
0.07542377 0.042603828 -0.030987417 -0.10495032 -0.10892399 -0.028739337 -0.042392347 -0.07045376
0.023881145 -0.040250767 0.014312041 0.07035502 -0.05134557 -0.071279235 0.03384906 -0.08822038
0.01763287 -0.05113099 0.048096124 -0.09056333 -0.010483851 0.029733127 -0.06896176 0.07636707
-0.04684394 0.041900676 -0.023761336 -0.040229708 -0.052240167 0.009160849 -0.0061392114 -0.030580461
0.018969286 -0.030780422 -0.038824305 0.06720169 0.03773494 0.10605972 -0.026785629 0.023623062
0.01668803 0.05986394 -0.039257273 -0.012617459 0.09221094 -0.032344416 -0.026206048 0.040206432
-0.042240407 0.019751932 -0.059766755 -0.11367696 0.038685825 0.057122063 0.07359154 -0.030006515
0.020253269 0.037439696 0.03606066 0.04261971 -0.046576507 0.030848354 0.07824685 -0.008337193
-0.11710615 -0.028985774 -0.032393567 -0.03613478 -0.045029182 -0.04027785 -0.041297678 -0.034907788
0.009255072 0.012514263 -0.02531709 0.040046535

encoder.weight_hh_l0 f4 [100, 100]
00000000: 83c5 883c 9d52 503d e00d 6cbd e108 b53c
00000010: 22c7 aa3c 387f a5bd fbcf 44bd 5b2f 02be
00000020: 1eb2 45bc c490 a63d b1b1 2b3d 1531 33bb
00000030: af7c 403d e81e febc dbad dbbd f422 babd
00000040: ac8b 4c3d f0c6 b0bd 749a 97bc 9ebd cdbd
00000050: 9d07 98bc 699f a7bd e0d0 3fbd 5393 7ebd
00000060: 3003 de3d 19b9 c23d 485b 3b3b 8c6c 53bc
00000070: 4907 7f3d 1b43 863d 29e0 2abc a530 debd
00000080: 11d1 b0bd fac7 3a3d a123 06bd 6f85 8f3d
00000090: 2da2 a2bd 2c5e 823d c7bc 623b f150 67bc
000000a0: 95ac 393d f95d 7ebc ac89 a43d 98ac ab3d
000000b0: 23cd a8bd db2e a6bc c3f9 063d 1917 c33d
000000c0: 8547 26bd d4fd bebc c2cd ebbd 085f 7b3d
000000d0: c74d fdbd d697 b23d 5359 943d 19b8 863d
000000e0: 999a c8bd 118a 12bd 9a4b c93d f9a8 8c3d
000000f0: 1aa8 a9bd 0389 e13d b25e b63d 91ad c83d
00000100: 46ed d53d 7d89 89bd bcee 0fbd c1c1 ccbc
00000110: 74b0 e23d 5de2 d5bd bc7e 693d de4d a13d
00000120: f328 603b 5df2 ec3c 9ec5 573d a3c0 173d
00000130: aa3c 37bd 8912 2e3d 6261 53bd 70ad 75bd
00000140: 2366 e8bc daff 14bd adcd 63bd d334 4c3d
00000150: 12f0 1abc 491e 8dbd 4e5a 483d 95f5 a73d
00000160: 947e 91bd 6964 91bd 8813 e23d d4c9 9a3c
00000170: 2a53 f1bd 1fbf 4b3c 7b57 ab3d d0d8 bebd
00000180: 411b 613c 5cfb 003d 4556 703d 4ebe a6bd
00000190: 0209 a63c 2a8f e3bc 6dbb 56bd 67f1 6c3c
000001a0: 0f93 903d a9af d03d 3fa8 a7bd e2c2 9e3c
000001b0: 44d1 1c3d fc85 f53b 2ba5 903d 0adb 95bc
000001c0: 86f5 983c 6eba 063d a648 bbbd 927f 7c3d
000001d0: 907c 42bb 3d65 a7bd 4f68 7bbd 329d ed3d
000001e0: d524 ae3c d617 9cbc 9037 1bbb 4c22 96bd
000001f0: 1cf9 95bc 1149 c53b ffa7 953c 7acd 0bbb
00000200: 3512 24bc ad17 903d 4531 bfbd 0224 c0bc
00000210: 1500 003e 8f2c 05be 75d2 48bd 529a e83b
00000220: f607 5abd c7c2 4a3d b28d 183d a127 773d
00000230: 663e 82bc 3ec6 58bc 43c6 4e3d a5cd 073c
00000240: b959 5abd 30e1 89bc 553c 29bd f056 053d
00000250: 81f5 b23c ebd9 d4bc 2b1f 3dbd 6e15 8abd
00000260: a41e 67bd 786d a23d fb80 afbd 4a00 31bb
00000270: 01b4 083e a046 8ebd 5548 9abd aafe 0d3c
00000280: 62f9 f83c f35a 0f3c b2c4 01bd dbf7 9fbd
00000290: bd94 ad3d de9b 73bd 8919 77bd b5d8 943d
000002a0: c5ca ac3d ffe8 b83d 0be2 05be 3154 813d
000002b0: 198a 2a3d 8bdb a63d 1545 6a3d acd6 fd3c
000002c0: 3813 533d 69c4 953d 3cda 9a3d fb90 febd
000002d0: fcb2 c03d 48fb a3bd 9751 61bd fde0 033e
000002e0: afe0 04be aed3 bb3d 6b36 d43d 34f7 f5bc
000002f0: f66f cd3c dbc7 7c3b b7a2 d6bd 6f63 46bd
00000300: d7d8 6f3c fc06 54bc e7f9 4dbd 133d f6bd
00000310: 353d ba3d 528b 92bd 5ac2 d8bd 9cbe bbbd
00000320: 6c95 fbbc 5250 473b 9a41 acbd 66e5 90bd
00000330: 5eb9 b53c ca6a db3d c186 043c b2bd fabd
00000340: 5667 79bd 6dfc 893d 7b43 fb3d ee44 a23d
00000350: fc3d c9bc 2aec 053d 4901 8a3c b2cc 2f3d
00000360: fe4d e3bd ca49 8e3d 24b6 8d3d 1ab3 e83c
00000370: ab12 db3c 4aee f03c 0f89 6ebd b0b7 833d
00000380: 7597 1fbd 0a2a f43d 71e8 69bd a736 cebc
00000390: 85be 043c 7bba 95bb ec46 cebd ed6d 82bd
000003a0: 311e b9bc d49a f9bc fb28 27bd c49f 913d
000003b0: eb17 52bd 89d7 36bd d1d0 fbbd 80fb a0bd
000003c0: 264d 713d 083f e5bc 3ef5 c53c 6f5d 853d
000003d0: 687e 97bd cfc4 26bd 0619 5e3d d273 2fbd
000003e0: d2d9 683c ec4b 043d 0a1a 823c 0d38 dabc
000003f0: feb9 c63c 7549 913c 3f83 5e3d 70ab bebd
0.016695743 0.050860036 -0.05763042 0.02209896 0.020846907 -0.08080906 -0.048049908 -0.12713377
-0.012066392 0.081330806 0.041917507 -0.0027342488 0.046993908 -0.031020597 -0.1072652 -0.09088698
0.04993789 -0.08631694 -0.018506266 -0.10045932 -0.018558318 -0.08184702 -0.046830058 -0.062152218
0.10840452 0.09507961 0.0028588343 -0.012904298 0.062262807 0.06555768 -0.0104294205 -0.10849122
-0.08633626 0.04560087 -0.032748822 0.07007872 -0.07941089 0.06365618 0.0034597383 -0.014118419
0.045330603 -0.0155253345 0.08034071 0.08382529 -0.08242252 -0.020286014 0.032953035 0.0952589
-0.04059555 -0.023314394 -0.115138546 0.061369926 -0.123683505 0.08720367 0.072436 0.065780826
-0.09795112 -0.0357762 0.09828873 0.068681665 -0.08284016 0.11012461 0.089047804 0.0979873
0.10445647 -0.06715677 -0.035139784 -0.024994733 0.11068812 -0.10443566 0.05700563 0.0787618
0.0034204095 0.028924162 0.052678697 0.037048947 -0.044735588 0.042498145 -0.051606543 -0.059979856
-0.028369015 -0.03637681 -0.05561607 0.049855065 -0.009456651 -0.06890542 0.048914246 0.08201138
-0.07104221 -0.0709923 0.110388815 0.018895067 -0.117834404 0.012435704 0.08366295 -0.093186975
0.013739408 0.031489715 0.058676023 -0.081417665 0.020267967 -0.027778227 -0.052424837 0.014461852
0.07059299 0.101897545 -0.08186387 0.019380037 0.03828551 0.007492779 0.07062753 -0.018292923
0.018671762 0.032892637 -0.09144716 0.061645098 -0.0029676296 -0.081736065 -0.061378773 0.11602248
0.021257797 -0.019054335 -0.002368424 -0.0733076 -0.018307261 0.006020673 0.018268583 -0.002133219
-0.0100141065 0.07035766 -0.09335569 -0.02345467 0.12500031 -0.13005279 -0.049028832 0.0070984745
-0.05323025 0.04950216 0.037244506 0.060340527 -0.015898895 -0.013230858 0.050482046 0.008288776
-0.053308222 -0.01683101 -0.041317303 0.032553613 0.021845581 -0.025982818 -0.046172302 -0.06742369
-0.056425706 0.07931036 -0.08569523 -0.002700823 0.13349916 -0.069470644 -0.075333275 0.008666674
0.030392352 0.008749711 -0.031681724 -0.078109466 0.08475635 -0.05947482 -0.060327087 0.07267896
0.08437113 0.090288155 -0.1307451 0.06314886 0.041635606 0.08147343 0.057194788 0.030986153
0.051532 0.07312853 0.07561156 -0.124299966 0.094091386 -0.080069125 -0.05500945 0.12878795
-0.12976335 0.09171234 0.10361942 -0.030025102 0.025077801 0.0038571272 -0.10480254 -0.04843467
0.014639101 -0.012941118 -0.050287154 -0.12023368 0.090937056 -0.071554795 -0.105839446 -0.09167215
-0.030710898 0.0030412865 -0.0841095 -0.07075004 0.022183117 0.10713728 0.008088768 -0.12243213
-0.060889564 0.067375995 0.1226873 0.079233035 -0.02456569 0.032695927 0.016846316 0.042919822
-0.1109886 0.06947668 0.06919506 0.028405715 0.0267423 0.0294105 -0.058236178 0.0643152
-0.0389628 0.11922081 -0.05710644 -0.025172545 0.008102064 -0.0045693493 -0.10072121 -0.06368623
-0.022597404 -0.030469336 -0.040810566 0.07110551 -0.05129234 -0.044639144 -0.12295688 -0.0786047
0.058911465 -0.027984157 0.024164792 0.06511962 -0.07397157 -0.040715035 0.054223083 -0.042835064
0.014212089 0.032298967 0.015881557 -0.026638055 0.02425861 0.017735222 0.054324385 -0.09310043

encoder.bias_ih_l0 f4 [100]
00000000: 137c 4d3d f460 9ebd d7e4 f33c f391 323c
00000010: caf6 9f3c ca48 f53b 8c25 54bd 9b6f a7bd
00000020: 52ac 1b3b 5f2c 273c aba7 6f3d 2a14 fdbd
00000030: 74e3 25bd f871 8f3d bc47 a1bd 7af9 38bd
00000040: 6b9a 393c ed6a bc3c 8092 27bd 454b 39be
00000050: c377 92bd 9d33 d0bd fb8c 303d 4120 513c
00000060: 3077 ac3d 755d e6bc 540a 0b3e 425a 713c
00000070: 942d bfbd d8fb 4d3d 985f 373b daca abbd
00000080: d5b8 4f3d ba45 703c 656f 87bd 9d61 823d
00000090: e0ea 81bd 47aa efbd 4b39 a3bd 075a 0dbd
000000a0: f050 243d e1a1 633d 11f4 29bd 3427 4fbd
000000b0: bc9e bcbd d146 6fbc 345c 783c 0624 a63d
000000c0: 705e c13d 2d04 43be eb1d 96bd 0391 503e
000000d0: c9c6 27bc f48b af3c 186e 213d c63c e7bb
000000e0: c6f2 babb b8a4 86bd 89f2 213e 036c bf3d
000000f0: 471d 23be e5de 863c 6aab c63d 579a b53d
00000100: 495d 223d 3871 b23c 717f 2a3c 0353 f5bd
00000110: 0e52 2fbd c10b a3bd 4e02 453c bef2 e5bd
00000120: 2e96 b23d f262 d93d 1b6d 2bbd 6c74 8a3c
00000130: aa83 ebbd b102 1ebd b5ae 67bd d144 1fbd
00000140: f160 7abc c883 5b3d e48f fb3c cf72 b3bd
00000150: e9cd 093e 3c92 debd a042 6a3d 78f3 7dbd
00000160: 7759 a93a c24a 17bd 556c ce3c 2283 913b
00000170: 451c 27bd 1572 19be 9c2d d03c 8eaa 393d
00000180: 5b81 85bd 911a 073e 8474 213d 0ac5 003d
0.050167155 -0.07733336 0.029772205 0.010899055 0.019526858 0.007485484 -0.05179362 -0.08175584
0.0023753834 0.01020345 0.05850951 -0.123573616 -0.04050012 0.0700416 -0.0787501 -0.045159794
0.01132832 0.023000205 -0.040911198 -0.1809512 -0.07151749 -0.101660945 0.0431032 0.012764038
0.08421171 -0.028120736 0.13578159 0.014730992 -0.09334865 0.050289005 0.0027980562 -0.083883
0.05071338 0.014665062 -0.06613044 0.063662745 -0.06343627 -0.117024 -0.07969912 -0.034509685
0.04011625 0.0555743 -0.041492525 -0.050574496 -0.09209964 -0.014604286 0.015158702 0.0811234
0.09441841 -0.19044562 -0.07329925 0.20367818 -0.010240265 0.02142904 0.039411634 -0.0070568053
-0.0057052104 -0.06574386 0.15815176 0.093467735 -0.15929137 0.016463706 0.097006634 0.088673286
0.039639745 0.021782503 0.010406361 -0.11978724 -0.042802863 -0.07961226 0.012024475 -0.1122794
0.08720051 0.106145754 -0.041852098 0.016901217 -0.11499722 -0.038576785 -0.056563098 -0.038883988
-0.015281902 0.053592473 0.03070826 -0.087621324 0.13457455 -0.10867736 0.057192445 -0.061999768
0.0012920339 -0.03693653 0.025198141 0.004440681 -0.040798444 -0.14984925 0.025412373 0.04532867
-0.06518813 0.13193728 0.03941776 0.03143791

encoder.bias_hh_l0 f4 [100]
00000000: a92e 993d 5abe 81bd 1b13 bb3d c4bd 25bd
00000010: b077 183d 4174 7dbd 3e61 6bbc 8221 963c
00000020: 6ce1 12bd 8c7f e43d 6453 85bc 61f6 9c3c
00000030: d0d3 b2bc 62d4 61bd 052c c4bc 8d42 9dbd
00000040: 7bb3 11be fae1 923d 4886 d23d 7081 63bd
00000050: b0d7 7c3d 6e2a cebc a79e 13bd b324 25bd
00000060: bb07 2b3d bdba 3b3d 9c32 e13d 5815 eabd
00000070: de46 f2bd 5e86 c1bd 3bc8 c63d b018 bf3c
00000080: 330d af3c bb57 a93d 4bb6 5fbd b13e 073e
00000090: d9c1 b83c fc64 543c 8ae7 22bd e2ed 1fbc
000000a0: b3de fb3d 1383 833c 45ab c2bd 6f33 993c
000000b0: ca6e d9b9 f87b 42bd 02ac 88bc 0cb6 07bd
000000c0: 9312 cdbc 8d20 3cbe 2890 8fbd 75c6 4e3e
000000d0: 5963 f8bd 1394 ea3d cfea 5abd 3809 d5bd
000000e0: ddd0 b8bb fca2 11bd 6396 3c3e 5f4e 543d
000000f0: b114 e3bd 13b8 d73d e65a 973d cfd4 f93d
00000100: febd 5f3d a63d 933d 6dcf d3bc 8608 0abe
00000110: 50a4 1b3d 42de 153c 58df 0c3d f873 1c3c
00000120: 2074 333d 435a c9b8 5acd 06bc 95dc 1e3d
00000130: d89f 3fbd 40bb f53c 30c3 b03d ce79 ce3d
00000140: ae03 333d 6e36 2c3c 5eff 3fbd 76a3 193d
00000150: 0031 d639 0f42 26be 3deb 183c dcab c5ba
00000160: 17d8 02be 634a 84bc 934e b3bc 7553 5cbd
00000170: 1443 b83b 6508 233d fb8c 3c3e 37ab 04bd
00000180: 2b52 40bc 2ec9 73bc a013 f0bd 9747 933d
0.07479603 -0.06335135 0.091345035 -0.040464178 0.037223518 -0.061878446 -0.014366446 0.018326525
-0.03585951 0.1115714 -0.016275115 0.019160451 -0.021829516 -0.055134185 -0.023946771 -0.07678709
-0.14228623 0.07172008 0.10279518 -0.055543363 0.061729133 -0.025166716 -0.036039975 -0.040318202
0.04175542 0.045832384 0.10995981 -0.11429852 -0.11829923 -0.09449457 0.0970616 0.023327202
0.021368599 0.082686864 -0.054617207 0.13207509 0.022553371 0.01296353 -0.039771594 -0.0097613055
0.12298336 0.016053712 -0.09505323 0.018701283 -0.0004147201 -0.047481507 -0.016683582 -0.033132598
-0.025033271 -0.18371792 -0.070099175 0.20192893 -0.12128324 0.11454024 -0.053446587 -0.10402149
-0.005640133 -0.035555825 0.18416743 0.051832553 -0.11087931 0.10533156 0.073903844 0.12198793
0.05462455 0.07189493 -0.025855744 -0.13479814 0.037998497 0.009147229 0.034392685 0.0095491335
0.043811917 -9.6012394e-05 -0.008227671 0.038784582 -0.0467833 0.029996514 0.08630979 0.10081826
0.04370468 0.010511024 -0.046874397 0.037509404 0.0004085377 -0.16236137 0.009333429 -0.0015081125
-0.12777744 -0.016148752 -0.021888053 -0.05379053 0.0056232307 0.039802928 0.18413155 -0.032389846
-0.01173834 -0.014879508 -0.11722493 0.07191389

fc_hidden.weight f4 [100, 100]
00000000: b09b 40bd 4195 d33d 56dc 98bd ea9a 7f3d
00000010: 14b4 f63d 9837 ab3d 6c18 823d f45d 50bc
00000020: 5681 27bd bca5 323e 22e5 bb3d b88b 753d
00000030: 109e a23c cf53 cebc e476 823c b8bb a93c
00000040: 8b07 87bd 9bd7 ea3c 6130 3cbb 1084 bdbd
00000050: 21fa 3d3d 8af0 c03d 392a 2fbd e1a4 fdbd
00000060: 0585 84bd 7a1b e5bc 141a 71bc 6a57 85bd
00000070: 8c7a 1fbc 063c 9d3c 963f e0bd 3f75 4dbd
00000080: 2ed2 85bd c4f7 463e 9867 7d3d df3d 3ebd
00000090: 99ec 193d 73d1 a93b ac8b b0bd 7c30 023d
000000a0: d5c7 a3bc 95bf 03bc 504a 9d3d ebad 7bbd
000000b0: 9170 05be b315 32bc 0a65 7dbd 2df4 03bd
000000c0: 4a20 3dbc 5dce 43bd 49d5 fdbd 1b11 7e3d
000000d0: b8e7 f7bc f570 953d 9f1e 373d de5d 03be
000000e0: 0573 28bd e575 4a3d 8637 5a3e 47e6 783d
000000f0: 257e c0bd fff7 46bc 5ee2 72bd f837 e23c
00000100: 57da 013d 807f 913b fcd5 a43c 49d2 9abd
00000110: 5554 cb3d 44bb aabd 3673 813d 45fc 71bd
00000120: df5c 0cbc 569c f5bc e766 603d 924f f43c
00000130: 1124 50be 3341 fd3c 059e 26bd 9188 183d
00000140: fc8d a03c 0538 a63d 41d5 ecbd 55c4 62bc
00000150: 555d 873d ab4f 87bd 634f d43c 1a19 06bd
00000160: 13f7 8c3d 2e86 0bbd 8c00 e13d f736 e8bd
00000170: b5a4 d7bd 4c70 8cbd fdcd 683e 2840 c0bc
00000180: 1403 7cbc e9d2 82bd a0e4 8fbd 01b6 1b3d
00000190: 31e7 983e b6fe 6f3e b111 96be d0e4 1a3e
000001a0: bfff 7c3e c8df 9d3e 91f1 91be 440f 24be
000001b0: 4b45 29be 9fa2 5fbe 6f17 723e 561b 50be
000001c0: d79f 08be 1502 42be 9c35 1dbe e072 53be
000001d0: 54eb 533e 6ae3 5ebe 0cd9 863e eea5 363e
000001e0: c6d7 a3be 129a 293e ed75 82be 41f6 16be
000001f0: d3c7 5f3e c912 953e c282 89be 82c6 88be
00000200: 15ff 95be b71d 58be 59a7 55be 1a07 22be
00000210: ee9b 053e 54f0 0cbe 7f4f 803e cc3b 383e
00000220: 13ed 70be 4c8c 90be 1964 573e fc8d 7fbe
00000230: e2cc 0b3e e359 7abe e8a6 783e 3cf9 8ebe
00000240: bc96 0cbe f3fb 9c3e cfd2 31be 98e5 163e
00000250: 316f 0abe 3ff9 603e c5b7 97be a872 3dbe
00000260: d07f 8cbe 8131 8f3e bc27 9dbe 53ca 0abe
00000270: 6b8e 2e3e 50c3 98be 4d64 73be 392b 733e
00000280: 881e 4a3e f035 0c3e c21d 8cbe 60d5 083e
00000290: 700d 843e fe85 483e 7f94 a2be 7aab 0dbe
000002a0: 3c04 9b3e 73dc 1abe c9ea 97be eea8 823e
000002b0: f386 9fbe ccb8 363e edcf 2cbe 091a 80be
000002c0: 2d17 153e 417d 453e ada2 333e 9cc4 5dbe
000002d0: 944e 933e a866 113e b747 983e e18d 433e
000002e0: b3ee 3cbe 5f15 553e 9dbc 083e 8614 50be
000002f0: 9b69 56be 55fd f2bd c210 8bbe 7746 5cbe
00000300: 6627 83be 776e 5bbe a987 62be 78f4 12be
00000310: d11e 433e b457 493e d6ff a2be 643b 953e
00000320: 0dc2 97bd abbb 173d f4b7 2a3d de3f 383b
00000330: 7df2 50bb 5409 683d affa 8e3d ac0e 803c
00000340: ed09 c83d 2dfd 9e3b 5211 e2bc c5b4 023d
00000350: d68c 9dbd e2b3 603d 8f18 3cbd 4f0e 80bd
00000360: cb41 1d3d a40d b5bd 9f3a 24bd e75c c5bd
00000370: b1c6 bfba b8d9 8a3c 7e50 7dbd 6e73 9abd
00000380: 06cc 753d 5e20 a53d dd72 10bd 17ce aa3d
00000390: 8035 453d 4d09 16bc 1c8a 8e3d 0efb 853d
000003a0: 2346 653d 1a9e b4bd 17f5 7abc 7375 bebc
000003b0: de4c 943d 0222 323c fdcb 99bd 8cb6 a63b
000003c0: c02e c4bd 5f30 343d cc6b 2f3c c5a6 9b3d
000003d0: d536 643d ebf1 9e3b 45c3 69bc d0c1 a73d
000003e0: aa3f aebd 9053 f1bc 3527 d53b 6921 1b3d
000003f0: f280 a33d aaba 7c3c ea73 82bd 0042 b5bc
-0.047023475 0.10331202 -0.07463901 0.062403597 0.12046066 0.08360213 0.06352314 -0.012717713
-0.04089483 0.17446035 0.09174563 0.0599477 0.01985076 -0.025186447 0.015925832 0.020719394
-0.065932356 0.028667262 -0.002871536 -0.092537045 0.04638112 0.09420879 -0.042764876 -0.12384964
-0.06470684 -0.027967203 -0.01471569 -0.065108135 -0.009733807 0.01919366 -0.10949628 -0.050160643
-0.06534229 0.19430453 0.061866373 -0.046445724 0.037579153 0.005182439 -0.0862039 0.03178452
-0.019992748 -0.008041282 0.076801896 -0.061445158 -0.13031222 -0.010869431 -0.061863936 -0.032215286
-0.011543343 -0.047804225 -0.123941965 0.06202803 -0.03026186 0.072969355 0.044706937 -0.12828776
-0.041125316 0.04942884 0.21310243 0.060766485 -0.0939906 -0.012144088 -0.05929791 0.027614579
0.031702366 0.004440248 0.020121567 -0.0755964 0.099281944 -0.08336499 0.06320803 -0.059078474
-0.008567064 -0.029981773 0.054785635 0.029823098 -0.20326258 0.030914878 -0.040678043 0.037239615
0.019598953 0.08116154 -0.115641125 -0.0138407545 0.066095985 -0.06606992 0.02591676 -0.032738782
0.06883063 -0.03406351 0.109864324 -0.11338609 -0.10529462 -0.068573564 0.22734828 -0.023468092
-0.015381593 -0.06387884 -0.07026029 0.03801537 0.29863885 0.23437008 -0.29310372 0.15126348
0.24706934 0.30834794 -0.28504613 -0.16021448 -0.1653034 -0.21839379 0.23641752 -0.20322928
-0.13342224 -0.18946107 -0.15352482 -0.2064929 0.2069524 -0.21766439 0.2633747 0.17836735
-0.3200056 0.1656268 -0.25480595 -0.14742376 0.2185357 0.29115894 -0.26857573 -0.2671395
-0.29296175 -0.21105085 -0.2086462 -0.15823022 0.13047764 -0.13763553 0.2506065 0.1799156
-0.23527937 -0.28232038 0.21034278 -0.24956506 0.13652375 -0.24448352 0.2428242 -0.27924526
-0.13729376 0.30660972 -0.17365573 0.1473602 -0.13518979 0.2197008 -0.29632393 -0.18500769
-0.27441263 0.27967456 -0.30694377 -0.13553743 0.17046516 -0.29836512 -0.2376873 0.23746957
0.19738209 0.1369245 -0.27366453 0.13362646 0.25791502 0.19582364 -0.3175392 -0.13834944
0.30276668 -0.15123157 -0.29671314 0.25519508 -0.31157646 0.17843932 -0.16876192 -0.25019863
0.14559622 0.19286062 0.17542525 -0.21657032 0.28770888 0.14199317 0.29742214 0.19097091
-0.18450432 0.20808934 0.133532 -0.20320329 -0.20938723 -0.118647255 -0.27161223 -0.21511255
-0.25615996 -0.21428858 -0.22122063 -0.1435107 0.19054724 0.19662362 -0.31835812 0.29146874
-0.07410059 0.03704421 0.041679338 0.002811424 -0.0031882816 0.05664952 0.06981408 0.015631996
0.09767518 0.0048519582 -0.02759615 0.031910677 -0.07692878 0.05485905 -0.04592186 -0.06252729
0.038392823 -0.08840492 -0.040094968 -0.0963686 -0.0014631358 0.01694952 -0.06184434 -0.07541548
0.060009025 0.08062814 -0.035265792 0.0834009 0.048146725 -0.009157491 0.06959936 0.065420255
0.05597509 -0.08819218 -0.015317223 -0.023249364 0.07241224 0.010872366 -0.07509611 0.0050876793
-0.09579229 0.043991443 0.010706853 0.07600168 0.055716354 0.004850616 -0.014267747 0.08191264
-0.08508237 -0.029458791 0.006504918 0.03787366 0.07983579 0.015425364 -0.06369765 -0.022126198

fc_hidden.bias f4 [100]
00000000: 6512 e83d b7c8 3a3e bc81 2a3d a65d 363e
00000010: 2b10 82bd 6b12 9e3e c521 893c 052c 40bd
00000020: e2b5 6dbd 7553 e33c 2a6a 583e 7825 6d3e
00000030: 7368 223e 2c72 733e c193 90bc ca89 7c3e
00000040: d66d a33d c95c 883e d192 3a3e cf43 1b3e
00000050: 7a3d 853e cb88 a5bc f480 b1bc e6d8 d73c
00000060: 2c13 213e c934 a6bd e57b 823e bad4 303e
00000070: 7d1d 92bd c533 b03d d2df 493d d739 613e
00000080: 3c7b 8a3e 4b62 443e ceed 023e a5c8 c4bd
00000090: bad6 583e 0239 7b3e 9a84 b4bd c7fc 71bc
000000a0: dc24 9d3e 960e 0b3e b6d4 193e a1a9 d23d
000000b0: b21d 9b3e 9626 8e3e 18a7 623e 3ae0 393e
000000c0: 9750 5d3e d0ab 983e 14d8 8fbd 14e2 033e
000000d0: 2d0b bcbd 8967 8f3e 7633 a23d 3802 cc3c
000000e0: 378f 743e 0b01 413e 9d7b 72bd cc47 ab3d
000000f0: ed24 393c 979e 7e3d 3375 983b fe1f f2bc
00000100: cf6d 833d cf0a 333c a053 b8bd a018 54bd
00000110: 1bdd 8b3e f2e2 76bd 3979 9b3e 8c4e bb3d
00000120: 8183 7a3e 9a59 babd 6bcc 083e 5bba adbd
00000130: 24c1 cfbb 96a3 653e cbf8 82bb 2ac7 d0bd
00000140: d5bf 723d 0aea 8e3e 6ee2 243e 6a4f 223d
00000150: 2026 553d f856 143e 0861 1a3e 61f4 2e3d
00000160: 3645 6fbd 53bc a2bd 9bd3 a23d 9a3a 093e
00000170: bbd7 a4bd c201 9e3e 2171 f93d 30d3 b6bc
00000180: 10f7 433e bf8a a43e 58d1 9d3e 2feb a03e
0.113316335 0.18240629 0.04162763 0.17809162 -0.0635074 0.30873427 0.016739735 -0.04691698
-0.058034785 0.027749756 0.21134248 0.23158824 0.15860157 0.23774022 -0.01764858 0.24661937
0.07979934 0.2663329 0.18220069 0.15162586 0.26023465 -0.02020683 -0.021667935 0.026348542
0.1572997 -0.08115537 0.2548515 0.17268649 -0.07134531 0.08603624 0.049285717 0.2199472
0.27047145 0.19178121 0.12786028 -0.096085824 0.21175662 0.24533466 -0.08814354 -0.0147697395
0.30692184 0.13579783 0.15022549 0.102862604 0.30296093 0.27763814 0.22134054 0.18151942
0.21612774 0.29818583 -0.070236355 0.1287921 -0.09181819 0.2800868 0.07919972 0.024903402
0.23882757 0.18848054 -0.059199918 0.083633035 0.011300308 0.06216296 0.004652643 -0.02955627
0.06417429 0.01092787 -0.09000325 -0.051781297 0.27317128 -0.060275026 0.30365923 0.09145841
0.24464227 -0.090991214 0.1335923 -0.0848281 -0.006340163 0.22425684 -0.0039969436 -0.101942375
0.059264977 0.27912933 0.16102001 0.039626516 0.052038312 0.14486301 0.15076077 0.042713527
-0.058415614 -0.07946076 0.07950517 0.13401261 -0.0804896 0.30860716 0.12179781 -0.022317499
0.19137216 0.32137105 0.3082378 0.3142943

fc_out.weight f4 [5, 100]
00000000: 0887 15be 4073 a63e 598b b63d b44d 8d3e
00000010: 8596 093c 526e a23e b4ad b03d e8c3 00bc
00000020: fcf2 863d 5e8e 6dbe 0831 9a3e a5ff 923e
00000030: c7bc 443e 7942 6e3e a3fc 623d 1481 9c3e
00000040: b735 ee3c 1d9a 773e 6408 553e fddf 973e
00000050: 5090 a73e 3a31 ac3d 479c 60bd ae75 77be
00000060: b1fc 793e 605b 733c 72c4 2a3e ef79 853e
00000070: a50a b7bc b1de 013d b52d a0bc 40f2 283e
00000080: d622 913e 50cf 833e 4b7c 0e3e 90ce adbd
00000090: fe11 5d3e 4827 a63e 8301 06bd 30f0 4ebd
000000a0: 103b 9a3e 7b9d 543e 15d4 953e c86b 893b
000000b0: 3038 a23e a9bf 923e f3b1 5e3e 6a2d 1e3e
000000c0: 7b9f 7f3e 3338 4d3e eca4 bdbd c047 8c3e
000000d0: d32a 17be 6d74 753e 0ca7 b4bd dc88 ae3d
000000e0: 32eb 883e 1be4 923e 193c 30be c798 b8bd
000000f0: 1437 f03c 80fa acbd 9a43 e5bc ee04 37bd
00000100: bc88 883c e08d 08bd 6b19 c3bd 8f85 a5bd
00000110: a6fc 513e 9890 a73d 1cf8 673e b8c9 453e
00000120: 762d 253e 18ec 993d 9bf2 953e f052 b5bd
00000130: 8002 b6bc 91b3 923e 6101 b7bd 4128 66bd
00000140: c089 89bd b229 a03e 7673 803e e041 c4bd
00000150: 79e7 a03d 7c49 5f3e aba2 663e 710f d23d
00000160: 7f5f 8ebd 8929 863d 4b62 c7bd 9e6f 533e
00000170: 0aa0 ae3d 602a a43e 0634 37be b365 5cbe
00000180: 2e64 8b3e e5ff 0d3e 5f82 8f3e 89fc 7e3e
00000190: 2537 ffbd ea99 923e 0473 b9bd dbd8 2b3e
000001a0: d681 d9bd 9fa0 613e 0515 a4bd 77ee aa3d
000001b0: edd6 68bd d17a 203b 07cb 063e 1571 823e
000001c0: 6fbf a33e 3db4 a53e 1fac b7bc ff17 293e
000001d0: 96f6 d3bb 04f8 813e 5a95 963e 3e1a a53e
000001e0: 7983 523e bb36 76bd 48b7 b1bd 7fc1 d6bc
000001f0: 15b3 3c3e c0dd 8abc f9dc 7d3e 0afc 953e
00000200: d99f 45bd 36cb aabd df13 ce3c 5442 823e
00000210: f152 133e 1491 a43e 8950 09be 4ee0 50bd
00000220: 8074 a73e a4c2 8e3e 9f9f c93c ab7a 41bd
00000230: 079b 713e 4f6e 493e aa3b 6a3e c4b1 a0bd
00000240: cc21 163e b1af a03e 9ac9 523e d5da 683e
00000250: 70bc a23e a548 5e3e 386f 94bc 3188 8c3e
00000260: 052d bd3d 0d0a 9c3e 16cb b6bd ccbd 003d
00000270: adbc 833e 453c 3c3e d46a 6dbd ecf4 ca3d
00000280: 4e6d 9a3d 651a a0bc 6d78 713d 3b89 c5bd
00000290: cb2e 4b3c 81ba 79bd f216 bebd 8e11 9cbc
000002a0: c17a a13e 0890 c2bd 7e29 093e b1d8 a93d
000002b0: e378 da3d 3020 6f3d 7431 993e 8ec0 c7ba
000002c0: 1130 b0bd 96f1 9b3e 8ab3 2abd a223 843d
000002d0: 78d5 5cbd 9f8c 513e 29a2 9b3e 61bf 5b3d
000002e0: ce44 8ebd 3da8 b13d 4195 8d3e 33bd 44bd
000002f0: bd19 6a3c 546e 893d b952 ad3c 027e 8b3e
00000300: 41f6 9ebd 4392 873e 7121 643d 4b07 0e3d
00000310: cb6b 9d3e 8463 953e e899 a33e 4257 9c3e
00000320: 77bd 4b3d 834d 5b3e 201e 05bc 77cc 903e
00000330: ab95 b0bd 5e8a 8c3e e69a c7bc 36ef a6bd
00000340: e4cf 87bd e7c6 0d3e 6c48 933e d28f 0d3e
00000350: 97f3 7f3e caa2 9a3e d3d6 a3bd 3b30 713e
00000360: ba11 793d d512 883e d042 a23e 55b8 993e
00000370: 40da 4a3e 817a 653d 9006 8f3d a7be 4b3e
00000380: aa07 aa3e 8471 e1bc b708 5c3e 2392 a93e
00000390: b706 b2bd f803 c3bd 5788 2e3d 60e7 603e
000003a0: 3ae5 733e 23b1 923e 4159 55be 13ec c03d
000003b0: 7eda 583e 817d 263e 6e0d a0bd 0b5b c93d
000003c0: 1286 303e f229 4c3e 6277 1e3e 0547 23be
000003d0: 060c 893e 81ce 8c3e 3136 573e d895 903e
000003e0: 12ba 3a3e c449 8e3e c14b f3bc 6aee 9f3e
000003f0: 673f 0f3d 36d4 a93e 9679 8bbd 29b2 0b3c
-0.14602292 0.32509804 0.08913297 0.27598345 0.008397703 0.31724793 0.08626881 -0.007859208
0.06589314 -0.2319884 0.30115533 0.28710666 0.19212638 0.23267545 0.055416714 0.3056723
0.029078348 0.24179883 0.20803982 0.29663077 0.3272729 0.08407827 -0.054836538 -0.24165985
0.244128 0.0148533285 0.166765 0.2606959 -0.022343943 0.031706516 -0.019553045 0.16498661
0.2834689 0.25744104 0.13914602 -0.08486664 0.21588895 0.32451844 -0.032716285 -0.05052203
0.30123186 0.20763199 0.29263368 0.0041937567 0.31683493 0.2866185 0.2174757 0.15447012
0.2496318 0.2004097 -0.09259972 0.2739849 -0.1476243 0.23970194 -0.08820924 0.085221976
0.2674194 0.28689656 -0.17210425 -0.09013515 0.029323138 -0.084462166 -0.027986336 -0.044682436
0.016666763 -0.033338428 -0.095263325 -0.08082115 0.20506534 0.08181876 0.2265324 0.19315231
0.16130623 0.075157344 0.29286656 -0.0885371 -0.022217989 0.28652623 -0.0893581 -0.056190733
-0.06715727 0.3128181 0.2508809 -0.09582877 0.0785665 0.21805376 0.2252299 0.102568515
-0.06951808 0.06550891 -0.09735545 0.20648047 0.08526619 0.3206358 -0.17890939 -0.2152317
0.2722487 0.13867147 0.28029153 0.24901022 -0.1246169 0.28633052 -0.090551406 0.16781943
-0.10620467 0.22033928 -0.08011822 0.08346265 -0.056845594 0.0024487267 0.13163386 0.254769
0.3198199 0.32364073 -0.02242094 0.1651306 -0.0064686043 0.25384533 0.2941082 0.32246584
0.20557965 -0.06011079 -0.08677536 -0.026215313 0.1842769 -0.016951442 0.24791326 0.29293853
-0.048248146 -0.08339541 0.02515596 0.2544123 0.14387108 0.32141936 -0.13409628 -0.050995164
0.3270607 0.27882874 0.024612246 -0.047236126 0.23594294 0.19670986 0.22874323 -0.07846406
0.1466133 0.31384042 0.20584717 0.22739728 0.3178439 0.21707399 -0.01811944 0.27447656
0.092371024 0.30476418 -0.08925454 0.031431004 0.25729886 0.18382366 -0.057963207 0.099099964
0.075403795 -0.019543836 0.058952738 -0.09645315 0.012401293 -0.06096888 -0.0928172 -0.01905134
0.31538966 -0.09500128 0.13394734 0.08293284 0.106675886 0.058380306 0.29920542 -0.0015239881
-0.08602918 0.30457753 -0.041675128 0.06452109 -0.053914517 0.20463799 0.30397156 0.05364931
-0.06946717 0.08674667 0.27652934 -0.048031997 0.014288363 0.067104965 0.02115761 0.27244574
-0.07761813 0.26478776 0.055695955 0.034674924 0.30746302 0.29177487 0.3195336 0.30535322
0.049741235 0.21416287 -0.008124858 0.28280994 -0.08622297 0.27449316 -0.024365854 -0.081510946
-0.06631449 0.13845406 0.2876619 0.13824394 0.24995266 0.30202323 -0.07999959 0.23553555
0.06080792 0.26576868 0.316916 0.30023447 0.19809818 0.056025032 0.069836736 0.19896947
0.33208972 -0.027519949 0.214877 0.33119306 -0.08692687 -0.09522241 0.042610493 0.21963263
0.23817912 0.2865077 -0.20834829 0.094200276 0.21177098 0.16258813 -0.078150615 0.09831818
0.17238644 0.19937876 0.15475228 -0.1594506 0.26766986 0.275013 0.21016766 0.28239322
0.18235043 0.27790654 -0.029699208 0.31236583 0.034972575 0.33169717 -0.068103 0.008526363

fc_out.bias f4 [5]
00000000: 585e 413e cdf8 063e a1f5 493e 74b7 903e
00000010: 86f2 cd3d
0.18883646 0.13180847 0.19722606 0.28264964 0.10056023
