checkpoints/lstm_250/LSTM(1,100,100,5)epoch_249.pt (torch, 168708 bytes, 9 tensors)

norm.weight f4 [30]
0	0x3f9cfdf0	1.2264996
1	0x3f9f6993	1.2454094
2	0x3f9f7e6a	1.2460454
3	0x3f9f8314	1.2461877
4	0x3f9f8305	1.2461859
5	0x3f800000	1.0
6	0x3f800000	1.0
7	0x3f800000	1.0
8	0x3f800000	1.0
9	0x3f800000	1.0
10	0x3f800000	1.0
11	0x3f800000	1.0
12	0x3f800000	1.0
13	0x3f800000	1.0
14	0x3f800000	1.0
15	0x3f800000	1.0
16	0x3f800000	1.0
17	0x3f800000	1.0
18	0x3f800000	1.0
19	0x3f800000	1.0
20	0x3f800000	1.0
21	0x3f800000	1.0
22	0x3f800000	1.0
23	0x3f800000	1.0
24	0x3f800000	1.0
25	0x3f800000	1.0
26	0x3f800000	1.0
27	0x3f800000	1.0
28	0x3f800000	1.0
29	0x3f800000	1.0

norm.bias f4 [30]
0	0x3e678236	0.22608265
1	0x3e678987	0.22611056
2	0x3e679bd3	0.22618036
3	0x3e67aa3d	0.22623535
4	0x3e67b753	0.22628526
5	0x00000000	0.0
6	0x00000000	0.0
7	0x00000000	0.0
8	0x00000000	0.0
9	0x00000000	0.0
10	0x00000000	0.0
11	0x00000000	0.0
12	0x00000000	0.0
13	0x00000000	0.0
14	0x00000000	0.0
15	0x00000000	0.0
16	0x00000000	0.0
17	0x00000000	0.0
18	0x00000000	0.0
19	0x00000000	0.0
20	0x00000000	0.0
21	0x00000000	0.0
22	0x00000000	0.0
23	0x00000000	0.0
24	0x00000000	0.0
25	0x00000000	0.0
26	0x00000000	0.0
27	0x00000000	0.0
28	0x00000000	0.0
29	0x00000000	0.0

norm.running_mean f4 [30]
0	0xbe093378	-0.1339854
1	0xbe5557e1	-0.20834304
2	0xbe69c966	-0.22830734
3	0xbe6d42a9	-0.2316996
4	0xbe6dd1b0	-0.2322452
5	0xbe6dce2d	-0.23223181
6	0xbe6da3d3	-0.23207025
7	0xbe6d731a	-0.23188439
8	0xbe6d45f5	-0.23171218
9	0xbe6d1f79	-0.23156537
10	0xbe6d00a4	-0.23144776
11	0xbe6ce98a	-0.23135963
12	0xbe6cd9aa	-0.23129907
13	0xbe6cd077	-0.23126398
14	0xbe6ccd70	-0.23125243
15	0xbe6ccff3	-0.23126201
16	0xbe6cd756	-0.23129019
17	0xbe6ce331	-0.23133542
18	0xbe6cf2f3	-0.23139553
19	0xbe6d05ec	-0.2314679
20	0xbe6d1bc9	-0.2315513
21	0xbe6d340e	-0.23164389
22	0xbe6d4e4b	-0.23174398
23	0xbe6d69f2	-0.23184946
24	0xbe6d86c7	-0.23195945
25	0xbe6da471	-0.2320726
26	0xbe6dc2bc	-0.23218817
27	0xbe6de15c	-0.23230499
28	0xbe6e0038	-0.23242271
29	0xbe6e1ee4	-0.23253971

norm.running_var f4 [30]
0	0x3b2d731f	0.0026466323
1	0x38ac6b4b	8.221584e-05
2	0x38b47eaa	8.606662e-05
3	0x38b11a66	8.444935e-05
4	0x38b3094f	8.537119e-05
5	0x38b881a1	8.797949e-05
6	0x38c18b3d	9.228892e-05
7	0x38cd86d0	9.8002725e-05
8	0x38dbb1bd	0.0001047584
9	0x38ebd7c2	0.00011245861
10	0x38fd2f7b	0.00012072824
11	0x3907ba8e	0.000129441
12	0x39114bfd	0.00013856585
13	0x391b47e4	0.00014808733
14	0x3925a20d	0.00015795995
15	0x39305c5e	0.00016819077
16	0x393b895c	0.0001788488
17	0x39471b26	0.00018988232
18	0x39531d60	0.00020133471
19	0x395fb0db	0.00021332821
20	0x396cc3ff	0.00022579728
21	0x397a5db1	0.0002387676
22	0x398447d1	0.0002523051
23	0x398bbb12	0.00026651524
24	0x39938918	0.00028140168
25	0x399bae7f	0.00029693914
26	0x39a42868	0.00031310623
27	0x39acfa83	0.00032993042
28	0x39b62122	0.0003473843
29	0x39bfb066	0.00036561786

lstm.weight_ih_l0 f4 [400, 1]
0	0x36f17d7b	7.1969675e-06
1	0x3cd15434	0.025552846
2	0xb74a915a	-1.20739805e-05
3	0xb722b3d5	-9.697823e-06
4	0xb821bda6	-3.8562015e-05
5	0x3e4c8e84	0.1997624
6	0x39ffd3f4	0.00048795308
7	0x3e0295c4	0.12752444
8	0xb9633444	-0.00021667877
9	0x3815fbb6	3.5758792e-05
10	0x3750383e	1.2410861e-05
11	0x3827cc0c	4.0005936e-05
12	0x3e759601	0.23983003
13	0xb82fc95b	-4.191078e-05
14	0x38bf5eae	9.125225e-05
15	0xb999f1f7	-0.00029362712
16	0xb6fb6f02	-7.493306e-06
17	0x38850f75	6.344813e-05
18	0xb78c98a4	-1.676038e-05
19	0x3de866e3	0.11347749
20	0xb7c1242b	-2.3024235e-05
21	0x3df63ceb	0.12023338
22	0x38a96169	8.076692e-05
23	0xb7e4877a	-2.7242804e-05
24	0x3e1e5c54	0.15464908
25	0x3e2e2152	0.17004898
26	0x3e26f74f	0.16305278
27	0xb7a9d37a	-2.0244846e-05
28	0xb95f8fae	-0.00021320462
29	0x377e28ec	1.5149108e-05
30	0xb99dfc93	-0.00030133556
31	0x3900dcdb	0.00012289306
32	0x371287e3	8.733917e-06
33	0xb7d650a6	-2.5548343e-05
34	0x39218354	0.0001540308
35	0xb8119a36	-3.4714314e-05
36	0xb757d704	-1.2865061e-05
37	0xb66fc505	-3.5728456e-06
38	0x3e0b68d6	0.1361421
39	0xb826757b	-3.9686896e-05
40	0x3e4be96d	0.19913264
41	0xb89987f8	-7.320935e-05
42	0x3e562e80	0.20916176
43	0x3e10c834	0.14138871
44	0xb93f3f8a	-0.0001823885
45	0x370a69e2	8.250094e-06
46	0x3a0eed75	0.0005452254
47	0x3795254c	1.7779552e-05
48	0x3e381523	0.17976813
49	0xb731aab4	-1.0589767e-05
50	0xb7e61f86	-2.7432816e-05
51	0x3e4a5076	0.19757256
52	0x36597b7e	3.2407402e-06
53	0x3e322e75	0.17400534
54	0x37c45cf5	2.3408307e-05
55	0xb802be5b	-3.1171698e-05
56	0xb81bcc51	-3.7145164e-05
57	0xb82c4aec	-4.1077772e-05
58	0x3724e203	9.827784e-06
59	0x3e3806fc	0.17971414
60	0x388188f8	6.176712e-05
61	0x387f607f	6.0886607e-05
62	0x3e127cd7	0.14305435
63	0xb7c0757c	-2.2942892e-05
64	0xb8d3fb5c	-0.000101080834
65	0x390e5ed4	0.00013577502
66	0xb7af4374	-2.0893036e-05
67	0x382992bb	4.0429393e-05
68	0x3d924abb	0.0714316
69	0x3902785d	0.00012442605
70	0x3761e5e0	1.3464567e-05
71	0x36f86aec	7.4034233e-06
72	0xb8026750	-3.1090633e-05
73	0x382941c1	4.0353978e-05
74	0x3dc2f2b9	0.09518952
75	0xb8ac01b8	-8.201919e-05
76	0xb81cc088	-3.7372607e-05
77	0x39512e9e	0.0001994916
78	0x3e0138b7	0.12619291
79	0xb8526a92	-5.0167153e-05
80	0x3904456c	0.00012614363
81	0x39e2ad8c	0.00043235382
82	0x3de3777a	0.11106773
83	0x39a9abee	0.0003236229
84	0xb811e457	-3.4783352e-05
85	0xb76d1d20	-1.4133082e-05
86	0x38597764	5.1848023e-05
87	0x3747fdc7	1.1920411e-05
88	0xb8251096	-3.9354512e-05
89	0xb9a1cdf2	-0.00030861754
90	0xb94d87b2	-0.00019600874
91	0xb854cd84	-5.073614e-05
92	0x39296ff7	0.00016158806
93	0x372042c2	9.552286e-06
94	0xb851fb19	-5.0063336e-05
95	0x3801aee6	3.0918884e-05
96	0x37f6b898	2.9411443e-05
97	0xb89132e1	-6.923616e-05
98	0xb8b2553f	-8.50358e-05
99	0xb81042ca	-3.4394478e-05
100	0xbdfa5d57	-0.122248344
101	0xbc9a3803	-0.018825537
102	0xbe0b3697	-0.13595043
103	0xbe00ecaa	-0.1259028
104	0xbde58239	-0.112064786
105	0x39aeb642	0.0003332366
106	0xbd93c203	-0.07214739
107	0xbda2b5fb	-0.07944866
108	0xbdf04dc8	-0.117335856
109	0xb848b6c0	-4.7853915e-05
110	0xb73396a4	-1.0704305e-05
111	0xbe5ad315	-0.21369584
112	0x3962da27	0.00021634308
113	0xbdf3b7b0	-0.1190027
114	0x3987ab7b	0.0002587697
115	0x398b32b6	0.0002654993
116	0x38f1d971	0.00011532277
117	0xbe303b0b	-0.17210023
118	0x375afe14	1.305297e-05
119	0xbdc4875b	-0.095961295
120	0xbdcfc39d	-0.10144732
121	0xbdc7096e	-0.097185954
122	0x395f8ff6	0.00021320567
123	0x38b2de59	8.529117e-05
124	0xbace0fef	-0.0015721301
125	0x381f652d	3.800278e-05
126	0xb71aac11	-9.219178e-06
127	0x3883c4eb	6.2832456e-05
128	0x3908124c	0.00012976787
129	0xb8e17910	-0.00010751386
130	0xbddfb0ae	-0.10922371
131	0x3e29e8ce	0.16592714
132	0xbe05b09d	-0.13055654
133	0x38220242	3.8625913e-05
134	0xbe062961	-0.13101722
135	0xbde129fd	-0.10994337
136	0xbe060d53	-0.1309102
137	0x37df780f	2.6639578e-05
138	0xbdeff3b7	-0.11716407
139	0x3879d78e	5.9566977e-05
140	0xbd9687ef	-0.07350146
141	0x38976d5c	7.220611e-05
142	0x3e15e972	0.14639834
143	0x39249830	0.00015696953
144	0xbd85fafe	-0.065420136
145	0x3dd609cc	0.10451087
146	0xbdb818d8	-0.089891136
147	0xb9bc9bc2	-0.00035974203
148	0x3a8e7cb2	0.0010870902
149	0xbdd41526	-0.10355596
150	0xbdd7d8f9	-0.10539431
151	0x3e2bb05e	0.16766497
152	0xbe15e6d6	-0.14638838
153	0xb8d211cd	-0.00010016896
154	0xbe0dfa01	-0.138649
155	0xbe013ddf	-0.12621258
156	0x38f9a0c3	0.000119031894
157	0xbde76793	-0.11299052
158	0x387c0c61	6.009301e-05
159	0xba87840f	-0.0010339039
160	0xb8c82dad	-9.545251e-05
161	0xb9131584	-0.00014027028
162	0x3e527fc0	0.20556545
163	0xbe0c4ca1	-0.13701107
164	0xbdf0830e	-0.11743747
165	0xbe0fb727	-0.14034711
166	0xbde579ba	-0.11204858
167	0xb6a7e533	-5.00367e-06
168	0xbd7880f4	-0.060669854
169	0xbdf093f6	-0.11746971
170	0xbdf85ca4	-0.12127045
171	0xbdeef656	-0.116680786
172	0xbda7ab84	-0.08187011
173	0xb95ad4fd	-0.00020869444
174	0xbd9f388b	-0.077744566
175	0xbe1c346f	-0.15254377
176	0xbe0e9715	-0.1392482
177	0x3e06712c	0.13129109
178	0xbde224f7	-0.11042207
179	0xbdd5fcce	-0.10448609
180	0xbdc6dbc1	-0.097098835
181	0xbdafbefd	-0.0858135
182	0xbdd77b32	-0.105215445
183	0xbe099387	-0.13435183
184	0xbe0e3578	-0.13887584
185	0xb92318d4	-0.0001555414
186	0xb93c75ee	-0.0001797301
187	0xbde53a6a	-0.11192782
188	0x385183a7	4.9952094e-05
189	0xbdfeeb0c	-0.124471754
190	0x39d2ae29	0.0004018408
191	0xbda270c5	-0.07931665
192	0xbde40030	-0.11132848
193	0x394221ab	0.00018513824
194	0xbd5c94a4	-0.053852692
195	0xbe0efcaa	-0.13963571
196	0xb8e7662d	-0.0001103397
197	0x3e2fc34d	0.17164345
198	0xbde95cca	-0.11394651
199	0xb68b509b	-4.1519065e-06
200	0x37715cb3	1.4386303e-05
201	0xb928e0ff	-0.00016105546
202	0xbe0d8314	-0.13819534
203	0x3774b805	1.4586379e-05
204	0xb510e2d8	-5.397428e-07
205	0xb923b415	-0.00015611977
206	0xbd08d3a8	-0.033404976
207	0xb903290d	-0.00012508426
208	0xb8701012	-5.7235426e-05
209	0xb7419868	-1.1539181e-05
210	0xb81b140d	-3.6973554e-05
211	0xb975133a	-0.00023372183
212	0xb66f98f0	-3.5702797e-06
213	0xba9d8784	-0.0012018536
214	0xb8eb6f8a	-0.00011226449
215	0xb889859c	-6.557556e-05
216	0x36ae7ea8	5.200349e-06
217	0xb85dd6f8	-5.289071e-05
218	0x374aca7e	1.2087285e-05
219	0xb68926f4	-4.087453e-06
220	0xb74243d6	-1.1579095e-05
221	0xb8751bce	-5.8438447e-05
222	0xb86de04c	-5.6714096e-05
223	0xb9d0afa3	-0.0003980371
224	0xb888e64e	-6.527883e-05
225	0xb76e4618	-1.4202225e-05
226	0xb70a2531	-8.2341e-06
227	0xb6644655	-3.4015586e-06
228	0xb7e0cddc	-2.6798742e-05
229	0xb9259caf	-0.00015793995
230	0xb97ad191	-0.00023919927
231	0xb4bd8d4c	-3.53068e-07
232	0xbdadf1b4	-0.08493367
233	0xbdf138ea	-0.117784336
234	0xb8fdf6bc	-0.00012109938
235	0xb7dcfd1d	-2.6343909e-05
236	0xb69bd722	-4.6444047e-06
237	0xb7cf4742	-2.4709505e-05
238	0xb8caf0fe	-9.676999e-05
239	0xb8a07bf3	-7.652482e-05
240	0xb7623d23	-1.3484884e-05
241	0xb6988f32	-4.546623e-06
242	0xb644b615	-2.9312262e-06
243	0xb89be55e	-7.433699e-05
244	0xbd0ad5eb	-0.033895414
245	0xb758721c	-1.2901171e-05
246	0xbd4e7251	-0.05040199
247	0xb903588c	-0.0001252612
248	0xb8265c1a	-3.966326e-05
249	0xb67d84bc	-3.77772e-06
250	0xb7de207a	-2.6479585e-05
251	0xb7118f13	-8.675986e-06
252	0xb9a1e604	-0.00030879688
253	0xb79c6cee	-1.8647374e-05
254	0xbda33ed3	-0.07970967
255	0xbe0536f3	-0.13009243

lstm.weight_hh_l0 f4 [400, 100]
0	0xbd557d2a	-0.05212132
1	0xbd036316	-0.032076918
2	0xbdab3c3e	-0.083611
3	0xbcc8f54c	-0.02453103
4	0xbdd88170	-0.10571563
5	0x3db1e975	0.086871065
6	0x3bc6d2cc	0.0060676094
7	0x3e1b1aa5	0.15146883
8	0x3cb076d3	0.021541035
9	0xbc8291a5	-0.01593859
10	0x3e0c8486	0.13722429
11	0xbd398b4d	-0.045298863
12	0x3db4c1fb	0.08826061
13	0x3d822293	0.06354251
14	0xbc2752ad	-0.010212583
15	0x3d47d886	0.048790477
16	0xbe00f64e	-0.12593958
17	0x3d4a8b44	0.04944922
18	0x3d201e58	0.039091438
19	0xbdd55f77	-0.10418599
20	0x3e10a0aa	0.14123788
21	0xbd8df32c	-0.06931147
22	0x3e014f34	0.1262787
23	0xbdb85f21	-0.090025194
24	0xbc7b9eee	-0.015357716
25	0xbbb3edd0	-0.005490996
26	0x3d667d1a	0.05627165
27	0xbdfb0ccd	-0.12258301
28	0x3d9903a4	0.074713975
29	0xbdb3ed32	-0.08785476
30	0x3d5dba70	0.05413288
31	0x3cc73791	0.024318488
32	0xbdb22869	-0.08699114
33	0xbda4f56c	-0.08054623
34	0xbd837266	-0.06418304
35	0xbc9e7aa5	-0.01934559
36	0xbe2e138f	-0.16999649
37	0x3d52f4e5	0.05150308
38	0x3bfa92e9	0.0076469076
39	0xbdf23367	-0.118262105
40	0xbcb588cc	-0.022159956
41	0x3c6b5a46	0.014364785
42	0xbd07792c	-0.033074543
43	0xbe19972f	-0.14999078
44	0xbc87bf14	-0.016570605
45	0xbd849768	-0.06474191
46	0x3d67d913	0.056603502
47	0xbd4d67d4	-0.050147846
48	0x3e07bfed	0.13256808
49	0x3d8389e3	0.06422784
50	0x3dcf803f	0.10131883
51	0x3dd0a1d2	0.10187115
52	0xbdbe8f8e	-0.09304725
53	0x3dea81ed	0.114505626
54	0xbd04c720	-0.032416463
55	0xbd91f668	-0.071270764
56	0xbb215619	-0.0024617969
57	0x3c80f4b9	0.015741693
58	0xbc69e3db	-0.014275516
59	0x3d549877	0.051903214
60	0x3e1a4589	0.15065588
61	0x3dc3b33e	0.09555672
62	0x3db8e96e	0.09028898
63	0xbdb108b1	-0.08644236
64	0x3d0d72b8	0.034533232
65	0x3c94cb51	0.018163355
66	0x3d801980	0.06254864
67	0xbe377782	-0.17916682
68	0xbc78d5a7	-0.015187657
69	0x3d9a2581	0.075266846
70	0x3d65bdd7	0.05608925
71	0xbc8c40e9	-0.017120795
72	0x3dc87e1a	0.09789677
73	0xbddcb6e3	-0.107770704
74	0xbd141ddb	-0.036161285
75	0x3de73339	0.11289067
76	0x3dc4fb75	0.09618274
77	0xbe010e81	-0.12603189
78	0xbd2a2ec4	-0.041548505
79	0x3deee270	0.11664283
80	0xbd61e8d4	-0.055153683
81	0xbd16013f	-0.036622282
82	0x3dc433b2	0.095801726
83	0xbc9d836c	-0.019227706
84	0xbdc57031	-0.096405394
85	0x3d6d68e7	0.05796137
86	0xbd293110	-0.041306555
87	0xbd2b15f5	-0.041768987
88	0xbd6fb317	-0.058520403
89	0x3d17eb6f	0.03708976
90	0x3d611628	0.05495277
91	0xbd466dd6	-0.04844459
92	0xbd9339e3	-0.071887754
93	0xbce3928c	-0.02777984
94	0xbce97817	-0.028499646
95	0xbcaba80a	-0.02095415
96	0xbc2fbacb	-0.010725687
97	0xbd1c2087	-0.038116958
98	0x3deb4046	0.114868686
99	0x3c9dddce	0.019270804
100	0xbdc723d0	-0.097236276
101	0x3db81cb8	0.08989853
102	0xbde8c933	-0.11366501
103	0x3d829274	0.0637559
104	0x3d72de5f	0.0592941
105	0x3ca4eda7	0.020132853
106	0x3d4e3f30	0.05035323
107	0x3d0b797e	0.03405141
108	0xbdb2b2c1	-0.08725501
109	0x3d39105f	0.04518163
110	0xbd2ceac0	-0.042216063
111	0xbdbe6029	-0.09295685
112	0x3b80f5a3	0.003935532
113	0xbd9f999a	-0.07792969
114	0xbd9dc58e	-0.07703696
115	0xbda33f21	-0.07971025
116	0x3b2540ab	0.0025215547
117	0xbd086bbd	-0.033305872
118	0x3cba79b7	0.022763116
119	0xbc06abc3	-0.008219662
120	0x3d93474f	0.071913354
121	0x3da518e8	0.08061391
122	0xbd72482f	-0.05915087
123	0x3c36ace6	0.011149621
124	0xbc6ff508	-0.014645822
125	0xbd59b9ad	-0.05315559
126	0x3d67d6a5	0.056601185
127	0x3d8d986b	0.06913837
128	0xbd7893d7	-0.060687866
129	0x3d00e335	0.03146668
130	0x3db83dc5	0.089961566
131	0x3d8bfb8d	0.06835089
132	0xbd91c6b8	-0.07117981
133	0xbd3bea24	-0.04587759
134	0x3d980611	0.07423032
135	0x3d217553	0.03941853
136	0xbd863ba3	-0.065543436
137	0x3d9f6694	0.07783237
138	0xbdb27dea	-0.087154225
139	0xbd70be64	-0.05877532
140	0xbdfb37b3	-0.12266483
141	0x3d5cf718	0.053946584
142	0xbc9cf76d	-0.01916095
143	0x3db69ca3	0.08916595
144	0x3d7185d8	0.058965534
145	0xbd04721c	-0.032335386
146	0x3d9fb4d4	0.07798162
147	0x3c082bd4	0.008311231
148	0xbdbd9f4c	-0.09258899
149	0x3da46965	0.08027915
150	0xbd593630	-0.053030193
151	0x3c3e7e2e	0.011626763
152	0x3c738bb9	0.014864855
153	0x3db71172	0.08938874
154	0xbd9b81cf	-0.075931184
155	0x3d06ab78	0.03287837
156	0xbc40f813	-0.0117778955
157	0x3dcfbe86	0.10143761
158	0xbce9df22	-0.02854878
159	0x3db47cf4	0.088128954
160	0x3dab623c	0.08368346
161	0xbd0fae06	-0.03507807
162	0x3d4a9a2d	0.04946344
163	0xbd8bc037	-0.068237714
164	0x3ca7e10f	0.020493058
165	0x3a54c565	0.0008116572
166	0x3d946f26	0.072477624
167	0xbcaf54d7	-0.02140276
168	0xbd580c58	-0.052746147
169	0xbd4e65cf	-0.05039006
170	0xbde81b9d	-0.11333392
171	0xbd9ff6ef	-0.07810771
172	0x3cebba33	0.02877531
173	0xbdd3cc31	-0.10341681
174	0x3de05263	0.10953214
175	0xbdb3d84d	-0.087814905
176	0xbdcd3cb8	-0.10021347
177	0xbcd77490	-0.026300699
178	0x3c7d5d5a	0.015464151
179	0x3d41fb00	0.047358513
180	0x3db07d34	0.086176306
181	0xbdd80b77	-0.10549062
182	0x3d953519	0.07285518
183	0x3da13c67	0.07872849
184	0x3cbffcba	0.02343594
185	0x3d76ebd8	0.060283512
186	0xbd6a9f0b	-0.05728058
187	0xbdd3a96a	-0.103350475
188	0x3db6fa27	0.089344315
189	0xbc0ddf14	-0.008659143
190	0xbdc247ab	-0.09486326
191	0x3d17ad9f	0.037030812
192	0x3d8559a5	0.06511239
193	0x3d0f2797	0.034949865
194	0x3d096388	0.033542186
195	0x3c38a944	0.011270825
196	0xbd54052f	-0.051762756
197	0x37dc76ca	2.628136e-05
198	0x3d4f8f63	0.050673854
199	0xbd198611	-0.03748137
200	0x3d9ad06c	0.075592846
201	0x3c1d771b	0.0096109165
202	0xbba771e0	-0.0051100105
203	0xbd7f6ecb	-0.06236152
204	0x3da8c735	0.08241121
205	0xbc4524ca	-0.012032697
206	0xbd7442e8	-0.05963412
207	0xbe1d0b5e	-0.15336367
208	0xbb75fb93	-0.0037533983
209	0xbda64ebf	-0.081204884
210	0xbcbb803c	-0.022888295
211	0x3d0b75f6	0.034048043
212	0xbd926b6d	-0.07149396
213	0xbdb57975	-0.08861057
214	0xbdab66d0	-0.08369219
215	0xbddbf4a5	-0.107400216
216	0xbd4e04d4	-0.050297573
217	0x3cdf99ad	0.027294958
218	0x3d464f96	0.048415743
219	0x3cc0f3cf	0.023553757
220	0xbce9cc93	-0.028539931
221	0xbc8b11e0	-0.016976297
222	0xbd49a49e	-0.049229257
223	0xba0d3d84	-0.00053878897
224	0xbd409665	-0.047018427
225	0x3d8d2e52	0.068936005
226	0x3da3c065	0.07995681
227	0x3cedf924	0.029049464
228	0xbddc2ca8	-0.10750705
229	0xbd9947d0	-0.074844
230	0xbe10bb6b	-0.14133994
231	0xbd9875ab	-0.074443184
232	0x3de8a7fc	0.113601655
233	0xbd58bde7	-0.05291548
234	0x3d59fa8f	0.053217467
235	0x3c90660b	0.017626783
236	0x3ced79ed	0.028988803
237	0xbd990bc9	-0.07472951
238	0xbcf1bee5	-0.02950997
239	0x3d7984e5	0.060917754
240	0xbd76ff87	-0.060302284
241	0xbd9db862	-0.07701184
242	0xbd6f5fbb	-0.058440905
243	0xbd725d86	-0.059171222
244	0xbda649f4	-0.08119574
245	0xbcbd0aad	-0.02307638
246	0xbd89904e	-0.06716977
247	0x3ccd44e2	0.02505726
248	0x3d7aabf2	0.061199136
249	0x3d9bd0f1	0.07608212
250	0x3d3f79c4	0.046746984
251	0x3cb4b2c7	0.022057904
252	0xbd1e9642	-0.038717516
253	0xbd570d34	-0.052502826
254	0xbcea2a4c	-0.028584622
255	0x3cbc4aa0	0.022984803

lstm.bias_ih_l0 f4 [400]
0	0xbdf9414d	-0.12170658
1	0xbbce0c1b	-0.006288064
2	0x3de72b82	0.11287595
3	0x3d9bb944	0.07603696
4	0xbd303ad0	-0.043024838
5	0x3e8e6861	0.2781401
6	0xbd95bd54	-0.07311502
7	0x3e55de65	0.20885618
8	0x3e007e29	0.12548126
9	0x3e62ae8d	0.22136898
10	0x3e246261	0.16053154
11	0xbca0b28e	-0.019616392
12	0x3dce9da2	0.1008866
13	0x388d26bc	6.730619e-05
14	0x3dff9157	0.12478893
15	0x3df31f08	0.11871153
16	0x3dff7b1c	0.12474653
17	0x3d799a72	0.060938306
18	0xbc7e6c4c	-0.01552875
19	0x3dc8cf46	0.09805159
20	0x3ddf35ad	0.1089891
21	0x3d9ff1a7	0.078097634
22	0x3defc361	0.117071874
23	0xbdb3d454	-0.08780733
24	0x3e6acd33	0.2292984
25	0x3dea5aab	0.11443075
26	0x3e3615c3	0.17781739
27	0x3db16e10	0.08663571
28	0x3e0bc344	0.13648707
29	0x3bce011f	0.0062867547
30	0x3d7fa34f	0.062411603
31	0x3e810e0a	0.25206023
32	0x3d78f94b	0.06078462
33	0x3d3e94f9	0.04652879
34	0x3e07691b	0.13223688
35	0x3e370ff3	0.17877178
36	0x3dfd6d49	0.1237436
37	0x3e0350d5	0.12823804
38	0x3d3a3a98	0.045466036
39	0x3d31961d	0.04335605
40	0x3e973ce0	0.2953863
41	0x3de4002f	0.111328475
42	0x3e245e27	0.16051541
43	0x3d824a6b	0.0636185
44	0xbd783b36	-0.060603343
45	0x3dbfad6b	0.09359249
46	0x3c870331	0.016481014
47	0x3dc7eb1c	0.097616404
48	0x3de84a41	0.11342288
49	0x3e0b11e8	0.1358105
50	0x3d51298d	0.051065017
51	0x3e6bf5b8	0.23042953
52	0x3de806df	0.113294356
53	0x3e8b3fa8	0.27197003
54	0xbdde7641	-0.10862399
55	0xbcc5b24b	-0.024132868
56	0x3c3f4c89	0.011675962
57	0xbdc25720	-0.09489274
58	0x3cdb46ef	0.026767222
59	0x3e61e249	0.22058977
60	0x3d945a70	0.07243812
61	0x3d8c6183	0.068545364
62	0x3dbd2c15	0.092369236
63	0x3dba433c	0.09094855
64	0x3ce3e530	0.027819246
65	0x3d2a2c82	0.041546352
66	0x3d6f2858	0.058388084
67	0x3df986a0	0.12183881
68	0x3dc7a608	0.09748465
69	0xbc84206e	-0.016128745
70	0xbd74ee91	-0.059797827
71	0x3d885912	0.06657614
72	0x3d34ba4e	0.044122986
73	0x3e1923bc	0.14955038
74	0x3d93bcec	0.07213768
75	0x3d99eda4	0.075160295
76	0x3d51b013	0.051193308
77	0x3e16d728	0.14730513
78	0x3db9fd0c	0.09081468
79	0x3c6b81eb	0.014374237
80	0x3d7ccbd1	0.061717812
81	0x3d069dd2	0.032865353
82	0x3e37b6b3	0.17940788
83	0xbd225edb	-0.039641242
84	0x3e3d9c12	0.18516567
85	0xbcaba5a4	-0.020953007
86	0x3c7b8d14	0.01535346
87	0x3d6e17d4	0.058128193
88	0xbd27c7f4	-0.040962175
89	0xbd3a647d	-0.04550599
90	0x3dc3d8ee	0.095628604
91	0xbdcab9e5	-0.09898738
92	0xbcf219da	-0.029553343
93	0x3e3fee80	0.18743324
94	0x3df9cd39	0.12197346
95	0xbce8d7f2	-0.028423283
96	0x3c6f5af4	0.014609087
97	0x3debf07a	0.11520477
98	0x3d38036f	0.04492515
99	0x3db1a527	0.086740784
100	0xbe1c1924	-0.15243965
101	0xbd21a320	-0.03946221
102	0xbdb47f62	-0.08813359
103	0x3d9cac8a	0.07650097
104	0x3dc287d5	0.09498564
105	0x3c295a2e	0.010336442
106	0xbd8a19cd	-0.06743202
107	0xbe1cd357	-0.15314995
108	0xbd3934b9	-0.045216296
109	0x3d139b92	0.036037035
110	0x3d956a93	0.07295718
111	0xbe6185a2	-0.22023633
112	0x3cee4900	0.029087543
113	0xbd0ca5ad	-0.03433769
114	0xbdf6bcb6	-0.120477125
115	0xbd679835	-0.05654164
116	0xbdcd6d7e	-0.100306496
117	0xbda40ebe	-0.08010624
118	0xbdd6739e	-0.10471271
119	0xbdcb6cd8	-0.0993287
120	0x3dc1afd0	0.09457362
121	0x3d5b979f	0.053611394
122	0xbd1b1a22	-0.03786672
123	0xbe061e1d	-0.13097425
124	0xbd89d75a	-0.06730528
125	0xbd4f459c	-0.050603494
126	0xbbff270e	-0.007786638
127	0x3cdc8e4a	0.026923317
128	0xbd3ed6e9	-0.046591673
129	0xbcd9a646	-0.026568543
130	0x3c7ad5af	0.015309735
131	0x3e406d0f	0.18791603
132	0xb9a0aa3f	-0.0003064442
133	0x3cfb2402	0.030656818
134	0xbde20f5b	-0.11038085
135	0x3ab6c38c	0.0013943776
136	0xbc437957	-0.011930785
137	0xbe019e77	-0.12658106
138	0xbd697cee	-0.057003908
139	0x3c9b43c5	0.018953213
140	0x3d0c2cf0	0.034222543
141	0x3cf2703f	0.029594539
142	0x3e244e7c	0.16045564
143	0x3cb4dcb9	0.022077905
144	0xbdf78bad	-0.12087188
145	0x3d9ceac6	0.07661967
146	0xbe12c705	-0.14333732
147	0xbcf4dd59	-0.029890703
148	0xbdd5d0b4	-0.104401976
149	0x3c6a3600	0.014295101
150	0xbcad88b0	-0.021183342
151	0x3dbdcf2f	0.09268033
152	0xbd69a8ba	-0.057045676
153	0x3c492d33	0.012278843
154	0x3d983b75	0.074332155
155	0xbde3bd99	-0.11120147
156	0xbd341bcb	-0.043971818
157	0x3d54e252	0.05197365
158	0xbe09f103	-0.13470845
159	0x3d39df9a	0.04537926
160	0x3c6e9852	0.014562683
161	0x3d6f77af	0.05846375
162	0x3e8411f4	0.25794947
163	0xbdc7d3fe	-0.09757231
164	0x3d638a19	0.055551622
165	0x3d011071	0.03150982
166	0xbd8a6a7f	-0.06758594
167	0x3d5983b3	0.053104114
168	0x3cf231f2	0.029564831
169	0x3cd04ec5	0.025428185
170	0xbdd4ced2	-0.1039101
171	0xbdefdb99	-0.11711807
172	0x3bee1a1b	0.0072662956
173	0x3c585a90	0.0132051855
174	0xbd0719d3	-0.032983612
175	0xbca2fc0f	-0.019895582
176	0xbc2acef6	-0.01042532
177	0x3d6eaccd	0.058270264
178	0xbb9c4bac	-0.004769763
179	0xbd6838b6	-0.05669471
180	0xbdd0bb7f	-0.10192012
181	0xbe385b41	-0.1800356
182	0x3dd2cd9e	0.102931246
183	0xbc3531bd	-0.011059222
184	0x38f2861b	0.00011564438
185	0xbd87e907	-0.06636243
186	0xbd0d1346	-0.03444221
187	0xbe14eff0	-0.14544654
188	0xbd0bdfab	-0.034148853
189	0xbd21a37b	-0.039462548
190	0xbd403b16	-0.04693135
191	0xbe06ba7c	-0.13157076
192	0xbd362620	-0.044469953
193	0x3cd5f9f2	0.02612016
194	0xbd85184b	-0.06498774
195	0xbe07e531	-0.13271023
196	0xbd319ee5	-0.043364424
197	0x3e4e7a33	0.20163803
198	0xbe0d8fed	-0.13824435
199	0xbdc42abc	-0.095784634
200	0xbdb9069b	-0.09034463
201	0xbdfddcd5	-0.12395636
202	0xbd83b7b0	-0.0643152
203	0xbd977a2f	-0.073963515
204	0xbddfec3c	-0.1093373
205	0xbdae3b80	-0.085074425
206	0x3d1c34ac	0.03813617
207	0xbdef4dfa	-0.11684795
208	0xbe239955	-0.1597646
209	0xbe7180eb	-0.23584335
210	0xbe4dcee7	-0.20098458
211	0xbe0e6599	-0.13905944
212	0xbdb16e47	-0.08663612
213	0xbde051ac	-0.10953078
214	0xbe16fdd8	-0.14745271
215	0xbe437e65	-0.19091184
216	0xbe462be7	-0.19352685
217	0xbe0a29ef	-0.13492559
218	0xbe0a3a2f	-0.13498758
219	0xbe4c46c1	-0.19948865
220	0xbdb8eeb0	-0.09029901
221	0xbe3474e0	-0.1762271
222	0xbe51697c	-0.20450395
223	0xbde65d1d	-0.11248229
224	0xbd82422e	-0.06360279
225	0xbd722e2e	-0.05912607
226	0xbe3161e3	-0.17322497
227	0xbe5978ab	-0.21237437
228	0xbe086362	-0.13319162
229	0xbe319ba8	-0.17344534
230	0xbda8c3e8	-0.08240491
231	0xbe1c9df7	-0.15294634
232	0xbe5568df	-0.20840786
233	0xbe45b7f7	-0.19308458
234	0xbe82d1f4	-0.25550807
235	0xbe281b51	-0.1641667
236	0xbe4216ec	-0.18954057
237	0xbe476fb6	-0.19476208
238	0xbddca7d4	-0.10774198
239	0xbdacb537	-0.084330015
240	0xbdf65387	-0.1202765
241	0xbda152ca	-0.07877119
242	0xbd5123a2	-0.051059373
243	0xbe443db8	-0.19164169
244	0xbe229a0f	-0.15879081
245	0xbe18bf87	-0.14916812
246	0xbe536f82	-0.20648006
247	0xbe7c48a8	-0.24637091
248	0xbe423c1a	-0.1896824
249	0xbe575128	-0.21027052
250	0xbdd4aa9f	-0.10384106
251	0xbe0ee58f	-0.13954757
252	0xbe3f9809	-0.1871034
253	0xbdfce021	-0.12347437
254	0xbe000fd9	-0.12506045
255	0xbda128ab	-0.07869085

lstm.bias_hh_l0 f4 [400]
0	0x3c8f7769	0.017512994
1	0x3e2be0a1	0.16784908
2	0x3c8864ee	0.01664969
3	0x3d93b08f	0.0721141
4	0x3db0b8bf	0.086289875
5	0x3dca7638	0.0988583
6	0x3d248452	0.040165253
7	0x3e78cc01	0.24296571
8	0x3d50b1f4	0.05095096
9	0x3e6c0dc3	0.23052125
10	0x3cf4417d	0.029816383
11	0xbd2ae86d	-0.041725565
12	0x3e4943cc	0.19654769
13	0xbd39bf4e	-0.045348458
14	0x3b66039b	0.0035097364
15	0x3e0bd03b	0.13653652
16	0x3d51d17a	0.051225163
17	0x3e1be34e	0.15223429
18	0xbdba1f81	-0.0908804
19	0x3dedcf0f	0.11611759
20	0x3db6cc14	0.089256436
21	0x3d4849f6	0.04889866
22	0x3b3d4337	0.0028879174
23	0x3dd03a9c	0.10167429
24	0x3e266465	0.16249235
25	0x3e572021	0.2100835
26	0x3e376142	0.17908195
27	0x3cbcf3bf	0.023065446
28	0x3deaa660	0.11457515
29	0xbb8e80c6	-0.004348847
30	0x3db01c95	0.085992016
31	0x3e01bc0e	0.12669393
32	0xbccd04d1	-0.02502671
33	0xbd2ec819	-0.042671297
34	0x3e3117ed	0.17294283
35	0x3d8ade5d	0.06780694
36	0x3e415081	0.18878366
37	0x3dff7e33	0.124752425
38	0x3d9fccd0	0.07802737
39	0x3cdc85d1	0.026919277
40	0x3dff68e0	0.12471175
41	0x3df480ca	0.11938627
42	0x3e8ef7e7	0.2792351
43	0x3d804081	0.06262303
44	0xbc2dbd6e	-0.010604246
45	0x3de32f49	0.11093003
46	0xbcd1b45c	-0.025598697
47	0x3e575a22	0.21030477
48	0x3e2cc2c9	0.1687118
49	0x3cd87431	0.026422592
50	0x3cfdb9a8	0.030972317
51	0x3e8c66f4	0.27422297
52	0x3c0ab965	0.008467053
53	0x3e120c47	0.14262496
54	0x3d5f6b4a	0.05454568
55	0xbd4fb645	-0.050710935
56	0xbd809560	-0.06278491
57	0x3d01a8c4	0.031655088
58	0x3cf43b1a	0.029813338
59	0x3e75de9b	0.24010698
60	0xbaa3a7ba	-0.00124859
61	0x3da8379b	0.08213731
62	0x3e0b4246	0.135995
63	0xbd8f528c	-0.069981664
64	0xbc27ed32	-0.010249423
65	0xbdd9f872	-0.1064309
66	0xbbf9718c	-0.007612413
67	0x3ac8abf0	0.001531003
68	0x3e03a065	0.12854154
69	0xbd96b640	-0.0735898
70	0x3dc88e72	0.09792794
71	0x3dbe3f46	0.09289412
72	0xbd548c02	-0.051891334
73	0x3e305fc4	0.17224032
74	0x3dc750e0	0.097322226
75	0xb92a5e26	-0.00016247536
76	0xbbc5df45	-0.0060385787
77	0x3ddeae77	0.1087312
78	0x3d197efa	0.03747461
79	0xbc0351cd	-0.008015108
80	0xbd87c47a	-0.06629272
81	0x3d9c16ff	0.07621574
82	0x3e4f4350	0.20240521
83	0xbdbef1d5	-0.093234695
84	0x3e49befd	0.19701762
85	0x3d58bd37	0.052914824
86	0x3dc9c659	0.09852285
87	0x3d9c9ce2	0.076471105
88	0xbdbeaef5	-0.09310714
89	0xbe0200ce	-0.1269562
90	0x3bbf130c	0.005831128
91	0x3c5578c1	0.013029278
92	0x3d50d296	0.05098208
93	0x3ce77e97	0.028258605
94	0x3ddde85a	0.10835333
95	0xbd6433bb	-0.055713397
96	0x3d404a9a	0.046946146
97	0x3e513cd9	0.20433368
98	0x3de9b45e	0.114113554
99	0x3d590cfb	0.052990895
100	0xbe3cf822	-0.1845403
101	0x3cb656ab	0.022258123
102	0xbd75d448	-0.0600169
103	0xbd0a1623	-0.033712517
104	0x3b4e59cc	0.0031486629
105	0xbd32d2f5	-0.043658216
106	0xbdab0b72	-0.083517924
107	0xbc2b5951	-0.010458306
108	0xbdd71001	-0.105010994
109	0xbcefd8a3	-0.029278105
110	0xbdc20aaf	-0.09474694
111	0xbcfd3cc4	-0.030912764
112	0xbc83dd4e	-0.016096737
113	0xbdbf947a	-0.093544915
114	0x3d802e5e	0.06258844
115	0xbd8d0fb2	-0.06887759
116	0xbc151625	-0.009099518
117	0xbc8503a6	-0.016237091
118	0xbe12d274	-0.14338094
119	0xbd820907	-0.06349378
120	0x3d3ffa90	0.046869814
121	0x3cfcb6e8	0.030848935
122	0x3d5ce32b	0.05392758
123	0xbd03ca47	-0.03217533
124	0xbdd6bf5a	-0.10485716
125	0xbd9da36d	-0.076971866
126	0x3ba9884f	0.00517372
127	0xbd85e871	-0.06538475
128	0x3cdeba3c	0.027188413
129	0x3d879c5e	0.066216215
130	0xbcb38561	-0.021914186
131	0x3dd0a149	0.10187013
132	0xbdb2914d	-0.0871912
133	0xbad1f2b2	-0.0016017763
134	0xbd42340a	-0.04741291
135	0xbcfe43d6	-0.031038206
136	0xbd2bcf29	-0.04194561
137	0xbd8e7886	-0.06956582
138	0x3cff7ae2	0.031186525
139	0xbdb484a9	-0.088143654
140	0xbdaccf4e	-0.08437978
141	0x3dac218b	0.08404835
142	0x3e5706e4	0.20998722
143	0xbe0ece14	-0.139458
144	0x3c743d77	0.0149072325
145	0x3e18e72e	0.14931938
146	0xbd7b038e	-0.061282687
147	0xbd2b6f85	-0.0418544
148	0xbdfccf71	-0.12344254
149	0x3c003ae3	0.00782654
150	0x3d4e8939	0.050423834
151	0x3d71f222	0.059068806
152	0xbd407bb6	-0.04699298
153	0x3df8630f	0.12128269
154	0xbda546c5	-0.08070139
155	0xbde02ded	-0.1094626
156	0xbdd2ac5d	-0.10286782
157	0xbdfda8ff	-0.12385749
158	0xbe040640	-0.12893009
159	0x3d935ec3	0.07195809
160	0x3d236924	0.03989519
161	0x3d1ef6de	0.03880965
162	0x3de79772	0.11308183
163	0x3ca6a333	0.020341491
164	0xbd56e13a	-0.052460887
165	0x3d29d8b1	0.04146642
166	0xbdbda870	-0.092606425
167	0x3c9d142d	0.01917466
168	0xbce1ecb7	-0.027578695
169	0xbd35c093	-0.044373106
170	0xbdcbc7f1	-0.09950245
171	0xbd09f714	-0.033682898
172	0x3cfe491c	0.03104072
173	0xbd9bfb2f	-0.07616269
174	0xbd4c5097	-0.049881544
175	0x3d8e4e14	0.06948486
176	0xbdb63bb0	-0.08898103
177	0x3c3f5905	0.011678939
178	0x3da861fc	0.08221814
179	0x3d51fe8a	0.051268138
180	0xbd73cf5a	-0.059523918
181	0xbe4bdfd9	-0.1990961
182	0x3e1102e4	0.14161259
183	0xbd21fda0	-0.039548516
184	0x3d07082f	0.03296679
185	0x3c2e4c9c	0.010638382
186	0xbda27a28	-0.07933456
187	0x3c8acee8	0.016944364
188	0x3d6dd183	0.058061134
189	0xbde2ad16	-0.1106817
190	0xbd471438	-0.048603266
191	0xbe06215d	-0.13098665
192	0xbcb83402	-0.022485737
193	0xbc1c1f66	-0.00952897
194	0xbce94e60	-0.028479755
195	0xbd874da8	-0.06606609
196	0xbda9abf6	-0.08284752
197	0x3e16790f	0.14694618
198	0xbc8fe0d2	-0.017563257
199	0xbddbccbf	-0.107324116
200	0xbe3933f4	-0.18086225
201	0xbd0bf15a	-0.034165718
202	0xbdbf7ba4	-0.093497545
203	0xbdf8de41	-0.121517666
204	0xbe33899c	-0.17532963
205	0xbe1eae64	-0.15496212
206	0xbd40c94c	-0.04706697
207	0xbdc22238	-0.09479183
208	0xbe840213	-0.25782833
209	0xbe282f99	-0.16424407
210	0xbdffd98a	-0.12492664
211	0xbe195c61	-0.14976646
212	0xbdd20a66	-0.102558896
213	0xbdb55faa	-0.08856137
214	0xbe44beed	-0.19213457
215	0xbe49ace9	-0.19694866
216	0xbe348c72	-0.176317
217	0xbe89f832	-0.2694717
218	0xbe031a02	-0.1280289
219	0xbd097e44	-0.033567682
220	0xbe4645bd	-0.1936254
221	0xbda5c8ef	-0.08094966
222	0xbe085b84	-0.1331616
223	0xbe5c65a7	-0.21523152
224	0xbcc0f2c7	-0.023553265
225	0xbe2e8b49	-0.1704532
226	0xbe17de25	-0.14830835
227	0xbde59c02	-0.11211397
228	0xbe0f2132	-0.13977507
229	0xbe7337b0	-0.23751712
230	0xbe183f26	-0.14867839
231	0xbe27e38a	-0.16395393
232	0xbe09c223	-0.13452964
233	0xbe2fa70b	-0.17153566
234	0xbdf7c253	-0.12097611
235	0xbdb0a433	-0.086250685
236	0xbe5d42d1	-0.2160752
237	0xbe0f715b	-0.14008085
238	0xbe2c75d6	-0.16841826
239	0xbe2a10f3	-0.16608028
240	0xbe01d91e	-0.1268048
241	0xbe3af54b	-0.18257634
242	0xbe2ee5d8	-0.17079866
243	0xbd8639df	-0.06554007
244	0xbdc661d7	-0.0968663
245	0xbe21eccb	-0.15812986
246	0xbd743b24	-0.059626713
247	0xbdbfee7f	-0.093716614
248	0xbd790530	-0.060795963
249	0xbd99138a	-0.0747443
250	0xbe3c8b44	-0.184125
251	0xbd77fe34	-0.06054516
252	0xbdb10d7c	-0.0864515
253	0xbdb5aa02	-0.08870317
254	0xbe06a7f6	-0.1315001
255	0xbdbbf256	-0.09177081

fc.weight f4 [1, 100]
0	0x3e86a94d	0.2630104
1	0xbe5eddb1	-0.21764256
2	0x3ea90ed4	0.33019125
3	0x3deb0955	0.11476389
4	0x3e26cf9f	0.16290139
5	0x3ea3ddef	0.3200526
6	0x3e44dd87	0.19225131
7	0x3e80c27e	0.25148386
8	0x3e6bd4ff	0.2303047
9	0x3e774432	0.24147108
10	0x3e80dbcc	0.25167692
11	0x3e69678f	0.2279341
12	0x3ea48607	0.32133505
13	0x3e6f62e4	0.23377568
14	0x3e8b7790	0.27239656
15	0x3e742a48	0.23844254
16	0x3ea04a97	0.31306908
17	0x3e488540	0.19582081
18	0x3e85d7bb	0.26141152
19	0x3e8854c1	0.26627162
20	0x3e521182	0.20514491
21	0x3e716a06	0.23575601
22	0x3e1ee878	0.15518367
23	0x3e890d2b	0.2676786
24	0xbe885832	-0.26629788
25	0x3e3b6514	0.18300277
26	0x3e392d9f	0.1808381
27	0x3e8b7f5a	0.272456
28	0x3e9bc9bd	0.30427352
29	0x3ea8259a	0.32841188
30	0x3e3f04bc	0.1865415
31	0x3e335663	0.17513423
32	0x3e676a76	0.22599205
33	0x3e325408	0.17414868
34	0x3e970e62	0.2950316
35	0x3e23f3f9	0.16011037
36	0x3e46b54f	0.19405101
37	0x3e0a2da5	0.13493975
38	0x3e6b7bd4	0.22996455
39	0x3ea0f887	0.3143961
40	0x3e2ca5b4	0.16860086
41	0x3e459a11	0.19297053
42	0x3e252595	0.16127618
43	0x3e2d066e	0.16896984
44	0x3e4889b1	0.19583775
45	0x3e812b4d	0.25228348
46	0x3e832218	0.2561195
47	0x3e99c09e	0.30029768
48	0x3e9be58b	0.30448565
49	0x3e825429	0.25454834
50	0x3e13e1a5	0.14441545
51	0x3e91dff5	0.28491178
52	0x3e9d7cfa	0.30759412
53	0x3e1e7016	0.15472445
54	0xbd50f3b0	-0.05101365
55	0x3ea461bf	0.32105824
56	0x3e84dbac	0.25948846
57	0x3d1b370c	0.037894294
58	0x3ea50f75	0.32238355
59	0xbd05cb89	-0.03266481
60	0x3e1475ed	0.1449811
61	0x3e3e7a0c	0.18601245
62	0x3e267a7c	0.16257662
63	0x3e789804	0.2427674
64	0x3e3fc02a	0.18725649
65	0x3e63aed4	0.2223466
66	0x3e38290c	0.17984408
67	0x3ea076ed	0.31340733
68	0xbe1676c3	-0.14693742
69	0x3e80fd2c	0.25193155
70	0x3e97d069	0.29651192
71	0x3e36f2cd	0.17866059
72	0x3eaa761d	0.33293238
73	0x3e6242be	0.22095773
74	0x3e87d74a	0.2653144
75	0x3e8b0c2a	0.27157718
76	0x3e70e664	0.23525387
77	0x3e1b15c2	0.15145019
78	0x3de8c1b6	0.113650724
79	0x3e940fec	0.28918397
80	0x3cf7b18f	0.030236034
81	0x3e2fab27	0.17155133
82	0x3e51c383	0.20484738
83	0x3e720314	0.23633987
84	0x3e850aed	0.25984898
85	0x3e98c106	0.29834765
86	0x3e60b6e1	0.21944763
87	0x3e858419	0.26077345
88	0x3e76bd00	0.24095535
89	0x3e48f051	0.19622923
90	0x3e57deec	0.21081132
91	0x3e6a6307	0.22889338
92	0x3e900cd4	0.28134787
93	0x3ea7ea40	0.32795906
94	0xbc090526	-0.008363044
95	0x3e076dbb	0.13225453
96	0x3e809003	0.25109872
97	0x3e8b0c2c	0.27157724
98	0x3e84b244	0.25917256
99	0x3e4a9ff9	0.19787587
