checkpoints/pre_relu/forecaster_fc_hidden_100/model.Forecaster_fc_hidden(input_features=1,encoder_hidden_features=100,fc_hidden=100,output_length=5)train.train_model(m, train_data, val_data, num_epochs=100,batch_size=10000,learning_rate=1e-5).pt (torch, 86095 bytes, 8 tensors)

encoder.weight_ih_l0 f4 [100, 1]
000000 5d 9a 83 3d ae c2 f4 3c 6b 1b 61 3d 01 99 8f 3d
       0.06425927 0.029877987 0.05495779 0.07011605
000010 b3 52 bd 3d d5 cf 22 3d 66 be 3c 3d 89 96 5a bd
       0.09244289 0.039748985 0.046080016 -0.053366218
000020 30 b6 2a 3d 76 1a b5 3d d2 4f 15 bd 75 85 4d bd
       0.041677654 0.08842938 -0.036453076 -0.050176103
000030 71 c4 8f bd f0 47 38 3d e8 c8 2b bd 83 63 43 bd
       -0.0701989 0.04499048 -0.041939646 -0.047702324
000040 76 47 65 bd 35 5b b9 bd c1 62 46 3d 07 14 0e 3d
       -0.055976354 -0.090505995 0.048434023 0.03468707
000050 79 ec 3d 3d e3 27 09 bd 90 b4 4b 3d df 8e 51 bd
       0.046368096 -0.033485305 0.049732745 -0.051161643
000060 4b 41 22 3d fc 03 20 3d 1a 89 2d bd da 1b 13 3d
       0.03961305 0.0390663 -0.04236708 0.035915233
000070 6d 6a 5d bd 14 d1 a0 3d c1 54 dc bc 67 c4 3f bd
       -0.054056574 0.078523785 -0.026895883 -0.046818163
000080 0f aa 32 bd bc dc 04 3d 73 69 6e bd 20 1e 3c 3d
       -0.04361921 0.03243707 -0.058206033 0.045927167
000090 65 27 eb bc 4e cb a5 bd 22 48 51 3c d7 4b 32 3d
       -0.028705308 -0.08095418 0.012773545 0.043529358
0000a0 e2 ff 3f 3d 31 fe b2 3d 52 55 97 bd 12 3d 82 3d
       0.04687489 0.087398894 -0.073893204 0.063593045
0000b0 70 8a 39 3d fa 97 12 3d b9 0f 45 bd 34 4e aa bc
       0.04529804 0.035789467 -0.048110697 -0.020789243
0000c0 ad 12 3b bd c9 ec ad 3d 95 c2 90 bd b1 6e 22 bd
       -0.045672107 0.08492429 -0.070683636 -0.039656345
0000d0 04 d4 87 3d b1 72 32 3d 0f 3f 59 bd 7a 9f 4f bd
       0.06632236 0.04356641 -0.053038653 -0.050689198
0000e0 af 44 3f 3d 21 4b c1 3d 69 fd ba bd 51 59 69 3d
       0.04669636 0.09438158 -0.091303654 0.056969944
0000f0 56 b2 39 bd 8d 87 0a 3d 91 01 76 bd 96 b6 26 3d
       -0.04533609 0.033820678 -0.060060088 0.04070147
000100 90 26 4f 3d a9 4f 3d 3d f2 d7 b0 3d e0 0b fa bc
       0.050573885 0.046218548 0.08634938 -0.03052324
000110 69 a7 a9 3d b4 bf b0 3d 8a 44 22 bd 31 1b c2 bd
       0.08283884 0.086303145 -0.039616145 -0.094778426
000120 b6 57 07 3d 8b 0e 82 3c 64 31 55 3d 8a ff 4e 3d
       0.033042632 0.015876075 0.052049056 0.05053667
000130 34 e9 38 bd 2f f5 21 bd a0 d2 2c bd 4b 74 1e bd
       -0.045144275 -0.039540466 -0.042193055 -0.038685124
000140 20 4e a1 bd d6 2b 81 bd e8 c9 fe 3c 28 c6 5e bc
       -0.07876229 -0.06307189 0.031102136 -0.013597049
000150 f4 cb 57 bd e6 4e 78 3d 7c 9b 3a bd 2b 15 e3 3d
       -0.05268474 0.06062212 -0.045558438 0.11088022
000160 af 68 35 3c ed a0 93 bd 79 b4 31 3d f8 ad e0 3c
       0.011072322 -0.072084285 0.043385003 0.027426705
000170 42 21 3b bd c5 e2 f5 bc 0b b0 31 bd 38 77 bb bd
       -0.045686014 -0.030015359 -0.04338078 -0.091535985
000180 a2 52 a9 bd c7 04 c2 bd e0 68 be 3c 03 7f 8d bd
       -0.08267714 -0.094735675 0.023243368 -0.06908991

encoder.weight_hh_l0 f4 [100, 100]
000000 2b 68 ab bc aa 4a a2 bb 7b 0f b7 3d ea 5c 52 3d
       -0.020923695 -0.0049527483 0.089384995 0.05135814
000010 40 c0 71 3a 70 d8 35 bd 6f 0d 4e bd 06 85 7f 3d
       0.0009222068 -0.044395864 -0.05030578 0.06238272
000020 fd 32 79 bd 6e 8b 0d bd 7c 75 ea 3d 56 08 f0 bc
       -0.06083964 -0.0345568 0.114481896 -0.02930085
000030 70 c0 17 3c 30 b3 27 3d 14 e2 2b 3d f6 c1 dd 3c
       0.009262189 0.04094237 0.04196365 0.027070027
000040 4b 1b e4 3d 2a 10 e2 3c bf 17 3b 3d 95 69 cc 3d
       0.11138018 0.027595598 0.045676943 0.09981076
000050 c4 0b 99 3d a3 f9 26 3d d3 bd be 3d 24 a3 48 3d
       0.07472947 0.040765416 0.0931355 0.048983708
000060 a5 6c c7 bc da 3c d8 3d a4 4f 33 bd 90 6a ed 3c
       -0.024343798 0.105584815 -0.043777123 0.028981477
000070 bd eb 4a 3d b7 b5 ec bc f8 04 92 3d 9e 44 9f bc
       0.049541224 -0.028895242 0.07129854 -0.019441899
000080 4a 1d 74 bd 1d 6b cb bd f2 f4 89 3a 20 2b 5b 3d
       -0.059598245 -0.099325396 0.001052527 0.053507924
000090 d0 2f e1 3d 19 92 13 3d 2c 65 56 3d 89 64 3e 3d
       0.10995448 0.036028 0.05234258 0.046482597
0000a0 83 1e 82 3d 08 eb db bd c9 4a 1b bd 76 7e f3 3c
       0.06353476 -0.10738188 -0.037913118 0.029723387
0000b0 86 78 64 3d 37 5a 9d bd 24 3d 03 3d e4 64 9b bb
       0.055779003 -0.07683223 0.03204073 -0.0047422517
0000c0 72 d1 99 3d 14 26 8f bd 8d 70 2b 3d 3c 07 1a bd
       0.07510652 -0.06989685 0.041855384 -0.037604555
0000d0 4f 27 29 bd 7a 3f 8c 3d c2 f0 95 3b 15 eb b0 3d
       -0.041297253 0.06848045 0.0045758197 0.08638588
0000e0 fa ee f5 3c 4a 28 b9 bd e6 72 c0 3d b2 87 83 bd
       0.03002118 -0.09040888 0.09396915 -0.06422366
0000f0 c6 c9 5f 3d dd f2 b6 3b ed 7a c3 bd 6a 57 51 bd
       0.054635786 0.005583151 -0.095449306 -0.051108755
000100 6b b4 91 bd 94 3f 01 3d 19 d3 1f 3d 8a 23 43 bd
       -0.0711449 0.031554773 0.039019678 -0.047641315
000110 a5 84 72 bd 5f d7 73 3d 0a 88 fc 3b 91 79 71 3b
       -0.05920853 0.059531566 0.007706647 0.003684614
000120 19 65 85 bc 1e 2b f7 bd 72 3a d8 bb 76 d5 80 bc
       -0.016283559 -0.12068771 -0.006598764 -0.015726786
000130 af 6a 58 3d 30 ae 95 bd 9d f8 06 3d 30 4c 87 ba
       0.052836116 -0.07308614 0.03295194 -0.0010322388
000140 02 9f f7 bc 0d 71 50 bd 10 47 e6 bd 83 ee 4c 3d
       -0.030227188 -0.050889064 -0.11244023 0.05003215
000150 ed eb 16 bd 04 07 52 3d dc 91 b4 3d 95 a2 07 bd
       -0.03684609 0.051276222 0.08816883 -0.033114035
000160 88 2e 6e bd 05 63 94 3d 91 44 d5 bd 51 37 cd bd
       -0.058149844 0.07245449 -0.10413469 -0.100203164
000170 b5 3f 8e 3d b2 ca 87 3d 94 00 b2 bd 3f d6 ae bd
       0.06945745 0.06630458 -0.086915165 -0.08536958
000180 e8 25 7e 3d 06 58 02 bd c3 90 16 bd 5b 70 71 3b
       0.06204787 -0.031822227 -0.03675915 0.003684065
000190 6c 4c 57 3d 40 c4 e5 3c 70 2f 3b bc 90 15 84 3c
       0.052563116 0.02804768 -0.011424884 0.016123563
0001a0 f5 6b 67 bc 52 6d 0c 3e 18 2e 77 3d 63 83 23 3d
       -0.01412486 0.13713577 0.060346693 0.039920222
0001b0 2f 24 44 3d 4b 9b 3b bd d0 aa a7 3d 1f d0 08 be
       0.04788607 -0.045802396 0.08186877 -0.13360642
0001c0 3c ac 4f bd b9 b2 a6 bb b1 31 53 bd a7 40 b9 3a
       -0.050701365 -0.0050872234 -0.05156106 0.0014133648
0001d0 59 34 ee bc 96 81 c8 3c 4a 7c 29 3d 93 58 12 3d
       -0.029077696 0.024475854 0.041378297 0.035729002
0001e0 04 bc c4 bd 7a 62 8c 3d 3a c6 d3 3c 94 2e e3 bd
       -0.09606174 0.068547204 0.025851358 -0.110928684
0001f0 31 6c 36 bb 5e bf 62 3d 73 e2 cc bc 51 17 05 3d
       -0.0027835483 0.055358283 -0.025010323 0.03249294
000200 fc 3a 94 bc ec 9e bb 3c fa 80 8e 3d 17 df 3d bd
       -0.018094532 0.022902928 0.06958194 -0.046355333
000210 02 e2 a5 3d fd 96 0f be 47 16 a0 bc e0 c9 e4 bc
       0.08099748 -0.14022441 -0.019541873 -0.027928293
000220 49 d7 3b 3b c0 d1 a9 bb ad a4 50 bd b1 fe 5b bd
       0.0028662255 -0.005182475 -0.050938297 -0.05370969
000230 82 96 b3 3d 89 fa c9 bd 7c e1 fe 3d ad 76 ba 3c
       0.087689415 -0.09862239 0.124453515 0.022761667
000240 af 4a 09 3d 90 ab eb 3d 9e dd 38 bc 78 8b b4 bc
       0.03351849 0.11507332 -0.011283306 -0.02203916
000250 78 1e f8 3c 8f 5b 58 bd d7 c7 b6 3d e8 50 27 bd
       0.030287966 -0.052821692 0.08924835 -0.040848643
000260 bd 22 a0 3d 67 03 9c bc 4e ca 25 bd 7f 08 b0 3d
       0.07819126 -0.019044591 -0.040476136 0.085953705
000270 9f d0 51 bd 84 3d ad bd 8f 34 89 3d db db 02 be
       -0.051224347 -0.08458999 0.06699478 -0.1277918
000280 ed c2 27 be 2f d7 b1 3d 27 c6 f0 3c 16 18 17 bd
       -0.16382952 0.08683621 0.029391361 -0.036888205
000290 2d 8e 72 3d f5 3d 05 3d d9 05 cc bd 08 aa 4a bd
       0.05921762 0.03252979 -0.09962053 -0.04947856
0002a0 b5 b1 b2 bb 3a 35 d6 bc b6 68 98 bd 78 ba 67 3d
       -0.0054533132 -0.026148427 -0.07441847 0.056574315
0002b0 fe 1f 07 bd 70 f3 a9 bd d2 a3 65 bc 37 92 9d 3c
       -0.032989495 -0.08298385 -0.014016109 0.01923476
0002c0 5b de 20 bd 44 30 c3 3d c4 a1 8d bc 22 1b 66 3c
       -0.039274555 0.0953069 -0.01728905 0.014044555
0002d0 59 59 72 3d 37 d2 48 bb 4a d0 a1 bd 03 98 1c bd
       0.05916724 -0.0030642876 -0.07901056 -0.038230907
0002e0 e8 ea 80 bb e8 b0 78 bc 4c 64 91 bd 26 4b 43 3c
       -0.003934253 -0.0151788965 -0.07099208 0.011919772
0002f0 34 31 f9 3c a5 27 47 bd a5 a6 e6 bd 82 ad 2b bc
       0.03041897 -0.048621792 -0.11262254 -0.010478379
000300 f8 fd ec bd ac 55 26 bc fe d2 19 be 0e f3 0d 3c
       -0.11571878 -0.010152262 -0.15021893 0.008663906
000310 2e b4 69 3b 5b 9e 1f 3d 6f 1a 2a bd 6b 62 60 bd
       0.0035660374 0.03896938 -0.041529115 -0.05478136
000320 9d a7 59 3d e0 05 87 3d 7c 9c 3c bc f9 df 58 3c
       0.053138364 0.065929174 -0.011511918 0.013236993
000330 3a 90 c0 bd f1 65 ba 3c 27 b5 ab 3d 1a d0 88 3c
       -0.09402509 0.022753688 0.083841614 0.016700793
000340 21 63 3d 3d dc b7 e9 bc 3c 3e 14 bc 36 c5 76 bd
       0.046237115 -0.028530054 -0.009048041 -0.06024667
000350 f4 6c c8 bc 84 36 8b bd 3a aa 82 bd cb 8d 61 bd
       -0.024466015 -0.067975074 -0.063801244 -0.055066865
000360 bb 80 b2 3d 08 06 96 bd b1 25 e2 3c 59 af 85 3d
       0.0871596 -0.07325369 0.027605863 0.065275855
000370 14 5e c8 3c a1 9e b7 3d 98 cc 85 3d 88 89 42 bd
       0.024458922 0.08965803 0.06533164 -0.04749444
000380 21 f1 d4 3c a4 fc 43 bd d1 a5 c0 3d 66 c4 35 bd
       0.025993885 -0.04784836 0.09406627 -0.044376753
000390 d7 c3 fa bc b7 96 e9 bd e7 b6 d3 3c c5 6d 05 3d
       -0.030610962 -0.114057 0.02584405 0.032575388
0003a0 a5 7b dc 3c ac 98 bc bb 86 32 e6 bc 71 20 b1 bd
       0.026914427 -0.0057555046 -0.028100263 -0.08648766
0003b0 72 77 37 bc 50 49 6d 3d e3 d6 b0 3c 56 48 4b 3c
       -0.011197912 0.057931244 0.021586841 0.012407383
0003c0 4e 1e 77 3d d9 a8 98 3b aa 1d a6 3d c8 ea 91 3d
       0.060331635 0.0046588 0.08111127 0.07124859
0003d0 f4 ba 01 bd 61 7a bf ba 05 4b 3d bc 90 71 09 3e
       -0.031672433 -0.0014608615 -0.011553531 0.13422227
0003e0 33 0d 29 bd d2 f2 ea bd 71 6f ad 3d 38 fe 63 bd
       -0.041272353 -0.114720955 0.084685214 -0.055662364
0003f0 e0 03 18 3b c5 02 5a 3d 2b 56 c7 3d 5b 1c 22 3d
       0.002319567 0.053225297 0.09733232 0.039577823

encoder.bias_ih_l0 f4 [100]
000000 ca da c9 bd 69 af 7e 3d 4c 0d ae bd 2a e9 0f bd
       -0.09856184 0.062179003 -0.0849863 -0.035134472
000010 d6 4b d6 3d 08 5c d0 3c d9 c9 5f 3d 7e a3 c9 3c
       0.10463683 0.025434509 0.054635856 0.024614092
000020 7d cf 03 bc 65 ed 0c bd 25 30 ef 3d 3d 65 b2 3d
       -0.0080450745 -0.034406085 0.11679105 0.08710716
000030 98 3a 2f 3d 41 ab a6 bd d4 63 1a 3d 96 d8 2f 3d
       0.04278049 -0.08138133 0.03769286 0.04293116
000040 5b 38 2c 3d b1 a9 4e bd 61 ec 55 bd 46 03 5e 3d
       0.042045932 -0.0504548 -0.05222738 0.05420234
000050 e9 34 95 3d a4 97 94 3d 5b 2d 3b 3c fd f8 39 bd
       0.072854824 0.07255486 0.011424388 -0.04540347
000060 00 03 bf bd dd 0b 03 be c6 3e 94 bd 85 62 04 be
       -0.09326744 -0.12797494 -0.072385356 -0.12928207
000070 80 4d 25 3b 03 64 ab 3d 50 40 41 bd 61 f1 88 bd
       0.0025223196 0.08368685 -0.047180474 -0.066866644
000080 ba b6 b1 bd 24 ae 14 bc d8 f8 3a bc 43 3e a9 3d
       -0.086774305 -0.0090747215 -0.011411868 0.082638286
000090 f4 5f 70 bd 93 bd 91 3d 7c 12 cd 3d 0d 93 ef 3c
       -0.058685258 0.071162365 0.10013291 0.029244924
0000a0 79 b9 ac 3c 5d 44 45 bd 99 40 dd bc fc 5a 9e 3d
       0.021084534 -0.0481609 -0.027008342 0.07732198
0000b0 19 18 73 3d b6 94 6f bd ef 2f f3 bd 18 a9 5e 3d
       0.059349153 -0.05849143 -0.11874377 0.05436048
0000c0 48 b9 0d 3e 8d 11 47 3d 13 65 81 3d be 31 03 3d
       0.1384021 0.048600722 0.063181065 0.03202986
0000d0 9b 67 84 bd f9 2b eb 3d ab e6 b1 bd df a1 1a bd
       -0.06465074 0.114829965 -0.086865745 -0.03775203
0000e0 99 e8 cb 3a 77 61 09 3a 44 56 0c bd d8 0e 05 3d
       0.001555699 0.00052406586 -0.034261957 0.03248486
0000f0 89 ff cd 3c f9 d5 f9 bd 4f 52 db 3d a6 ea 8b 3d
       0.025146263 -0.12199015 0.107090585 0.06831865
000100 a3 99 04 bd 5a 8a 06 3d 84 8e 32 bd e8 04 06 bc
       -0.032373082 0.032846786 -0.043592945 -0.008179881
000110 07 62 28 bd ff d8 75 3d 0c 82 89 bd e2 a2 b4 bd
       -0.04110911 0.060021397 -0.067142576 -0.0882013
000120 d1 05 e5 bd 30 49 a4 3c ef 82 29 bd a5 01 0b bd
       -0.1118275 0.02005443 -0.041384634 -0.033937115
000130 43 92 64 bd b9 5b ce bd 61 96 c6 3d 26 16 76 3d
       -0.05580355 -0.100760885 0.09696651 0.060079716
000140 58 33 a1 3d de 6a fd bc ae 2f 4f bd 81 bc bf bd
       0.07871121 -0.030934747 -0.05058258 -0.09362126
000150 e2 2f 90 3c 3b 43 11 bd c2 75 75 3d 68 e6 8b bb
       0.017600957 -0.035464507 0.059926756 -0.00426941
000160 98 e5 9c 3d 5a 56 26 3b 8e 38 9f 3d b8 50 be bb
       0.07660979 0.002538106 0.07774459 -0.0058079623
000170 72 79 06 bd 76 16 8b bd 3e d0 94 3d a3 ee f9 3a
       -0.032830663 -0.067913935 0.072662815 0.0019068312
000180 9b b7 86 3d 1a f4 8e bd 36 09 e0 3d 2e 5c b2 3d
       0.06577989 -0.069801524 0.10939257 0.08708988

encoder.bias_hh_l0 f4 [100]
000000 79 d9 4c bd bc c2 b1 bd d4 b9 b1 bd 0a 8e 31 bc
       -0.050012086 -0.08679721 -0.08678022 -0.010837087
000010 65 43 a0 bd d1 2d 0b bd a0 e9 20 bd cb a1 28 bd
       -0.078253545 -0.03397924 -0.039285302 -0.041169923
000020 3e a7 bb 3c 30 ac 82 bd b9 e6 15 3c 6a 5d b0 bc
       0.022906896 -0.063804984 0.009149247 -0.021528918
000030 18 06 cc 3d 95 b9 60 3d 2d 0b 93 bc 83 19 b7 bd
       0.099621 0.054864485 -0.017949665 -0.08940413
000040 6e 9e c8 3d eb 28 ad bd a0 ce 8e 3c bb ac b8 bd
       0.09795843 -0.0845507 0.01743251 -0.09017321
000050 de c7 06 3e b8 3b a1 3d e2 27 73 3c 4f 8d 30 bd
       0.13162181 0.078727186 0.014841052 -0.043103512
000060 33 3d 40 bd b1 5e 00 be a3 fe e5 3d 69 63 fd 3c
       -0.046933364 -0.12536122 0.11230209 0.030931192
000070 8b b7 4a bd db dc 06 3b eb 7b b0 bd 79 e7 42 3d
       -0.049491446 0.0020578417 -0.086173855 0.04758403
000080 81 34 4a 3c 7f 94 97 3d 83 5f 5e 3d 89 1d 3d 3d
       0.0123416195 0.0740137 0.054290306 0.046170745
000090 3a 30 a3 bb d1 81 94 bd 4b 39 f9 3d 41 2f 8c 3d
       -0.0049801143 -0.07251323 0.12169131 0.068449505
0000a0 74 ae 22 3c c0 c2 8f 3c 46 0e 75 3d 7f e7 1d 3d
       0.009929288 0.017548919 0.059828065 0.03855085
0000b0 5c d6 22 3d 4a 03 23 3c e0 da c6 bd 51 d6 8a 3d
       0.03975521 0.009949515 -0.09709716 0.06779159
0000c0 70 f2 e3 3c a3 df 90 bd 95 95 20 bd c2 56 0d bc
       0.027825564 -0.07073905 -0.039205153 -0.008626642
0000d0 ec 48 21 bd 05 cc 4d 3d 31 0e 2b 3d f6 a3 86 bc
       -0.039376184 0.050243396 0.04176158 -0.016435605
0000e0 8f 21 67 3d 80 46 c7 3c 08 8c 8d 3c 48 c9 68 bd
       0.05642849 0.02432561 0.017278686 -0.05683258
0000f0 52 9a 9f bc a3 5c 70 bd 1f 62 b5 bc ba 79 32 3d
       -0.019482765 -0.058682095 -0.022141514 0.04357312
000100 30 74 d8 3d e8 70 5b 3b 87 38 4e 3d 0a 64 d4 ba
       0.10569036 0.0033484045 0.050346877 -0.001620413
000110 a0 d1 00 bd b0 23 7e bd 3a 6b 8c 3d 90 0b 2d bd
       -0.031449914 -0.062045753 0.06856389 -0.042247355
000120 ae 3d 81 3d 14 4b 56 3d 01 97 80 bd 87 5f 94 bd
       0.063105926 0.052317694 -0.06278802 -0.07244783
000130 1d de f8 bc 5d 19 e4 bc af 64 e5 3c dc 85 40 3d
       -0.03037935 -0.027844125 0.028002111 0.04700266
000140 4f ef b5 bd 4e eb 04 bd 4a 2d ba 3d 7b 7b c1 bd
       -0.08883535 -0.032450967 0.090906695 -0.0944738
000150 16 f9 d0 bd 06 b4 08 bd 5e 0f 07 bd 4d 28 a5 3d
       -0.10203759 -0.03337481 -0.03297364 0.080643274
000160 89 33 fe 3d 47 06 82 3d ca 9a a7 3d 00 e2 3a bc
       0.12412173 0.063488536 0.081838205 -0.011406422
000170 91 f9 b2 3d a6 8c 85 3d c9 48 4e 3d d9 c5 13 bd
       0.08739007 0.06520967 0.050362382 -0.036077354
000180 12 2a f7 3c dc 8d b3 bd 5a 7d 79 3b 05 c7 a1 3d
       0.030171428 -0.08767292 0.00380691 0.07899288

fc_hidden.weight f4 [100, 100]
000000 63 b4 3e bd 79 73 82 bd b1 bd ab bd d6 8b 65 bd
       -0.04655875 -0.06369681 -0.0838579 -0.05604156
000010 06 7e 55 bd b6 2b 8d bd 86 21 94 bd f5 9b 99 3d
       -0.05212214 -0.06893103 -0.072329566 0.075004496
000020 d8 1c 1d be 97 99 7a bd 52 0e 4b 3c 91 95 9c 3d
       -0.15343034 -0.06118163 0.012393551 0.07645715
000030 ce b7 90 3d 87 ca 69 bd a5 a4 2b 3e 2c cb 54 3b
       0.07066308 -0.05707791 0.16762026 0.0032469733
000040 2a 95 0c 3e 5c f7 23 3d 37 ea 48 bd 51 60 6b bc
       0.13728777 0.040030822 -0.04905149 -0.014366225
000050 73 84 ee bd 8c 0d 97 3d 12 15 aa bc f1 d6 84 3d
       -0.116463564 0.07375631 -0.020762 0.06486309
000060 9a 54 33 be ed ee 65 bc 10 43 3c 3e 8b 78 7b bd
       -0.17512742 -0.014034015 0.18384957 -0.061394256
000070 1a 33 46 3e 60 22 97 38 6e 68 53 3d d3 62 09 37
       0.19355431 7.206644e-05 0.051613264 8.188846e-06
000080 51 28 81 3c 68 16 03 be 8b db 97 3d 4e 78 e7 bd
       0.015766295 -0.12801516 0.074149214 -0.11302243
000090 e6 8d 1f 3e c5 ce 18 3e 97 25 ae bd 5f be 41 bd
       0.15581474 0.14922626 -0.085032634 -0.047300693
0000a0 2b 01 bf bd 9f 65 7c bb c1 55 e3 3d 3c 81 c2 bc
       -0.09326395 -0.003851272 0.11100341 -0.023743264
0000b0 08 8a a5 bd b8 d4 36 be f6 d2 78 3d 35 8d f3 3c
       -0.08082968 -0.17854583 0.060748063 0.029730419
0000c0 7a 28 2c 3e b1 aa 60 bd 36 11 2f 3d cb 84 fc 3c
       0.16812316 -0.054850284 0.042741023 0.03082504
0000d0 11 b6 3b be 65 48 1e bd 7d cc 16 3e 79 27 5b 3d
       -0.18331172 -0.03864326 0.14726444 0.05350444
0000e0 d0 6f b2 bd bb bd ce bd 8e e5 2f 3e 70 1a 07 be
       -0.08712733 -0.10094782 0.17177412 -0.13193679
0000f0 67 3f 37 3d 56 8a cb bc 35 1c 10 3e 70 3b de bb
       0.0447382 -0.024846237 0.1407326 -0.006781988
000100 db 3a 10 be 2e 39 26 be 14 16 7b bd 84 bc eb 3c
       -0.14084952 -0.1623275 -0.061300352 0.028776415
000110 72 37 e3 bd 07 2d 1e be b6 e6 a4 3d d7 4f a8 3d
       -0.1109456 -0.15446864 0.08051817 0.08218353
000120 2c ad 6a b9 52 1f 08 be 69 42 ec bd 6e df 0e be
       -0.0002238049 -0.13293198 -0.11536104 -0.13952419
000130 42 69 39 3e 23 17 2f 3e 8d 07 ed 3d 49 af 3d 3e
       0.18106559 0.1709867 0.11573706 0.18523897
000140 a5 51 67 3d 5e 07 d2 3d f1 8a 20 be 13 c6 bd 3d
       0.056474347 0.102553114 -0.15678002 0.09266295
000150 66 55 03 3e 38 09 1e be 49 85 9a 3d dc da fc bd
       0.12825546 -0.15433204 0.075449534 -0.123464316
000160 cd 86 85 bb 42 21 a1 3d ff a5 65 ba 3f 07 7a bd
       -0.0040749074 0.078676715 -0.0008760392 -0.061042067
000170 b2 38 b7 3d a4 94 c8 3d 18 05 5f 3d 05 fd bf 3d
       0.08946361 0.09793976 0.054448217 0.093744315
000180 6f d3 9d 3d 82 3e 2a 3e e4 cb 1e be e6 b8 db 3d
       0.077063434 0.16625407 -0.15507466 0.10728626
000190 82 dc 02 be 2e a6 ec bd de a4 87 bd 13 33 0b be
       -0.1277943 -0.11555134 -0.06623243 -0.13593702
0001a0 a6 9e 9c bc c0 51 05 3c 2b ac 44 bc d7 d8 80 3c
       -0.019118618 0.0081371665 -0.012003939 0.015728397
0001b0 7b f0 3c bd 1d 6a e0 bd 2d cc b6 3d 0e 44 f7 3d
       -0.046127778 -0.109577395 0.08925662 0.12073527
0001c0 ed cb ca 3d 99 a8 18 3c 9e cf f4 3c 35 bd ec 3d
       0.09902177 0.009317541 0.029884156 0.11559526
0001d0 68 05 9f 3d 22 99 af 3d 0f 74 d5 bd 1a 99 00 be
       0.07764703 0.0857413 -0.10422527 -0.12558404
0001e0 eb 9d ec bd 37 55 20 3e 66 03 2a be 92 e2 39 3e
       -0.11553558 0.15657507 -0.16602859 0.18152836
0001f0 1b b6 de 3b 95 92 93 bd 53 3a ac 3d e5 88 25 bd
       0.006796611 -0.07205693 0.08409562 -0.040413756
000200 88 f6 f6 3d d5 75 c7 bd 8b b7 8b 3c 76 ae 0f 3e
       0.12058741 -0.097392716 0.017055294 0.14031395
000210 f8 44 c1 b9 70 12 0a be 47 e0 af 3d 2e 42 00 be
       -0.00036863214 -0.13483596 0.085876994 -0.12525246
000220 cf 39 fb 3d 80 bb f6 3d b1 06 2c be 69 08 15 be
       0.122668855 0.120474815 -0.16799428 -0.1455399
000230 90 66 c5 bc 99 83 d4 bd 7b 5b 0d 3c 4c ff 2d be
       -0.024096757 -0.10376663 0.008627768 -0.1699192
000240 be a6 af bd da 7b ca bd 86 5b a2 3d ec 2e 05 3e
       -0.085767254 -0.09886904 0.07927613 0.1300618
000250 5f f3 19 3e 3a b3 1e be 84 07 1f 3e 51 ed 74 3d
       0.15034245 -0.15498057 0.1553021 0.059796635
000260 17 dc d0 bc b1 01 ee bc 88 f2 f9 3d c7 6a 7d 3d
       -0.025495572 -0.02905354 0.12204462 0.06186941
000270 dc 6a c7 3b 5d bc 41 be fb 73 d7 3d d1 26 3f be
       0.0060857367 -0.18919511 0.105201684 -0.18667151
000280 1b 8a 1c 3e dd 8a e5 bd d8 3d ff 3d 6b 41 c3 bc
       0.15287058 -0.11208127 0.12462968 -0.023834905
000290 f4 df 29 bd 76 15 d1 bd 8c bf ac bd ac c7 85 3d
       -0.041473344 -0.102091715 -0.08434972 0.06532225
0002a0 64 50 36 3b cc 4c 4e bc d7 62 05 3e c1 98 5d 3d
       0.0027818913 -0.012591552 0.13025986 0.054100756
0002b0 63 3b 27 be 1e bf 1c be d1 70 04 be cd ea d4 bc
       -0.16331248 -0.1530728 -0.12933661 -0.025990868
0002c0 7e 77 3b 3e 5a 60 75 3d 79 8e 63 3c 93 a9 e2 3c
       0.18307301 0.05990634 0.013888949 0.02766875
0002d0 5a 5b 32 3e fd d8 c7 3d d1 21 06 be 4e 75 79 3d
       0.1741766 0.09758184 -0.13098837 0.060902886
0002e0 e2 82 5d 3c 4d 33 f3 bc 92 6c 2a 3e ec 15 b0 bc
       0.013519974 -0.029687548 0.16642979 -0.021494828
0002f0 31 88 24 bc 33 6e b9 3d 8c 0d 33 be cc 3f b3 3a
       -0.010042236 0.09054222 -0.17485636 0.0013675629
000300 9d 8e a4 3d e1 a0 58 3d 4e 25 d0 3d d8 1d d2 3d
       0.08035014 0.0528878 0.10163365 0.102595985
000310 6e 7b b9 3d 3d c1 27 3e 06 eb f5 bd b3 bb 84 3d
       0.090567455 0.16382308 -0.12007718 0.06481113
000320 c9 6f e9 3d 97 ea 37 3e 61 60 56 3d c5 79 1e 3e
       0.113982745 0.17960583 0.052338008 0.15476139
000330 7c 44 88 3d 23 31 b3 3d 17 1c 2b 3e b9 75 87 bc
       0.06653687 0.087496065 0.16709934 -0.016535627
000340 30 78 1d 3e 49 21 17 3e 60 e2 25 bd a1 cd bc bd
       0.15377879 0.14758791 -0.04049909 -0.09218908
000350 af 08 81 bd 1a 63 c8 3d b7 d4 63 bd 85 f3 d2 bd
       -0.063004844 0.09784527 -0.055622783 -0.10300354
000360 ee 3e 0e be 9f fb ef bd d0 3f 3c 3d c6 c6 36 3e
       -0.13891193 -0.11717915 0.045959294 0.17849264
000370 cc 27 0b 3e 62 21 bc bd 22 7f 3d 3e 99 f7 cb bb
       0.135894 -0.09186055 0.18505529 -0.0062245843
000380 1a 31 cd bb a9 03 02 3e b0 9d 33 3c 85 14 5a 3d
       -0.006261957 0.12696709 0.010962889 0.053242225
000390 02 45 91 bd 8d 26 bb 3c 20 fe 0c be 2c 54 37 bd
       -0.0709324 0.02284553 -0.13768816 -0.044758007
0003a0 bf 49 ea bd 8d 3b 16 3e b3 33 ad bd 3f 32 b5 3d
       -0.11439847 0.14671154 -0.084571265 0.08847474
0003b0 dd bf 83 bd 82 1d b4 bd f9 13 31 3c b8 9d 09 3e
       -0.064330794 -0.08794691 0.0108079845 0.13439071
0003c0 aa 22 9b 3d bc 7a 1c 3e 5d 7c 18 be 09 23 3d 3e
       0.07574971 0.15281194 -0.14891191 0.18470396
0003d0 9f 2c 3b 3e fb 29 e2 3d 36 e8 aa bd 01 5a da bd
       0.1827874 0.110431634 -0.08345072 -0.10661698
0003e0 e6 05 3e be bc 02 0b 3e dd e7 08 bd 5d 07 3b be
       -0.18556938 0.13575262 -0.033424247 -0.18264528
0003f0 97 6d 0a 3e 68 13 db 3d a8 aa 5d bd 50 94 2b be
       0.13518368 0.10697061 -0.05411783 -0.16755795

fc_hidden.bias f4 [100]
000000 fa 59 24 be 2f f8 90 bd 98 35 1c 3b 16 77 cd 3c
       -0.16049948 -0.07078587 0.0023835655 0.025081199
000010 fe e8 3b 3c ae 20 0c 3e 5e 94 22 bc 48 fd bc bc
       0.011469124 0.13684341 -0.009923069 -0.023069993
000020 06 49 14 be df e4 2b be 2e 3e 21 bc 77 a2 2e be
       -0.14480981 -0.16786526 -0.009841485 -0.17054163
000030 6f 3f 3c 3e dd d3 8f 3d a5 c7 12 bd 41 de 24 be
       0.18383573 0.070228316 -0.035834927 -0.16100408
000040 02 2f f7 3d 74 88 df 3d 07 47 ab bd 4f 42 f2 bd
       0.12069513 0.10914698 -0.08363157 -0.118290536
000050 c8 79 3d be e4 99 24 be ae d8 3c be 4f 49 0a 3d
       -0.18503487 -0.1607433 -0.18442032 0.03376132
000060 aa 52 df 3d 86 48 91 ba 3b 72 ea bc 34 7a 2d 3e
       0.10904439 -0.0011084236 -0.028618922 0.16941148
000070 e5 c0 7a bc f1 47 bd bc 20 e5 0f be 50 b6 e0 3b
       -0.015304779 -0.023105593 -0.14052248 0.006857671
000080 11 ab 24 3e 12 c4 c7 3d b0 d2 05 be 31 fb ee 3d
       0.16080882 0.09754194 -0.13068652 0.11669005
000090 18 72 42 be 2c cb 0b bb fb 41 bd 3d c6 6e 8c 3d
       -0.18988836 -0.0021330817 0.092411004 0.06857066
0000a0 63 a7 d3 bc 1b a7 dd bd bb b1 fc 3d bf 31 39 bd
       -0.025836652 -0.108228885 0.12338587 -0.045213457
0000b0 d9 8a 3b be 5b 00 25 3e 55 a8 12 be bc f9 ad bd
       -0.18314685 0.16113417 -0.14322026 -0.08494899
0000c0 cf 28 46 bb 45 41 8d bc 25 42 c3 3c 15 f9 38 be
       -0.0030236726 -0.017243037 0.023835251 -0.18063767
0000d0 e1 84 dc bc 0b 8f 13 3e 6a e8 36 be f0 b8 27 3e
       -0.02691883 0.14410035 -0.17862096 0.16379142
0000e0 1c bb 2d be f5 7e 32 bd 4e 2a 6f 3d 58 26 8c b9
       -0.16965908 -0.043578107 0.058389954 -0.0002673145
0000f0 e6 d5 3e 3e 90 7f 8d bc 2a 1f 00 be bf bd 74 3d
       0.18636283 -0.01727274 -0.12511888 0.05975127
000100 be 1d 18 be 53 db 1e 3e d6 87 37 bd 5f cd 0b 3e
       -0.14855096 0.15513353 -0.044807278 0.13652562
000110 87 a5 28 3e 63 e2 32 be 09 67 35 3d 93 dc fe bd
       0.16469394 -0.17469172 0.044287715 -0.12444415
000120 8b c0 14 be c4 51 ef 3d 76 32 25 be fa eb 0c be
       -0.14526574 0.116855174 -0.1613253 -0.13761893
000130 59 46 44 bd ef 4c 8e 3d 64 a4 0e 3c f3 aa 22 be
       -0.04791865 0.06948268 0.008706186 -0.15885524
000140 98 74 88 3c 34 f5 4b 3d ee b0 10 be 90 60 ee 3d
       0.016657159 0.04979439 -0.14129993 0.116395116
000150 e9 fd 0b bc 43 78 da 3d 21 e1 ec 3d 06 54 12 3e
       -0.008544424 0.10667469 0.115663774 0.14289865
000160 c3 f3 27 bd e2 fb d4 3d 84 b3 03 3b 62 88 75 3d
       -0.041003954 0.10399605 0.0020096013 0.059944518
000170 77 48 39 bd 04 1a 23 bd 0d 71 2b be ea 56 ab 3b
       -0.045235123 -0.039819732 -0.16742344 0.005228867
000180 02 9f 27 3e 08 5a 8e 3d 15 3c 18 3d e3 c5 10 3e
       0.1636925 0.06950766 0.037166674 0.14137988

fc_out.weight f4 [5, 100]
000000 14 2c f8 bd 00 eb 3a be 22 8f 42 3e 76 2e 09 3e
       -0.12117782 -0.18253708 0.18999913 0.1339663
000010 e1 ab 35 3e fe 70 7f 3d 2d 25 0f be 8c 66 3d be
       0.17741348 0.062363617 -0.13979025 -0.1849615
000020 3d 2d 18 be 2e 0c dc bd 28 98 dd bd 37 de 36 be
       -0.14861007 -0.107445106 -0.10820037 -0.17858206
000030 1a ee e9 3b b9 b3 48 3e 06 09 36 be 6a bf c6 bd
       0.0071389796 0.19599809 -0.1777688 -0.09704478
000040 28 c9 01 3e df 2a 85 3d 76 3e 01 be 11 fb 21 bd
       0.12674391 0.06502318 -0.12621483 -0.039546076
000050 fe 68 c3 bd fb e4 02 be 40 f6 51 bc a7 3b d9 3c
       -0.0954151 -0.12782662 -0.012815058 0.026517702
000060 13 63 46 3d 70 86 cb bd e5 4c d6 bd 7a 69 3c 3e
       0.04843433 -0.09937751 -0.10463885 0.18399611
000070 ec 50 c7 bd 90 d2 84 bd 2c 95 90 bd 5e 41 1a be
       -0.097322315 -0.06485474 -0.07059702 -0.15063998
000080 6a 23 06 3e be 9d 31 3e 3a 44 47 be a2 b3 de 3c
       0.13099447 0.1734533 -0.1945962 0.027185265
000090 e5 f6 33 be 6f dc b0 bc 78 f5 33 3e f7 4d fb 3d
       -0.17574652 -0.021589486 0.17574108 0.1227073
0000a0 1e 8e 01 be 03 74 b9 bd 3e 48 1c 3e ce 18 71 bc
       -0.1265187 -0.090553306 0.15261933 -0.014715387
0000b0 ce 66 b8 bd b2 dd 1b 3e 61 2a b3 bd 06 56 0d be
       -0.090039834 0.15221289 -0.087483175 -0.13802347
0000c0 9a 80 45 3e b7 ef 17 be 4d fc 2f 3e ff 28 1f be
       0.19287339 -0.14837538 0.17186089 -0.15542983
0000d0 14 a9 45 be 76 50 20 3e df 78 09 bd 1b f9 b0 3d
       -0.1930278 0.15655693 -0.033562537 0.08641263
0000e0 12 03 8b bc 96 2e b2 bd 8d c1 8c 3d f0 a2 04 3e
       -0.016969237 -0.08700292 0.068728544 0.1295278
0000f0 bc bd f3 3d 90 5b d1 bd 59 aa 1e bd 33 a6 07 3d
       0.11901423 -0.10222542 -0.038736675 0.033117484
000100 82 86 29 bb f1 ae b2 3d 9c 93 39 be f1 1c a7 3d
       -0.0025867526 0.08724774 -0.18122715 0.08159817
000110 34 44 ae 3c bd ce 27 bd 34 40 06 3e a3 4f 3b be
       0.021272756 -0.040968645 0.13110429 -0.18292098
000120 25 5f 4c bc 24 0a 00 3e 9e 23 e3 bd 16 a9 26 be
       -0.012473856 0.12503868 -0.11090778 -0.16275439
000130 07 a2 83 bc 83 cb 21 3e 8d d1 06 3e 19 52 eb bd
       -0.016068472 0.1580029 0.13165875 -0.11490268
000140 48 45 f1 3d 08 66 25 3e 36 9c 0e be 4a 76 3e 3e
       0.117807925 0.16152203 -0.13926777 0.18599811
000150 dc da 18 3e de 96 49 3d f1 08 43 3e 5f e7 e0 3d
       0.14927238 0.049216144 0.1904638 0.109816305
000160 0c 7f 42 be d3 c3 48 3d 6b a2 45 be c3 ae d9 3d
       -0.18993777 0.049014878 -0.19300239 0.10629036
000170 7d d6 38 be 1a 2d 30 be 09 16 83 bd 19 a0 44 be
       -0.18050571 -0.17204705 -0.06400687 -0.19201697
000180 29 e7 af 3d 80 f9 c2 3d e0 8e 30 3e 53 12 a6 3d
       0.08589012 0.095202446 0.17242002 0.08108964
000190 5d 9f 0a 3b 6f 22 d3 bd 00 af 38 3e f8 cf cc 3d
       0.0021152117 -0.10309302 0.18035507 0.100006044
0001a0 4b 80 0a 3e 4a 61 2d 3b e9 b9 18 be 21 63 45 be
       0.13525502 0.0026455694 -0.14914669 -0.19276096
0001b0 24 f3 08 be 30 46 15 be 4c 89 c1 bd b7 90 13 be
       -0.13374001 -0.14577556 -0.094500154 -0.14410673
0001c0 25 2f 31 3e 56 95 83 3d 62 fd 16 be 45 a3 07 be
       0.1730314 0.06424968 -0.14745095 -0.13245876
0001d0 c2 79 ac 3d 70 0a ed 3d 29 e8 06 be b4 96 fe bd
       0.08421661 0.115742564 -0.131745 -0.12431088
0001e0 c2 13 2d be 27 d8 1f bc 7b 6d 16 be e5 77 29 3e
       -0.16902068 -0.009756125 -0.14690201 0.16549642
0001f0 df c0 30 3d e8 d0 3d be bf 17 01 be c4 ec 32 3e
       0.043152686 -0.18536723 -0.12606715 0.17473131
000200 59 f1 dd bd 6a 12 58 bd d3 30 d1 bd 92 c2 ab bd
       -0.10837049 -0.052751936 -0.102143906 -0.08386721
000210 63 6f 8b 3d 25 13 b2 3d e1 b5 3f be 8e ef 48 3c
       0.06808355 0.08695058 -0.18721725 0.012264146
000220 e2 28 2d bd c7 25 20 be 6d 47 40 3e 50 6d ce 3c
       -0.042275317 -0.15639411 0.18777247 0.025198609
000230 b9 b6 e5 bd e6 23 ef bd 61 f1 6f bb c7 3f f6 bd
       -0.11216492 -0.11676769 -0.003661238 -0.12023883
000240 17 e5 14 be 82 3e e2 3a da 61 4d bd ea 6b e1 bd
       -0.14540516 0.001726106 -0.050142147 -0.11006911
000250 34 c6 fd 3d 5a 37 33 be 24 04 16 3e c8 43 d8 bc
       0.1239132 -0.17501584 0.14650017 -0.026399508
000260 2d e0 3e be 7d e0 85 3d 6c 03 40 be fe 2f 1c 3e
       -0.18640204 0.06536958 -0.18751305 0.15252683
000270 5a 27 16 be ca a3 20 be cb 74 1d 3e 23 68 28 3e
       -0.14663449 -0.1568748 0.15376584 0.16445975
000280 e9 73 02 3e c8 03 83 bd 63 c4 47 be 3f 37 3d 3e
       0.12739529 -0.063972056 -0.1950851 0.18478106
000290 d4 58 ec bd 7d 68 03 3e fa 30 34 be 87 4a 20 3c
       -0.1154038 0.12832828 -0.17596808 0.009783394
0002a0 1d bc 3c 3e e7 d4 c7 bb 35 84 3f 3e 53 f8 93 bd
       0.18431135 -0.006098378 0.18702777 -0.072250985
0002b0 d5 6b 0f be e2 7c 18 3e 94 d4 b1 bb 17 4d 07 be
       -0.14005978 0.14891389 -0.0054269526 -0.13213001
0002c0 0d 9a 4a be 63 77 53 3d b9 ec 18 3e 45 34 0a be
       -0.19785328 0.051627528 0.14934053 -0.13496502
0002d0 9b 2e e9 3d f9 cc 29 3e e9 3c 75 bd a0 bf 0d 3e
       0.113858424 0.16582097 -0.05987254 0.1384263
0002e0 c7 a3 3f 3e 8f 0c 40 3e a1 69 84 3d a3 c3 3f 3e
       0.1871482 0.1875479 0.064654596 0.18726973
0002f0 31 51 cc bd 3f 5f 40 3e c5 5e bd bd 0c 48 3d 3e
       -0.099764235 0.18786334 -0.092465915 0.18484515
000300 cb d8 34 be db 29 c5 bd 81 a2 2c be e7 85 88 bc
       -0.17660825 -0.09627124 -0.16858865 -0.016665412
000310 54 b7 de 3d 50 98 c4 3d 74 b3 53 3c be cd 25 3e
       0.10874811 0.09599364 0.012921203 0.16191766
000320 39 a6 3b be b5 0a 32 be 69 85 b8 3d 85 d1 36 3e
       -0.18325128 -0.17386897 0.09009821 0.17853363
000330 51 86 21 3e ba 52 3b 3e e7 95 af bd bb 29 9b bd
       0.15773894 0.18293276 -0.085735135 -0.07576319
000340 93 d8 4c be 0c 72 62 bd 2d 37 8e bd 5f 82 e1 bd
       -0.20004492 -0.055284545 -0.06944118 -0.110111944
000350 75 9e 0c 3e c2 fe 09 3d af 78 88 bd 1d ac fc bd
       0.13732322 0.03369022 -0.066636436 -0.123375155
000360 1d 34 2e 3d f6 63 43 3e 42 5c de bd 93 a9 37 be
       0.042530168 0.19081101 -0.108574405 -0.17935781
000370 21 92 1b be c6 b6 b3 bd 6a e3 e9 bd 11 92 ea 3d
       -0.15192463 -0.08775096 -0.11420329 0.11453641
000380 2d 69 44 3e eb 53 2a be 8b 4b d3 bc c4 ff 1f 3e
       0.19180746 -0.16633575 -0.025792858 0.1562491
000390 e9 1a 43 be 0e e2 4d bd b1 34 e4 bd fa f8 1e bd
       -0.19053234 -0.05026441 -0.111428626 -0.03881166
0003a0 41 42 0a 3e 17 7d 18 3e e8 6a ae bd 00 98 47 3e
       0.13501836 0.14891468 -0.085164845 0.19491577
0003b0 c6 cb 43 bd b1 fd e0 bd af ef c5 3d ab fe 43 3e
       -0.047801755 -0.10985888 0.09664857 0.19140117
0003c0 6e bc 0e be 0a a5 dc bd dd 16 2e 3e f0 5c a6 bd
       -0.13939068 -0.10773666 0.17000909 -0.08123195
0003d0 b9 4c 39 be 41 d0 05 3d 63 73 b0 bd ca 4f 07 be
       -0.18095674 0.03266931 -0.08615758 -0.13214031
0003e0 f7 a0 a6 3d cb fe 9e bd 62 db a7 3c 67 96 29 be
       0.0813617 -0.07763442 0.020490352 -0.1656128
0003f0 5a 46 18 be 33 fd 92 3d 01 ea c8 bd 4b ab 04 3e
       -0.14870587 0.071772 -0.09810258 0.12955968

fc_out.bias f4 [5]
000000 bb a3 60 3d 68 69 1a 3e 74 c9 ab 3b 06 87 1d 3e
       0.054843646 0.15079272 0.005242521 0.15383539
000010 20 bb e6 3d
       0.1126616
