checkpoints/pre_relu/forecaster_fc_hidden_60/model.Forecaster_fc_hidden(input_features=1,encoder_hidden_features=100,fc_hidden=100,output_length=5)train.train_model(m, train_data, val_data, num_epochs=60,batch_size=10000,learning_rate=1e-4).pt (torch, 86095 bytes, 8 tensors)

encoder.weight_ih_l0 f4 [100, 1]
00000000: a96a 9abd 7c1b 14bc f842 523d 78f0 5fbb
00000010: 7a62 6bbb 0b4a 3d3d e3ee 43bd f92a 9a3b
00000020: c1b9 7ebd e103 0c3d c23b 95bc b6e5 61bd
00000030: 4fba b63a 73f1 ef3b 53f0 473b ce3f 80bd
00000040: 06ae 583c 3bbc 603b 7ffc 843b 6c68 5c3d
00000050: e89f e33c f7f2 553b 39d0 a63c 5030 393b
00000060: 1b23 853b a477 b33a 8dd0 443b 4c1a 48bb
00000070: 4940 a6bc 9bd7 21bb 682d 41bb 0794 c63a
00000080: 74a1 93bd 1a9a 99bd 703c 123b cddb c43b
00000090: bb58 003e fca7 5cbb 9f98 5d3d c5a5 2b3b
000000a0: bb47 0b3d bf90 9dbb 04eb 243b 57c3 26bd
000000b0: a350 55bd dcca cebc 7767 9c3c 17e3 abbd
000000c0: 725d ffba 747b e5ba f2cc ea3b 7d97 d53d
000000d0: 0075 bf3d 0417 19bb 3e39 70bb 71e4 c6bd
000000e0: 4e0e 74bd 71f6 83bd 8b26 673b 94f8 17bd
000000f0: 7f22 cbbd 62ee 95bd cd0a bbbd 0e88 98bd
00000100: e9b8 84bb 20fd 613b ae64 673c 45a6 f8bb
00000110: 1c77 b03c dbe1 033c dd71 e73c 2245 46bd
00000120: b1eb afbb c493 a5bc 6cd8 e2bc 17b4 023b
00000130: 9988 66bb 8d1d 483b 7b08 2bbd 2ca9 373b
00000140: 4330 dc3c a6dc 663b 7564 4f3c fc86 813b
00000150: f1d9 4f3b 8110 703b dd9f 64bd 4c60 9c3a
00000160: bd66 3fbd 3d7d 583b 55fe 33bb 99f5 3a3c
00000170: 8923 c33d f16d 59bd fbef 813d fc9a 71bd
00000180: 0dd5 ff3b 71c1 c0bd 05b1 82ba ece9 51bd
-0.07539875 -0.009039756 0.051333398 -0.003417043 -0.003591685 0.04621319 -0.047835242 0.00470483
-0.062188867 0.034183387 -0.018216971 -0.05515071 0.0013941022 0.007322484 0.0030508235 -0.0626217
0.013225084 0.0034291882 0.00405842 0.053810522 0.02778621 0.003264604 0.02036296 0.0028257556
0.004063023 0.0013692272 0.0030031533 -0.0030533252 -0.020294325 -0.0024695161 -0.0029476527 0.0015150317
-0.07208529 -0.07500096 0.0022313856 0.0060076476 0.12533848 -0.0033669462 0.05410063 0.0026191336
0.034003954 -0.004808515 0.0025164494 -0.040713634 -0.052078854 -0.025243215 0.019092305 -0.08392923
-0.0019482805 -0.0017508105 0.0071655447 0.10429285 0.09348488 -0.0023359666 -0.0036655213 -0.097115405
-0.059583955 -0.06443489 0.0035270776 -0.037102297 -0.09918689 -0.073208585 -0.091329195 -0.07447825
-0.0040503633 0.003448315 0.014123125 -0.0075881802 0.02154117 0.008049454 0.028252536 -0.048405774
-0.005368673 -0.020212062 -0.027691089 0.0019943768 -0.0035176633 0.0030535192 -0.041756134 0.0028024418
0.026878482 0.0035226732 0.012658228 0.003952859 0.0031715597 0.003663093 -0.05581652 0.0011930554
-0.04672884 0.0033033632 -0.0027464826 0.011411094 0.09528262 -0.053083364 0.06344601 -0.058985695
0.00780738 -0.09411896 -0.0009970969 -0.051248476

encoder.weight_hh_l0 f4 [100, 100]
00000000: 63d1 75bc 82f6 babd de45 8bbd 582d 2dbc
00000010: f5fe 94bd bcac bcbd 8e2b 9f3d 2004 cabb
00000020: 59de 673d dd37 9bbd 06a9 b93d 5ad3 c1bb
00000030: 25b6 f1bc a0c6 193d f29b cc3d 319c 25bb
00000040: 87f3 78bd ea5a d93d 9dba da3d 664d 19bd
00000050: 4e93 b43d 9674 e33d d254 6ebd 7ca9 2fbd
00000060: 293f 84bd 7b31 9a3a 8855 24bd 8de3 56bd
00000070: 3656 3bbd fd2a ebbc facf 77bd f4b9 cd3d
00000080: f6a7 06bd bc3e 713c 21d7 323d 1daf 1fbd
00000090: 6c2b c63c a5cc 283d b2f6 8fbb ee1d 48bc
000000a0: 1b81 b6bd 83eb f7bd ff38 8ebc 2837 a83d
000000b0: b83f 1cba df42 a8bd a2d9 113d c672 2a3d
000000c0: d3ac 9dbc 0c59 64bd 8a75 9b3d 9c04 9bbd
000000d0: a7d7 12bc c573 a73d 1ea5 2dbc f5de 1d3d
000000e0: f815 a2bd 673d 81bd d5d2 0dbd 7800 a13d
000000f0: 3f63 e5bc 31e0 d43d 5f32 f83d bc00 673c
00000100: 5211 35bd 721c a53d 45d3 e03d 33ca cabd
00000110: 189d c0bd 45a6 f23d 19e4 a7bd a720 d83d
00000120: 0d02 d1b9 5c98 c2bd 18bf e93d 6720 21bd
00000130: 3a99 d3bd e75c 89bd 0f93 13bd 6773 bf3d
00000140: 7f59 b23c bc4d b03d 2c90 52bd aee6 0cbd
00000150: b64e 6b3d 1379 8c3a 02c0 7d3d db31 a4bd
00000160: 9ce2 b93d 51fd 72bc 465c eebc c4a8 b4bc
00000170: 9cb7 a2bd 1d49 0abd 6b6e c5bb 660d a5bc
00000180: a512 82bd 0c12 f23d bb60 a13d 720d 053e
00000190: 78d9 64bd 15be 6dbd ea0c 073e 238b f1bb
000001a0: 1469 e73d 837c 83bc 1ac5 3e3d 041b cebd
000001b0: 6875 a9bd 5376 3b3d 1ff2 393d f27c 18bc
000001c0: d89c f33d 87dc 993d 4842 a8bb dcfd 8dbc
000001d0: 3726 143e 7cdc 2dbc 4bfb 8e3c 93cb 073e
000001e0: d5c4 ce3d adfa 58bd 9a18 f6bc 437a b2bd
000001f0: d5bf a8bb 1f83 47bd 5728 c3bd 5a55 7dbd
00000200: 3d40 9fbd 082e b5bc 1c4e c83d 854c 98bd
00000210: 0b8b aebd 8e27 b6bc aba4 4cbd bdad 1fbc
00000220: 68c2 f23d d3fc f1ba cab1 4c3d 6e7c 783d
00000230: b614 d03c 5dc1 9d3d c77b 483c 1f11 2bbd
00000240: 0b17 d3bd 4afb a03c 4523 32bd df65 573d
00000250: 5028 5a3b 5c85 ad3c 73f1 45bd 8bea 033e
00000260: 99b9 73bc 8754 113d bfc4 e83d 20a1 b5bd
00000270: 6e92 34be 7ee6 cdbd e4b5 6d3c 2810 c0bd
00000280: 0a08 60bb bc37 05be 16b8 6b3d 58a8 06be
00000290: 4c59 3ebd 348b 9fbc c61b 5b3d 2a96 bb3d
000002a0: 9687 5cbd 8a43 89bd 2ba3 023e f019 07bd
000002b0: 9a95 9cbc 1afc bfba 093e 8bbc e531 70bd
000002c0: 0c09 ec3d 20de b4bd 65dc 0cbe 03a1 803d
000002d0: feb6 f93c fd29 7c3d a763 8cbd eb30 2bbd
000002e0: 732a 843d 15eb 3abc 990a 34bd f83d 29bd
000002f0: c4c2 68bd 6eca 6d3d 43f8 b33c 875e 4cbd
00000300: a10a 043d afbf 84bd 0c05 5c3d 8c99 d7bd
00000310: 3aec 443c 7fc4 553d 1cb8 5a3c 94ca 00be
00000320: 5079 f9bd d119 b4bc 9973 053e 519a 903d
00000330: 8fb0 c3bc dadf 373c a021 453d 7458 52bc
00000340: 8297 56bd b69e c43c 9ba2 60bd ca40 afbd
00000350: 11e5 0b3d a04b 9cbc 3c90 363b cb1f d3bd
00000360: 58c9 ea3d dcd6 c4bc b193 613d 54ab ea3a
00000370: 526b fd3c a25a 1ebd 6d2e b8bd f12e 5e3d
00000380: 8af9 93bd b4e8 6c3c fb6d 603d e573 813c
00000390: 3564 a8b8 30aa 9c3d 889c 43bd 8328 9bbd
000003a0: 4f53 e9bd ca94 83bc b9f3 debd c253 8dbb
000003b0: 0f62 893c 5fc7 7b3b cbb1 35bd 1bd2 cc3d
000003c0: 6254 f1bc 257a 2c3d 929d ccbd 0e5e b4bd
000003d0: 5cc3 cabd 0117 273d f752 263d 14a8 61bc
000003e0: 180a ee3d 0c5f 39bd e15b 0cbd e976 7cbc
000003f0: 54a2 e1bc 077e 963d 7597 bb3b 16c2 9d3c
-0.015003535 -0.09129049 -0.068004355 -0.010569893 -0.07275192 -0.09212634 0.07771979 -0.0061650425
0.05660853 -0.075790145 0.09065442 -0.0059150876 -0.029505799 0.03754294 0.09990682 -0.00252701
-0.06077912 0.106130436 0.10680125 -0.03742733 0.08817159 0.111062214 -0.05818636 -0.042886242
-0.06457359 0.0011764014 -0.04012063 -0.052463103 -0.045736514 -0.028707022 -0.060501076 0.10045233
-0.032875024 0.01472443 0.043662194 -0.03898536 0.024190627 0.04121079 -0.004393422 -0.012214167
-0.08911344 -0.12105467 -0.017361162 0.08213645 -0.00059604226 -0.0821588 0.03560794 0.041613363
-0.019247448 -0.055748984 0.07590778 -0.075692385 -0.008962548 0.08176378 -0.010598449 0.038542707
-0.079143465 -0.0631054 -0.034624893 0.078614175 -0.028001426 0.103943236 0.121189825 0.014099296
-0.04420597 0.08062066 0.109777965 -0.09901848 -0.09404963 0.1184812 -0.08197803 0.10553103
-0.00039865114 -0.095017165 0.11413401 -0.039337542 -0.1033196 -0.06707173 -0.036028918 0.09348183
0.02177119 0.08608577 -0.051407024 -0.03439968 0.05744811 0.0010717235 0.06195069 -0.08017322
0.090764254 -0.014830903 -0.029096734 -0.02205313 -0.07945177 -0.033761133 -0.0060251257 -0.02014799
-0.063512124 0.118198484 0.07879778 0.1299341 -0.055871457 -0.058042604 0.1318852 -0.0073713227
0.11299339 -0.016050583 0.04657469 -0.100637466 -0.082743466 0.04576714 0.04539692 -0.009307133
0.1189515 0.075127654 -0.0051348545 -0.017332964 0.14467703 -0.01061165 0.01745381 0.13261251
0.100961365 -0.052973438 -0.030041028 -0.08714726 -0.0051498213 -0.04870903 -0.095291786 -0.061848976
-0.07775924 -0.022116676 0.09780523 -0.0743647 -0.08522614 -0.022235658 -0.049961727 -0.009746012
0.11853486 -0.0018462188 0.04997424 0.06066554 0.0254005 0.07702897 0.012236542 -0.041764375
-0.103071295 0.019651074 -0.043490667 0.052587386 0.0033288188 0.021181755 -0.048325967 0.1288244
-0.014875793 0.035481002 0.11365651 -0.08868623 -0.17633983 -0.100537285 0.014508698 -0.093780816
-0.003418448 -0.13009542 0.057548605 -0.13150156 -0.04647188 -0.019475557 0.053493284 0.09159501
-0.053840242 -0.06702335 0.12757556 -0.03298372 -0.019114304 -0.0014647276 -0.016997354 -0.058641333
0.11525163 -0.088314295 -0.13755949 0.062807105 0.030482765 0.06156348 -0.06854945 -0.0417947
0.06453409 -0.011408587 -0.04395542 -0.041318864 -0.056826368 0.05805438 0.021968966 -0.049894836
0.0322367 -0.06481873 0.05371575 -0.105273336 0.012019211 0.052189346 0.013349559 -0.12577277
-0.12181342 -0.021984966 0.13032378 0.070606835 -0.0238879 0.011222804 0.04812777 -0.012838472
-0.052390583 0.02400146 -0.054842573 -0.085572794 0.034154 -0.01907903 0.0027856966 -0.103087984
0.114641845 -0.024028234 0.05507249 0.0017903843 0.030934963 -0.038660653 -0.0899323 0.054243986
-0.0722533 0.014459778 0.054792386 0.015802333 -8.029529e-05 0.07649648 -0.0477567 -0.07576086
-0.11392843 -0.01606216 -0.1088633 -0.004312963 0.01677039 0.0038418395 -0.04435901 0.10001012
-0.029459182 0.042108674 -0.09990992 -0.08807002 -0.09900543 0.040793423 0.040606465 -0.013772983
0.11623019 -0.04525666 -0.03426731 -0.01540921 -0.027543224 0.073482566 0.005724842 0.019257586

encoder.bias_ih_l0 f4 [100]
00000000: aa8c af3c f136 3d3d 2129 90bc 368e 663d
00000010: 797d e83c c16d 8bbc 12e6 74bd 7940 7cbd
00000020: 34a2 883a b8b0 343d 3d69 45bd aa06 3cbc
00000030: 7399 c93d a687 0bbd b0e0 89bd 2ed7 b3bd
00000040: be74 473d 3b34 e6bd fddc e0bd 6657 4c3d
00000050: 61f4 5e3d 106f 303c af80 95bb d52e 463a
00000060: a0c4 b7bd c037 3bbd e7a6 4a3d 35f4 f83d
00000070: e32a e43d 4082 05bb 74c9 bc39 5e0c b53d
00000080: a25c 343d e0f5 a5bd c42b dbbd 8461 5d3c
00000090: ec5f dcbc 79a0 a03d 0428 993c cc0a b3bd
000000a0: 8aed f7bc 4e20 d03c 7def 6f3d 17fa ed3b
000000b0: 1c7f a2bd 43b8 fe3d 4119 45bd 9725 c7bd
000000c0: 2c5f 483d f954 933d fc29 9ebd 6008 493c
000000d0: 9e30 6bbd ded8 68bc 5081 90ba e097 9a3d
000000e0: 565b 8cbd 7c6d 92bd 1374 2cbc b369 923c
000000f0: 2b8c 5ebd 2f52 bebd 39a5 92bd 177b f0bd
00000100: 90a0 2d3c 4624 ddbd 435d a0bd 728b 56bd
00000110: f7fa 76bb 23d4 f2bd 5df5 473d 93ad 0dbe
00000120: ffdb ca3c 85cc 41bd ed3a c0bc af88 d0bd
00000130: e56c fe3d e3d9 443d 446e bebc 6a60 4ebc
00000140: 6663 ea3d 966f 3a3b e605 4c3d 0afd b9bb
00000150: 5016 00ba edb8 af3c 104f 09bd ae98 0b3e
00000160: 07d3 24bc dae5 f8bd e9bc a7bc 65ce 02be
00000170: 8501 653c ac53 ccbc 785f 143e c7ec bebd
00000180: b2e3 503d 6744 b33c 36c1 fdbc 27d0 2dbb
0.021429379 0.046194974 -0.017597737 0.056287967 0.028380143 -0.017020108 -0.059789725 -0.061584923
0.0010424317 0.044113845 -0.048196066 -0.011476198 0.09843721 -0.03406491 -0.06732309 -0.08781277
0.04869532 -0.11240431 -0.1097965 0.049888037 0.054432277 0.010768667 -0.0045624594 0.0007560079
-0.0897305 -0.045707464 0.049475577 0.12155954 0.111409925 -0.0020371825 0.0003600825 0.088402495
0.044033654 -0.081035376 -0.10701707 0.013512019 -0.026901208 0.07843108 0.018695839 -0.08742294
-0.030264635 0.02540603 0.058578003 0.007262479 -0.079344004 0.12437489 -0.048119787 -0.097239666
0.048918888 0.071939416 -0.07722852 0.012270063 -0.05741941 -0.014211861 -0.0011024866 0.07548499
-0.068533584 -0.07149789 -0.010525721 0.017872667 -0.054332893 -0.09293019 -0.0716042 -0.117422275
0.010597363 -0.10797934 -0.07830288 -0.05237908 -0.0037686208 -0.11856868 0.04881798 -0.13835745
0.024763105 -0.047314186 -0.023465598 -0.1018232 0.12423114 0.048059355 -0.023245938 -0.012596229
0.1144474 0.0028447858 0.049810313 -0.0056759166 -0.00048861373 0.021450484 -0.033522666 0.13632461
-0.010060078 -0.12153216 -0.020475822 -0.12774046 0.013977413 -0.024942242 0.14489543 -0.093225054
0.050998397 0.021883203 -0.03097592 -0.0026521774

encoder.bias_hh_l0 f4 [100]
00000000: 6401 193d 7557 41bc 2361 06bd 2bfc 263d
00000010: 168e 403d 374c c73b 0d3f d4bc 420a f2bc
00000020: 60e7 c1bd 404c d13d a8b0 ac3c 898c 0bbc
00000030: 6e21 abbd e6e6 ddbc ea6e acbd 37cc 0cbe
00000040: 2af1 0e3d e557 ee3b 893a 36bd db87 27bd
00000050: 87c8 fbbc 6125 23be 8711 fd3c b8be 9abd
00000060: 9106 833d 7715 dd3b 3ba6 eb3c 1116 3c3d
00000070: 66e1 683d 2678 973c ac96 003e 8942 7d3d
00000080: 5a88 2b3c df5e 2e3d 4a19 683d 902f d5bd
00000090: 7037 87bc 534c 3e3d ded9 af3d 7a3d d2bd
000000a0: 20fe b03d adc0 3d3d f856 893c f55b 02be
000000b0: 0353 1cbc 1f66 bb3c 90a9 3e3d 8b56 853d
000000c0: e85c e9bc 2ee3 efbd d97a a3bd 9c67 8bbd
000000d0: 3f93 82bd 84da 18bd 6f3d 313e 5af8 d6bd
000000e0: 908b 333d 110a ea3b a097 bcbc 01fc 2abc
000000f0: 94e1 07bd 2205 4dbd 89bb a83d d1e4 08be
00000100: 464b 56bd 3e5f dbbd fcd8 9fbd 117c ec3c
00000110: 1776 d43d 5e25 423d c618 943d 7d59 2dbd
00000120: 2528 ae3d 5562 aa3d cd4e aebd 6ff0 bfbb
00000130: 681c ed3d 1ea6 91bd 25e9 353c bb05 013d
00000140: f08a 853d f404 a43c 806f bfbd ee48 6e3c
00000150: 30db c13c f276 20bd 7420 903c 9c71 803c
00000160: b649 32bd c95c d5bd 54e3 733d 5bcc dbbd
00000170: 30f3 e2bb 55d4 e2bd 9bfe 183d e820 1f3d
00000180: 3d91 cebd 7142 633c a34f 34bd 86f4 d33c
0.03735484 -0.011800637 -0.03280748 0.04076783 0.047010504 0.0060820836 -0.025908971 -0.029545907
-0.094679594 0.10219622 0.02108033 -0.008517393 -0.083559856 -0.02708764 -0.08419593 -0.13749777
0.03489796 0.0072736614 -0.044489417 -0.040901046 -0.030735267 -0.15932228 0.030892147 -0.07555908
0.06397737 0.0067469436 0.028765788 0.04591948 0.05685558 0.018489908 0.12557477 0.06183103
0.01046952 0.042570945 0.056664743 -0.104094625 -0.016505927 0.046459507 0.08586477 -0.10265632
0.086422205 0.046326328 0.016765103 -0.12730391 -0.009541276 0.022875844 0.046548426 0.065106474
-0.028486684 -0.11713253 -0.07982416 -0.06806871 -0.06375741 -0.037317768 0.17308591 -0.10496588
0.04383427 0.0071423133 -0.02302152 -0.010436059 -0.033174112 -0.050053723 0.082388945 -0.13368537
-0.05231788 -0.107115254 -0.07805058 0.028867753 0.10374086 0.047398917 0.07231288 -0.04232167
0.08503751 0.083195366 -0.08511124 -0.0058575193 0.11577684 -0.071117625 0.011102949 0.031499606
0.06520641 0.020021893 -0.09347439 0.014543755 0.023664087 -0.039175935 0.0175936 0.015679173
-0.043527327 -0.10418088 0.05954297 -0.10732337 -0.006925963 -0.11075655 0.037352186 0.03884974
-0.10086296 0.013870821 -0.04402126 0.025873434

fc_hidden.weight f4 [100, 100]
00000000: 2c5a c23e 289b 003f ae14 e9be 2d13 073f
00000010: 4e31 053f a4fc 06bf 127e 0d3f 3ba7 e0be
00000020: bd99 bf3e f0d0 05bf e3d1 093f 4496 cd3e
00000030: 0de4 07bf b3c3 0abf 9f23 00bf 445c fd3e
00000040: 9ed0 c9be 22ea bfbe 405d 0abf 1562 d2be
00000050: 2535 eebe a9dd c4be 9549 ecbe defb f9be
00000060: 4ec4 f8be da78 04bf d9c7 c0be 5c91 ed3e
00000070: 5ce9 0e3f a1cd 023f 44b8 d83e 3487 debe
00000080: 768a c13e 23e3 073f 18d7 d9be 3e68 0ebf
00000090: 4a5e 09bf 231a 0c3f 0eec febe 7d03 dfbe
000000a0: 6da5 d4be bef3 0a3f d36e c9be 3f27 093f
000000b0: 4601 e53e bcd1 0a3f af71 e9be c615 043f
000000c0: f462 f33e db72 e93e 610a cbbe 1a4f e3be
000000d0: fd37 bcbe f96b f53e cd58 e63e 3e04 dd3e
000000e0: 5060 fb3e 0b6d 0c3f 5dcf ebbe ce8f 063f
000000f0: 28f3 bd3e 2c81 d73e 4834 0b3f c8fd cc3e
00000100: 7e97 e43e 6b41 eebe 5077 e8be ee0d bc3e
00000110: 245d bfbe b204 bbbe 387b e8be ea3f 073f
00000120: 435f e33e 0b69 c73e 6a69 d13e 1040 0bbf
00000130: b9ea d63e d73c eabe a07f bc3e b2b8 f9be
00000140: 4f2e f9be 4b22 c4be a726 d4be 05d0 00bf
00000150: e69d f7be 6649 eabe 563a e13e fcf3 bebe
00000160: f6c8 d83e 730a 07bf 6972 dd3e f9d1 bfbe
00000170: 1e4c f3be fb42 033f 5886 d9be c72b 043f
00000180: c712 f4be 9257 d13e 798a 023f 64bd c13e
00000190: bc74 a9be 0df1 d2be 96c8 e03e 3a14 b9be
000001a0: bbb2 f2be 1137 c73e a2eb b5be a7e0 cf3e
000001b0: ac92 e0be 1f9c f33e 8b05 bdbe b7d6 c5be
000001c0: 970c ef3e 0216 d83e c781 003f 0ede abbe
000001d0: 492e d93e 6212 ff3e 056b bd3e 3b2c dd3e
000001e0: 2830 053f 57d4 ca3e a1cf c93e 1072 cd3e
000001f0: 3d5d c73e 4005 dd3e df10 ba3e 33a0 e6be
00000200: a6c7 e4be 4a70 d1be aab8 dbbe f80e ae3e
00000210: 23bb e1be 1f89 e1be bf98 013f cd83 e53e
00000220: 9d2d cd3e a535 c3be ac7f 043f 74de ca3e
00000230: 7dc7 c93e c09c b5be 3163 f93e 54e7 fcbe
00000240: 3cd9 d3be 8f6e cbbe 76be da3e 0997 00bf
00000250: b36e 01bf 7cfb c3be 62e7 e43e a8d6 d03e
00000260: b13c d43e 4967 c2be a0c0 f4be 34fd c2be
00000270: 9360 ebbe d3d3 d3be 2820 ce3e af99 ecbe
00000280: 7fcb cdbe 4562 dabe 2d93 debe 5dfc fbbe
00000290: 5a97 dabe 9aa4 053f f27c 033f 6b1a 04bf
000002a0: 45e1 fe3e 5fa0 f23e dce6 033f 4754 b9be
000002b0: c89a dcbe 83e6 cebe 35ad b5be da78 ed3e
000002c0: af0c aabe f79f ac3e 5f34 d3be 1026 ad3e
000002d0: d546 053f a9a1 cb3e 6813 ee3e af9b d73e
000002e0: ff35 c63e 7523 f43e e98b c7be 5a55 ca3e
000002f0: ba1c 07bf 1216 e53e cfa1 c3be 9a91 fe3e
00000300: d8ae da3e b4f2 dbbe 4b9c cc3e 8c78 fcbe
00000310: 8766 ed3e 5a43 03bf 6446 05bf dcb4 c2be
00000320: 4d8e d43e 5ed1 f43e 28f8 edbe 59a6 033f
00000330: 4efa c83e 7718 b6be 116d e13e b4f5 acbe
00000340: 5950 a63e 22f7 ffbe 8f00 bf3e 5a24 ff3e
00000350: 3f9f d1be 8f27 cdbe 0f9e d7be d80f d23e
00000360: f851 e0be 8b55 e4be 2f3f febe 529d fdbe
00000370: 9b76 eabe a528 afbe 719e fdbe b86f 04bf
00000380: 9dc2 e0be f7ce b4be e44d e2be e591 e13e
00000390: 27bc f53e 3004 ad3e 0e51 c33e 37d6 d9be
000003a0: 1f2f b53e 0d3f c03e e6c4 c4be 82fb a7be
000003b0: ba53 f9be 9df9 f93e 2db7 f0be a0a8 f4be
000003c0: d5b3 babe 4043 fb3e 57fb b5be 6db1 e83e
000003d0: cb34 de3e 66d9 c63e 9bf4 b5be 3244 c83e
000003e0: 43bc d83e 1b60 b53e c63c e0be aea5 00bf
000003f0: 0e6c bfbe 4143 033f 6596 043f 9668 e53e
0.3795942 0.5023675 -0.4552359 0.52763635 0.5202836 -0.5272925 0.55270493 -0.43877587
0.3742198 -0.5227194 0.53835887 0.40153706 -0.5308235 -0.54204863 -0.50054353 0.49484456
-0.39416975 -0.37483317 -0.5404854 -0.41090456 -0.4652492 -0.38450363 -0.4614989 -0.48824972
-0.4858727 -0.51746905 -0.37652472 0.46399963 0.5582483 0.51095015 0.42328084 -0.43462527
0.3780095 0.5308096 -0.42546916 -0.5562781 -0.536595 0.5472738 -0.4978947 -0.4355735
-0.4153246 0.5427817 -0.39342365 0.5357551 0.44727534 0.5422628 -0.45594546 0.51595724
0.47536433 0.4559544 -0.39656356 -0.44396287 -0.36761466 0.4793394 0.44989625 0.431673
0.49096918 0.54853886 -0.46056643 0.5256318 0.37099576 0.42090738 0.5437665 0.4003737
0.4464683 -0.46534285 -0.45403528 0.36729378 -0.37375748 -0.3652702 -0.45406508 0.528319
0.44408616 0.3894733 0.40900737 -0.54394627 0.41975954 -0.45749542 0.3681612 -0.48773724
-0.48668143 -0.38307413 -0.4143574 -0.5031741 -0.48362654 -0.45759124 0.4398982 -0.3729552
0.4234082 -0.5275032 0.4325135 -0.37464884 -0.4751901 0.5127408 -0.4248531 0.516293
-0.47670576 0.40887123 0.5099254 0.37839806 -0.33096874 -0.41199532 0.43903035 -0.36148244
-0.47401986 0.389092 -0.35531336 0.40601084 -0.43861902 0.47580048 -0.3691829 -0.38640377
0.46689293 0.4220429 0.50198025 -0.33567852 0.42418125 0.49818712 0.36995712 0.43197808
0.52026606 0.39615127 0.3941622 0.40126085 0.38938323 0.43168068 0.36340997 -0.45044097
-0.4468357 -0.40905982 -0.42914325 0.33995795 -0.44088086 -0.44049928 0.506237 0.4482712
0.40073863 -0.38126865 0.5175731 0.39622843 0.3941001 -0.35471153 0.4870849 -0.4939524
-0.41376674 -0.39732787 0.42723435 -0.5023046 -0.5055954 -0.38277805 0.4470778 0.4078877
0.41452554 -0.37969425 -0.4780321 -0.38083804 -0.45972118 -0.41372547 0.40258908 -0.46211
-0.40194318 -0.426531 -0.4347166 -0.49215975 -0.42693597 0.5220429 0.51362526 -0.5160281
0.49781242 0.47387978 0.5152414 -0.3619711 -0.4308684 -0.4041024 -0.3548371 0.46381265
-0.33212802 0.33715793 -0.41250893 0.33818102 0.52061206 0.39771774 0.4649918 0.42110965
0.3871307 0.47683302 -0.3897393 0.39518243 -0.5277821 0.447434 -0.38209388 0.4972046
0.4271152 -0.42958605 0.39962992 -0.4931072 0.46367285 -0.51274645 -0.5206053 -0.3802861
0.41514817 0.47815984 -0.4647839 0.514257 0.39253467 -0.3556554 0.44028524 -0.33781207
0.32483175 -0.49993235 0.37305114 0.49832422 -0.40941808 -0.40069243 -0.42112777 0.41027713
-0.43812537 -0.44596514 -0.4965758 -0.49534088 -0.45793614 -0.34210697 -0.49534944 -0.5173297
-0.43898478 -0.35314152 -0.4420005 0.4405662 0.4799511 0.33792257 0.38147777 -0.42546245
0.35387513 0.37548104 -0.38431472 -0.32809073 -0.4869669 0.48823252 -0.47014752 -0.477849
-0.36465326 0.49074745 -0.3554332 0.45447865 0.43399653 0.38837737 -0.35538182 0.3911453
0.42331132 0.35424885 -0.43796366 -0.5025281 -0.37387127 0.51274496 0.51791984 0.44806355

fc_hidden.bias f4 [100]
00000000: 4695 d7be e4c7 c53e a0a4 e6be ca79 ed3e
00000010: d399 fdbe f6ff f23e 274c f5be 4fb8 e13e
00000020: 6182 c23e 448b ba3e fcec efbe 6ca8 fe3e
00000030: d679 f8be 62f2 c63e bb32 eabe e76d fa3e
00000040: f971 053f d219 013f a992 b23e 4aff f2be
00000050: 693d 04bf 5dbe 08bf ce7e bc3e e29b f9be
00000060: cc7e fa3e 8953 cabe d55d f2be 8f1b d8be
00000070: 8de7 e63e 1c35 023f 16cd 053f c463 febe
00000080: 08ee f73e f7d3 ff3e 6e6f 093f e44b dabe
00000090: cb43 053f 476f c83e 8ec9 ecbe 9b43 efbe
000000a0: c6fb e2be af73 f43e 1b2c 04bf 5e7b b7be
000000b0: 368a e23e c922 bcbe d536 bdbe d706 11bf
000000c0: b3d9 fc3e 045c fa3e 39b7 d53e bdd4 db3e
000000d0: 803c 053f 5647 05bf 97aa b63e f465 d7be
000000e0: ee53 c93e caba 003f c45b f53e ca1e e3be
000000f0: 4ad5 cdbe 0d73 c03e 410b 0c3f 3459 d03e
00000100: 02ce 003f b58b afbe bf45 d83e 494f e03e
00000110: db34 e2be b326 fabe 609f 093f fae4 fcbe
00000120: 7505 ec3e 2069 c1be 7fdf d8be e78b 05bf
00000130: 6e40 ec3e 9610 efbe ed96 c73e ddde c0be
00000140: 4578 ebbe 9da4 c6be b622 c23e c283 f73e
00000150: 7d73 e0be 95c4 0bbf a4c4 f93e c1f5 ad3e
00000160: f4d2 c0be b0f7 023f c27d d6be e8ac c0be
00000170: 2d83 cdbe b032 013f 6e55 cdbe 8ab1 f63e
00000180: 3ffc b9be 79fa d4be ab9e f73e 7ec9 d83e
-0.42106074 0.38629067 -0.45047474 0.4638198 -0.4953142 0.47460908 -0.47909662 0.4408593
0.37990096 0.36434376 -0.46860492 0.4973787 -0.48530453 0.38856798 -0.4574183 0.48911974
0.52127033 0.50430024 0.34877518 -0.47460395 -0.51656204 -0.5341547 0.36815494 -0.48751742
0.48924863 -0.39516857 -0.47337213 -0.42208526 0.45098534 0.5086229 0.5226606 -0.4968549
0.4842379 0.49966404 0.53685653 -0.42636025 0.5205657 0.39147398 -0.46247524 -0.46731266
-0.44332713 0.4774451 -0.516298 -0.3583631 0.44246072 -0.3674529 -0.36955896 -0.5665106
0.4938484 0.48898327 0.4174135 0.42935744 0.5204544 -0.52061975 0.35677025 -0.42069972
0.39321846 0.5028502 0.47921574 -0.44359428 -0.4020179 0.37587777 0.5470467 0.40693057
0.5031434 -0.34286276 0.42240712 0.4381049 -0.4418095 -0.4885765 0.5375881 -0.49393445
0.46097913 -0.37775517 -0.42358014 -0.521666 0.46142906 -0.46692342 0.38982335 -0.3767003
-0.45990196 -0.38797465 0.37917107 0.4834271 -0.4383811 -0.54596835 0.48782837 0.33976558
-0.37660944 0.5115919 -0.4189282 -0.37631917 -0.40139142 0.5046797 -0.4010424 0.48182327
-0.3632526 -0.41597345 0.48363242 0.42341226

fc_out.weight f4 [5, 100]
00000000: 7e21 10bf 15fb 003f a965 febe 518b 023f
00000010: 0840 ffbe e047 0f3f 3bf7 06bf 8dc6 c53e
00000020: aecb 063f c581 0c3f a88a 0ebf df43 033f
00000030: d8ec f5be 0f8f 0f3f 5571 09bf 0d8c e23e
00000040: 9bd4 043f 19df b93e c8e8 c03e b4e7 01bf
00000050: 2b84 f3be 7282 e1be d189 0d3f 3e51 f8be
00000060: 1711 033f 7830 fdbe 53f8 0cbf c040 0bbf
00000070: 2b2c f63e 319b f93e d0d8 103f 6e2a 05bf
00000080: f453 0a3f cf9d ed3e 93cd 113f 6673 03bf
00000090: d3c4 f33e 6013 123f 2101 c5be 2d96 0bbf
000000a0: 1d6e e1be d411 023f 7509 d3be 3ae9 0abf
000000b0: c151 003f 24e6 f8be 492c 0abf 3f6d d2be
000000c0: a146 0e3f a54e fc3e 1dbc f53e 74d2 da3e
000000d0: 25d2 bc3e 0d59 e4be 5039 f93e c394 d2be
000000e0: 8af0 f73e 9c8a 0f3f 0c77 083f 8427 c5be
000000f0: 6539 0dbf 46f8 e13e c8b1 063f a389 bc3e
00000100: 1014 083f 828d e9be dfd1 0e3f bef0 0e3f
00000110: b04e 00bf 4fb1 03bf 2dce 033f 16a0 11bf
00000120: 47a0 cc3e a428 03bf d1ef fabe 5063 0abf
00000130: 49fc 033f e762 e6be 0680 f23e 1627 06bf
00000140: 1677 e0be ca36 c9be e62f 013f a541 d83e
00000150: 3d6a 02bf a6af e0be 1445 033f 280a f73e
00000160: d75b 01bf f0f2 f23e 124c ffbe b9ea e8be
00000170: 5074 efbe 3531 fc3e 0482 0fbf d46c 003f
00000180: 2645 c0be 6e09 fcbe 0150 d63e 1ef7 d03e
00000190: 3986 e1be c87e 0a3f 7b47 10bf e2de d93e
000001a0: d4bc cbbe 2c74 0e3f 88ce e2be cefe d33e
000001b0: 6fe9 0d3f d0c9 0c3f 5ea6 ccbe acc6 e43e
000001c0: 5034 f9be e2a3 dc3e 6711 cbbe d139 023f
000001d0: 9345 e63e 703a c63e 7632 053f 5323 eabe
000001e0: 66c8 04bf 29a5 eebe cd10 063f 8af2 fbbe
000001f0: f43e e33e 69ac 0fbf fee9 d4be bd1e 05bf
00000200: 004c e63e 4ae3 d03e 101b 0c3f 3452 0bbf
00000210: ba7e f93e 6ea3 043f 15b4 c73e e2d4 edbe
00000220: 61c7 de3e b171 c33e 67cf 0dbf 4f09 e0be
00000230: 0a10 fdbe 6645 103f 36b4 0ebf 7dd1 00bf
00000240: 0571 0e3f 7482 05bf 518e 0fbf c721 f8be
00000250: adc3 f53e c3ca 023f fe95 da3e c559 e63e
00000260: 09b1 0e3f 226c f2be 9fd7 ff3e a640 e3be
00000270: e9bb 0c3f 4955 d73e edfd 073f bd06 01bf
00000280: b4b7 e8be 151d 083f bb41 dd3e 2342 be3e
00000290: d47c ca3e 4c79 0bbf 80d1 033f aacc fc3e
000002a0: 2303 f9be 89a8 0abf f168 c23e d43d 11bf
000002b0: 55b4 093f e62a 08bf c7a2 dbbe 88cf 01bf
000002c0: d528 c33e 98be eebe 1d07 d73e 90a8 f6be
000002d0: f161 05bf 0b7c 00bf 53a2 0f3f 8ccf 043f
000002e0: d87e 0cbf 42a0 efbe d441 ca3e 032a 0d3f
000002f0: 205e 0bbf c63d 073f 88b6 02bf 3604 0dbf
00000300: 13bf 01bf 0e91 063f 363e dcbe 19b7 c03e
00000310: b1e7 eebe fa7b f7be b003 0d3f e3a1 ec3e
00000320: 1834 cbbe 64ec 0e3f 513f 0fbf 65e5 f93e
00000330: feaa c1be 8bbf 093f c681 11bf 0428 f83e
00000340: 3239 033f 5767 d63e de05 11bf da54 e03e
00000350: e5a7 f6be 5a2d 093f c145 08bf bcd0 063f
00000360: ac3e 073f 5682 093f 6ca1 0d3f 3cf3 10bf
00000370: 11e0 d9be 40bd d0be 512c e93e 56aa e0be
00000380: cf20 083f 031e c7be ebd1 10bf 1724 10bf
00000390: 1868 f13e 00db 0b3f 2147 d13e de8a d3be
000003a0: b5d2 d23e 96e0 0c3f 1686 e23e 5d20 febe
000003b0: 77a2 c83e ff02 093f 8c97 f5be 6ce0 f3be
000003c0: 23a0 ecbe a84a dc3e 63c6 e7be 075c d6be
000003d0: f095 bc3e 76d2 fcbe e099 ccbe 71c7 0abf
000003e0: b65f 033f 207c d63e bd4a 033f 3261 0c3f
000003f0: 6823 0b3f 718c f0be 00dc 013f ce91 d3be
-0.56301105 0.5038312 -0.49686936 0.5099383 -0.4985354 0.5596905 -0.52720994 0.38628045
0.5265454 0.5488551 -0.5568032 0.5127544 -0.4803226 0.56077665 -0.53688556 0.44247475
0.5188691 0.36303023 0.37677598 -0.50744176 -0.47561774 -0.44044834 0.55288416 -0.48499483
0.5119795 -0.4945104 -0.5506641 -0.54395676 0.48080572 0.48751214 0.5658083 -0.5201787
0.5403435 0.4640946 0.56954306 -0.5134796 0.47611102 0.57060814 -0.38477424 -0.54526025
-0.44029322 0.50808454 -0.41218153 -0.54262125 0.50124747 -0.48613083 -0.53973824 -0.41098973
0.5557652 0.4927875 0.47995082 0.42738688 0.36879078 -0.4459919 0.48676538 -0.4112912
0.48425704 0.56070876 0.5330665 -0.3850671 -0.551657 0.4413473 0.5261502 0.36823758
0.5315561 -0.45615774 0.5578899 0.55836093 -0.5012007 -0.51442426 0.51486474 -0.56884897
0.39966032 -0.5123389 -0.4901109 -0.5405779 0.5155683 -0.44997332 0.473633 -0.5240339
-0.43840855 -0.39299613 0.5046371 0.42237583 -0.50943357 -0.4388401 0.5127728 0.48249936
-0.5053076 0.47450972 -0.49862725 -0.4549158 -0.46768427 0.49256292 -0.56057763 0.5016606
-0.37552756 -0.49225944 0.41857913 0.40813535 -0.44047716 0.540997 -0.5635907 0.4255286
-0.39792502 0.55646014 -0.44298196 0.41405338 0.55434316 0.5499544 -0.39970678 0.44682825
-0.48672724 0.43093783 -0.39661714 0.5086947 0.44974956 0.3871646 0.5203012 -0.45730075
-0.51868284 -0.46610382 0.52369386 -0.4920848 0.44383967 -0.5612245 -0.41584772 -0.5200003
0.44979858 0.40798408 0.54728794 -0.54422307 0.48729497 0.51811874 0.3900458 -0.4645148
0.4351149 0.38172677 -0.55394596 -0.43757102 -0.494263 0.56355894 -0.5574373 -0.50319654
0.55641204 -0.5215218 -0.5607653 -0.4846327 0.4800085 0.5109064 0.4269256 0.44990364
0.55738884 -0.47348124 0.49969193 -0.4438526 0.5497423 0.42057255 0.53121835 -0.50400907
-0.45452654 0.53169376 0.4321421 0.37159833 0.3954836 -0.5448196 0.51491547 0.49374896
-0.48635206 -0.54163414 0.3797069 -0.5673497 0.5379079 -0.5319046 -0.42897627 -0.5070729
0.3811709 -0.46629786 0.41997615 -0.48175478 -0.5210257 -0.50189275 0.5610706 0.5187919
-0.5488105 -0.46801955 0.39503348 0.5514223 -0.544405 0.52828634 -0.5105977 -0.5508455
-0.5068218 0.52565086 -0.43016213 0.37639692 -0.46661142 -0.48336774 0.5508375 0.4621726
-0.39688182 0.55829453 -0.5595599 0.48807827 -0.3782577 0.53807896 -0.56838644 0.4846803
0.5125915 0.41875717 -0.5664958 0.43814737 -0.48174968 0.53584826 -0.53231436 0.52662253
0.52830005 0.537145 0.55324435 -0.56621146 -0.42553762 -0.40769386 0.45541623 -0.43879956
0.5317506 -0.38890085 -0.5657031 -0.5630507 0.4714973 0.5463104 0.4087458 -0.41316885
0.41176382 0.5503019 0.44242924 -0.49634066 0.3918645 0.53520197 -0.47967184 -0.47632158
-0.46215925 0.43025708 -0.45268545 -0.41867086 0.36833143 -0.4937932 -0.39961147 -0.54210573
0.5131792 0.41891575 0.51285917 0.5483581 0.543509 -0.46982148 0.5072632 -0.41322178

fc_out.bias f4 [5]
00000000: 7037 bf3e 8825 683e 1c62 b33e 0bef c13e
00000010: 3fb1 ad3e
0.37346983 0.22670567 0.3503579 0.37877688 0.3392429
