checkpoints/entire_data_forecaster_fc_hidden_30/forecaster_fc_hidden(1,150,100,5)epoch_29.pt (torch, 156815 bytes, 8 tensors)

encoder.weight_ih_l0 f4 [150, 1]
00000000: bd4b 243d e860 a5bd 4072 6a3c ed7f bdbc
00000010: 6cf0 68bc 1fc5 523c bc86 41bc 0027 c2bc
00000020: 559d e6bc 74dc 06bd e5cb 483d e431 08bc
00000030: c7a2 a0bb 58a2 f2bc 05d2 5abb 4354 a0bd
00000040: d02b ef3b 07ba 8ebc d212 61bb 72ed 233c
00000050: 0dc4 4c3c 7b67 e9bd 5a49 db3c 1e7a 0cbc
00000060: 1c1f cdbb f744 c3bc 5b58 8abd ab76 ff3c
00000070: 24b4 b03d b831 bbbc c3e8 e23c 3ce8 863b
00000080: 427c b03d e226 633d f951 f43c 0f26 803c
00000090: 1c44 283d 8977 f03b 9137 913d b355 b03c
000000a0: f055 6b3c 5020 8fbc 8792 873d 75c4 b4bc
000000b0: b2fb 683d 65f8 d6bc e3b9 7bbc eb7f 3b3d
000000c0: 9965 133c 37d0 febc 67ca e9bd d76c 5f3b
000000d0: 84bf 653c d5d7 17bb 8d05 89bc d996 cb3d
000000e0: fa81 113e b28b b23c 71c6 db3c f832 243d
000000f0: 275f c33a 1570 4cbd fc88 0dbc a149 8eba
00000100: cafb eebb e29e 813d 1a8b 9b3d 57e8 fcbc
00000110: 3bb9 bc3d b3d9 95bc cbb9 c0bc 2f56 9fbd
00000120: 69ee a0bc d660 333c 40f8 afbc 331e 573c
00000130: 4121 26bc 0080 ae3d 635e 0abc 9470 8ebc
00000140: 66cb 19bd 79b1 e6bc 5e1d a0bc 20b9 413c
00000150: efc7 923c 7e41 1bbb d69a 41bd 2b7d 993c
00000160: bb79 b13c e825 a43a 321e e1ba 364d ea3d
00000170: e9dd b6bc 8523 e7bb 25d9 3d3d 0af8 8dbd
00000180: a00f 373b 6287 08bd d6b7 5bbc e062 b1bc
00000190: 8a4a 5f3d 1d6c 27bc 23b2 303d 2bb0 62bd
000001a0: 0a78 69bd 344a 593c 5b6e 53bd 0e8a 3bbc
000001b0: e764 b7bd 62ec 3ebc 77ef 933a 6e1a a13c
000001c0: fa01 c43b f272 85bc 4cbc d83b da50 abb9
000001d0: 008f 0e3e 9958 ad3c 1cc7 73bd 5d1a 913d
000001e0: fdad 673c 23f3 f13d 7835 d1bb 4b49 39bd
000001f0: 6c51 233e 0bcc aebd cc5b 05bc 5792 5fbd
00000200: f788 b03c 8f26 123d d2f5 9e3b 353e 6a3b
00000210: 6085 f93b 30c3 003d 5942 ffbc fa63 a93d
00000220: c5ae e33c ee26 e23c 2296 d23d b7dc 823d
00000230: 0871 513b 2ce2 bc3d a7c4 263d 0fe8 7abd
00000240: 6842 fdbd c01d dabd 9e22 143c 0515 403c
00000250: 3dc7 2f3c 1df6 bd3b
0.040111292 -0.08075124 0.014309466 -0.023132289 -0.014217477 0.01286438 -0.011811908 -0.023700237
-0.028151194 -0.032925084 0.049022574 -0.008312676 -0.004902217 -0.029618427 -0.0033389342 -0.07828572
0.007298924 -0.01742269 -0.0034343493 0.010005342 0.012497914 -0.113966905 0.026768375 -0.008574037
-0.006259812 -0.023836596 -0.06755134 0.031184515 0.08628109 -0.022850856 0.02769888 0.00411704
0.0861745 0.055457003 0.029824244 0.015643148 0.04108058 0.0073384685 0.070906766 0.02152524
0.014363751 -0.017471462 0.06619745 -0.022066334 0.05688066 -0.02624149 -0.015364143 0.04577629
0.008996391 -0.031105144 -0.11415558 0.0034091973 0.014022712 -0.0023169417 -0.01672628 0.09940881
0.14209738 0.021795128 0.026828023 0.04008767 0.0014905677 -0.049911577 -0.008638617 -0.0010855683
-0.007293199 0.063291326 0.07594891 -0.030872507 0.092150174 -0.018292284 -0.023526093 -0.0778011
-0.019644933 0.01094838 -0.02148068 0.013129759 -0.010139764 0.08520508 -0.008445355 -0.017387666
-0.03754749 -0.028160797 -0.019545253 0.011823922 0.017917601 -0.002369016 -0.047266804 0.018736443
0.02166449 0.0012523504 -0.0017175137 0.11440508 -0.022322612 -0.007053795 0.046349663 -0.06932075
0.0027932897 -0.033332236 -0.013410529 -0.021653593 0.054514445 -0.010218647 0.043138634 -0.055343788
-0.056999244 0.01326232 -0.051618915 -0.011446489 -0.089547925 -0.011653038 0.0011286576 0.019665923
0.005981681 -0.016290162 0.0066142436 -0.000326759 0.13921738 0.02116041 -0.059516057 0.070851065
0.014140603 0.11813953 -0.006384548 -0.045235913 0.15949029 -0.08535012 -0.008139562 -0.05458292
0.021549685 0.035681304 0.0048510814 0.0035742645 0.0076147765 0.031436145 -0.031159567 0.08271022
0.027793298 0.027606454 0.10282542 0.06389754 0.003195824 0.09222826 0.040714886 -0.061256465
-0.123661816 -0.106502056 0.0090414565 0.011723761 0.010728654 0.0057971613

encoder.weight_hh_l0 f4 [150, 150]
00000000: aec8 adbc 867f 653d 4dab 033f 38fb 80be
00000010: b4af 673d 1bff b7be ce61 8ebd c362 ba3d
00000020: 6684 47be d342 85be ccfb 483e 4d46 b23e
00000030: 5e6b 0b3d 4f5c c6be 6d4f 33be afb5 45be
00000040: b3e2 6d3e 49e2 a5be 9760 ddbe 4443 a2be
00000050: 6d31 40be 0bf7 8e3e 68c6 cbbe ca35 f0bd
00000060: 0703 0d3e 8189 8d3e ed9d c03d a090 fb3e
00000070: 0081 afbe 0339 49be 4578 ba3e b82a 543e
00000080: dfd0 9fbe 0069 2a3e bea8 4b3e b453 f1be
00000090: 5a38 a33e 179a 86be 850c 993e 7b43 80be
000000a0: d37a aa3d 0b97 6d3e 447a 6abd 5c0f da3d
000000b0: 5423 293e 0d93 c93d 93ef 3c3d f74a fd3e
000000c0: f1db 8f3d bccb a1bd da52 23bd fed6 963e
000000d0: b8b7 0f3e b5e9 3fbd 1ed1 9d3e ac1e 04be
000000e0: b985 febe 8e8f 33be 7bb7 203e 5829 343e
000000f0: 0acc b0be 03d9 8e3e 41fb 1e3e 3892 0abe
00000100: ca4f 3f3e 5838 5fbe 8bd2 2fbe 17d2 ba3e
00000110: 89e9 7ebe f8fd 8ebe a35c 9e3d 5f11 febe
00000120: ff11 87be 952c 943e 9b91 d9be f597 723e
00000130: fe0d d3be 97ff 863e 5a0f a3be df6f df3d
00000140: b810 af3e 5b67 4d3d 7588 41bd 7c0a 423e
00000150: 12d6 9ebd d6bb 1b3e 3d92 873e 1ffc f13e
00000160: 3848 c9bd 81b5 be3d b982 453e f479 a5be
00000170: 2578 31be a69d 18be 08c1 6cbe 75bf a23e
00000180: d938 183e 12cc a03e dc5c f2be e917 69bd
00000190: 316f 853e 0837 b93e 7717 22be 766a 953e
000001a0: 4ec4 d63e b171 b4bc 81dd d7be 3bce 913e
000001b0: d01e 7d3e b939 5e3e 5c03 9f3e c8cd 9ebe
000001c0: 102d 11be 9e72 11bc 7112 df3d f693 67be
000001d0: bec9 ccbe dd8b 893d be27 293e e7ab 563d
000001e0: fa9f ae3d c127 59be be62 ba3e d8d8 89bd
000001f0: e31f 0cbe 6009 bcbe 6bf2 09bf 0ba6 b7bd
00000200: 9e3d 93be 8205 a93e 89ba 8d3d b7cd 14be
00000210: 2982 8fbe e051 e63e 0408 c63e e6db 9c3e
00000220: c9c2 213e 9435 ad3e 9dd9 8dbe 6a89 0c3e
00000230: 3d65 4b3e 7101 a4be 0052 273d 863b 3fbd
00000240: 9898 703e 5b2d 6d3e 7e7b c03e 817e 16bd
00000250: a1be 783e f9c7 0a3f 6720 143f 08c0 973c
00000260: ecb9 e03e 3bf5 69bf 396c 8abd a700 20bd
00000270: b6af 65be f05c 2b3f bc49 903e 127d 1c3e
00000280: 114d be3e 820f 683f fcfc 063e c9f4 50bf
00000290: 0cdd 48bf 2b5c d43e 1ec4 bcbd f621 2bbe
000002a0: 8dbc 393d 84fd 7cbf 6bf7 44bf a1a9 5a3f
000002b0: 7094 34bf f5c1 1cbe 6015 5fbe 7bfa ab3e
000002c0: 546c 6b3f 2fad 1f3f 83f8 86bf 632b 65bf
000002d0: 1a53 4c3f d75d 1abe 12de 89bf 6aaa f83e
000002e0: 5c44 5bbe 4636 b4bd 202d 4b3e f5e5 443e
000002f0: 87c2 643f 38ec 66be c727 dd3e ff69 8f3f
00000300: e389 54bf 436c 6c3d e584 5b3f 623d ec3e
00000310: ff8c 713e 9d7f 393f 03a2 1ebe faed 753e
00000320: ecfa 4a3f c559 4f3f a855 053f 8582 b5bd
00000330: ffd9 303f 7bfe c4bd 2cfd 21bf 8106 1cbf
00000340: 71bb 02be dc14 df3e 2940 44bf cc97 103f
00000350: 32de 1fbd 6b3b 1aba 1058 f43b 1d41 9cbe
00000360: 17a6 d4be 49b4 1d3f 1d2d c6be 313c 7e3e
00000370: 71fa 08bf 6299 5cbf 58df 0f3e 7ebd 623f
00000380: 1ebf 963d 26aa 0a3f 8679 1bbe ff58 0e3e
00000390: 80b2 983e b956 9e3d 4475 193f c3b4 5c3c
000003a0: 2160 773e 9e85 0e3f 3712 e0be fbf2 9c3d
000003b0: 94cc 893f e58d 5d3f 4d2c debe c32a 293f
000003c0: 53f3 3d3e 1b27 26be 6f89 563e 0ac5 1abf
000003d0: 577b a5bd 2e68 49be 8ea8 c93b 8942 e93e
000003e0: abbb 82bf 4543 853e c1f4 2d3e 690f 223f
000003f0: 6069 8ebe 4fb9 913f 74a9 883f bb2f 3cbd
-0.021213856 0.05602982 0.5143326 -0.25191665 0.056564048 -0.35936818 -0.069522485 0.091008686
-0.194841 -0.26027545 0.19627303 0.3481926 0.03403794 -0.387423 -0.17510767 -0.19307588
0.2323101 -0.32399204 -0.43237755 -0.31691945 -0.18768854 0.27922854 -0.3979981 -0.117290094
0.13770686 0.2764397 0.09405122 0.49133778 -0.34278107 -0.19650654 0.36419883 0.20719421
-0.31214043 0.16641617 0.19888589 -0.47134173 0.3187893 -0.26289436 0.29892364 -0.25051484
0.08324208 0.2320215 -0.057245508 0.10647461 0.16517383 0.09842501 0.046126913 0.49471256
0.07024372 -0.079001874 -0.039873935 0.294609 0.14034927 -0.04685374 0.30823606 -0.12902325
-0.49711397 -0.1753523 0.15694992 0.17593896 -0.3453067 0.27899942 0.15525533 -0.1353234
0.18682781 -0.21798837 -0.1717016 0.3648841 -0.24893774 -0.27928138 0.07732513 -0.49622628
-0.26380917 0.28940263 -0.424939 0.2369078 -0.41221613 0.26366875 -0.3184765 0.109100096
0.34192443 0.050147396 -0.047249276 0.18949312 -0.077556744 0.15208372 0.26478758 0.47262666
-0.09828228 0.09311963 0.19288148 -0.32319605 -0.17330988 -0.14903888 -0.2312051 0.31786695
0.14865436 0.31405693 -0.4733647 -0.056907568 0.26061395 0.36174798 -0.15829264 0.29182786
0.41946644 -0.022026869 -0.42161182 0.28477654 0.24718785 0.21701707 0.3105725 -0.31016374
-0.14177346 -0.0088774245 0.10892189 -0.22615036 -0.39997667 0.0671613 0.16519067 0.052410033
0.08526607 -0.21206571 0.3640346 -0.06730813 -0.13684039 -0.36725903 -0.53885525 -0.08967217
-0.28757948 0.33012015 0.069203444 -0.14531599 -0.28028992 0.4498434 0.3867799 0.3063652
0.15796961 0.3382994 -0.27705088 0.13724294 0.19862838 -0.3203235 0.040849686 -0.046687625
0.2349571 0.23161833 0.37594217 -0.036741737 0.24291469 0.54211384 0.5786194 0.018524185
0.43891847 -0.91389817 -0.06758923 -0.039063122 -0.2243031 0.66938686 0.28181255 0.15282086
0.37168172 0.90648663 0.13182443 -0.8162351 -0.7846229 0.4147657 -0.09217094 -0.16712174
0.04534583 -0.98824334 -0.7694003 0.85415083 -0.70539 -0.15308364 -0.21785498 0.3358954
0.9196217 0.6237363 -1.054459 -0.8951933 0.798143 -0.1507486 -1.0770895 0.48567516
-0.21412796 -0.08799414 0.19841433 0.19228347 0.89359325 -0.22551048 0.4319441 1.1204222
-0.830229 0.057720434 0.85749656 0.4614058 0.23588942 0.7246035 -0.1549149 0.24016562
0.79289126 0.8099635 0.52083826 -0.08862785 0.69082636 -0.09618851 -0.63276935 -0.60947424
-0.12766816 0.43570602 -0.766604 0.56481624 -0.03903026 -0.0005883488 0.007456787 -0.30518427
-0.41532966 0.6160322 -0.38706294 0.24827649 -0.53507143 -0.86171544 0.14050043 0.8857039
0.073606715 0.54165876 -0.15183076 0.13901137 0.29823685 0.07731385 0.5994456 0.013470831
0.24157764 0.55672634 -0.43763897 0.07663532 1.0765557 0.8654464 -0.43393174 0.66080874
0.18549852 -0.16225855 0.20950864 -0.6045691 -0.08080166 -0.19668648 0.0061541265 0.45558575
-1.0213522 0.26027885 0.16987897 0.63304764 -0.2781477 1.1384677 1.0676713 -0.045943957

encoder.bias_ih_l0 f4 [150]
00000000: 36fc 89bd 94dd 76bf e756 88be 2068 46be
00000010: da7c 8e3e 5db4 353e 3744 23bd 4991 94be
00000020: 6ebb 03bf 959e abbd 28b1 4fbe 1a3b 7fbe
00000030: 62cc 37be b69d c3be 57fb 353c 3c56 8cbe
00000040: 43df a53c 5295 da3d 2285 2a3e d230 073f
00000050: 94dc 913e a92d 15bf d9d5 fdbc a6bf 273e
00000060: 1f86 12be 7aa0 88be c47b 343d f9df 31be
00000070: 79fc 3e3f b9af 433e 0b3c d4bd 6f41 4c3f
00000080: 42e8 4f3f 322d 08be 06b9 a5bd 1798 cd3e
00000090: 0045 f4bd 719b 833e 1c34 943d 861f 3c3d
000000a0: 2be7 8c3d 3978 66be daa9 9b3e 436e 093e
000000b0: c28d 173d acdb f6be 4068 93be 3477 c5bc
000000c0: 7f4f a43e 22a0 bf3d 022e 30bf f869 b13d
000000d0: abf7 68bd 0691 223e 9d2b 6a3d aea1 f93e
000000e0: f715 473f 7908 563e aa79 0ebe 299a 5bbe
000000f0: 2a5a 0b3e 348f 33be e45a 5f3d 811f b6bd
00000100: 9458 103d ff23 793f 8bf1 b23e ccb1 8bbe
00000110: b507 e13e 2c29 193e c16e 363a 5ae8 80bd
00000120: bf9a efbd 3129 0e3d a682 803e 0e2e b3be
00000130: f455 683d 86da 913e 445f e3bc 94a8 a93d
00000140: c6dc dbbe 748e 533e 1201 97be d27f 90be
00000150: d8d8 9d3e 9996 113d ff3d 8ebe a900 7abe
00000160: a174 fb3e c584 fabc fcc1 b5bd 88cb 3f3f
00000170: ba47 b3bc ae8b e73d 74b7 153f e92d f3be
00000180: 62b6 aebe e3ab 98be 4818 9dbc f861 6c3e
00000190: d67e edbd caac ffbe e047 713e 292b 16bf
000001a0: 0182 edbd aa6a f2bd 3e77 f33e 5528 a7be
000001b0: 533c 7ebe 95b4 23be 3140 7dbd 97d4 d73f
000001c0: 3bcd 9fbd 58a2 40be 24f8 5cbb 1c6f 223e
000001d0: 6621 8b3f 1cb2 0bbe 2405 d6bd 7258 213f
000001e0: 3f8e adbc db38 4f3f 9b8d 3dbe 3e96 05bd
000001f0: 6ceb 403f 4e94 92bd bc3d 023c e4e9 a7be
00000200: 3560 773d c5fd 07be 4915 62bd da7c 873e
00000210: 2209 3b3f aed8 b3be 8d2b 5dbe 49f1 8e3e
00000220: 6495 c83d 36e5 aabd a753 913e 2938 ec3d
00000230: 6a40 923c 8e73 1f3f ca7b 283e 859c 4bbe
00000240: f452 debe 55ca 37bf 4b6c d5bd 43c9 6c3e
00000250: ef7c 49bd b408 dbbd
-0.067375585 -0.9643185 -0.266288 -0.19375658 0.2782963 0.17744584 -0.039859977 -0.29017094
-0.5145787 -0.083798565 -0.20282423 -0.24924889 -0.1794906 -0.3820626 0.011107287 -0.27409542
0.020248061 0.10673012 0.16652349 0.5280887 0.284886 -0.58272797 -0.03098576 0.16381702
-0.14308976 -0.26684934 0.044063345 -0.17370595 0.7460399 0.19110002 -0.10363015 0.79787344
0.8121377 -0.1329849 -0.08091931 0.40155098 -0.11927223 0.2570453 0.072365016 0.0459285
0.06880029 -0.22506799 0.30403024 0.13420968 0.037000425 -0.4821447 -0.28790474 -0.024104692
0.320919 0.09356715 -0.688202 0.0866279 -0.05687682 0.15875635 0.0571705 0.48756164
0.7776789 0.2090167 -0.13913599 -0.21445526 0.13608614 -0.17535096 0.05453004 -0.08892728
0.035240725 0.9732055 0.34949908 -0.27284086 0.43951192 0.14957112 0.00069592526 -0.062943175
-0.11699437 0.034707252 0.25099677 -0.34996074 0.056722596 0.28487033 -0.027755387 0.08284107
-0.42941874 0.2065981 -0.29493004 -0.2822252 0.308295 0.03554401 -0.27781674 -0.24414314
0.49112418 -0.030580888 -0.0887489 0.7491994 -0.021884788 0.11305939 0.5848305 -0.47495964
-0.34123522 -0.2981864 -0.019176617 0.23084247 -0.11596458 -0.49936515 0.23562574 -0.5865961
-0.11597062 -0.11836751 0.47551912 -0.32647958 -0.248277 -0.15986855 -0.061828796 1.6861752
-0.078028165 -0.18811929 -0.003371724 0.15862697 1.0869567 -0.13642162 -0.10450199 0.6302558
-0.021185992 0.8094613 -0.1851105 -0.032613985 0.75359225 -0.07157193 0.007949289 -0.32795632
0.060394485 -0.13280399 -0.05519608 0.26462442 0.7306081 -0.3512625 -0.21598645 0.2791846
0.09794119 -0.083445 0.28384134 0.11534149 0.01785298 0.622857 0.16453472 -0.19883926
-0.43422663 -0.7179311 -0.10421046 0.2312365 -0.04919141 -0.10695019

encoder.bias_hh_l0 f4 [150]
00000000: a7f4 05bd 5f11 71bf 55a6 46be 6e8e 21be
00000010: 58c5 983e 2b80 0c3e cec7 5d3b c332 b1be
00000020: 1a2f 18bf 9aed 0abe 4666 96bd c8af 71be
00000030: fa60 13bd 16bf b5be 2d73 9e3c bd78 a6be
00000040: b8b8 143e 5312 e33c 38f8 2f3e 1d0a 083f
00000050: e222 693e 4136 1dbf 9226 923d 987e 913e
00000060: ee84 0dbe 5eaa 50be d11c 0f3d ffaf 3abe
00000070: 5a26 3d3f 19a9 d63d 1a29 40be c5c2 2e3f
00000080: e056 443f dc0c 71bc ec5d 0ebd 5722 853e
00000090: 5817 76bd 7da7 4c3e d3a5 f53c 9522 dfbc
000000a0: 7feb 8a3c 41d9 b1bd 06a2 4c3e f696 693e
000000b0: 9153 1a3d b1bc e1be 6b52 8cbe ee66 c9bd
000000c0: 3847 8b3e b448 163e bbef 22bf b755 a23d
000000d0: bdd1 4a3c d5d4 cd3d 0798 383d b3f5 c33e
000000e0: a791 623f 9d46 db3d 9bfe 1bbe 6681 65be
000000f0: 77f7 103e c636 fdbd db12 993d b289 ccbc
00000100: 9f0c 453c 6aa1 703f 305b ce3e a282 8cbe
00000110: bb54 dd3e 7fdd cb3d efaa 963d 6436 a5bd
00000120: dd22 14be bdbb b1bc cb60 8a3e 01a9 babe
00000130: f864 113e d11a 993e 027f 8b3c e607 debc
00000140: 72fb c7be e4a6 df3d 8899 a8be bf5c 82be
00000150: ef9a 803e a83a b4bc 4d42 7cbe 9c0b 87be
00000160: a538 053f 26ee a5bc 29b0 91bd cedc 4f3f
00000170: ee40 9abd 8a6a 1d3e 2ca5 023f dcf9 cebe
00000180: 4d54 95be fe60 65be e41a 8fb9 089b 2d3e
00000190: 4b92 0bbd c059 0abf 54b8 953e bdce 21bf
000001a0: cdf7 71be 834c e9bd c678 b23e c890 a2be
000001b0: 3af5 97be b0ee 1bbe a032 97bd 03e5 db3f
000001c0: 30b3 6d3c 7b9c 52be 8fa6 e0ba 9190 463e
000001d0: 18f3 833f 544d 41be 28b3 01be 5b9c 1f3f
000001e0: 1c78 e93d fb7a 533f 30ff 32be 5028 453d
000001f0: 2af4 4d3f cdfe c63b 555d 9d3d d706 b5be
00000200: 9b1d 453d c290 a2bd 9732 bbbc de8a 823e
00000210: cc29 253f 6e62 5fbe ff95 eebd 31cc 783e
00000220: 5200 013d 5704 25be e14f a93e f728 2f3e
00000230: da4f 833d 8ebb 113f 1a61 593e b1a3 43be
00000240: 4483 e8be ccde 3abf 2ab3 93bd e441 f03d
00000250: 83b9 703d 34c8 39be
-0.03270402 -0.9416713 -0.19399388 -0.15776989 0.2983806 0.13720767 0.0033841017 -0.3460904
-0.5944687 -0.135672 -0.07343726 -0.23602211 -0.035981156 -0.3549735 0.01934203 -0.3251399
0.1452359 0.027718699 0.17184532 0.5314043 0.22767213 -0.6141091 0.07136263 0.28416896
-0.1382024 -0.2037749 0.03493959 -0.182312 0.73886645 0.104814716 -0.18765679 0.68265945
0.7669506 -0.014712539 -0.03475754 0.26002762 -0.060080856 0.19985767 0.029986298 -0.02723817
0.016957996 -0.08684016 0.19983682 0.22811493 0.03767735 -0.44089273 -0.2740663 -0.098340854
0.27202773 0.14676172 -0.6364705 0.07926505 0.012379107 0.1005036 0.04506686 0.3827339
0.885035 0.10706828 -0.15233843 -0.22412643 0.141569 -0.12363963 0.074742995 -0.024968002
0.012026935 0.939963 0.40303946 -0.27443415 0.43228707 0.099543564 0.07356822 -0.08067015
-0.14466424 -0.021695966 0.27026972 -0.36457065 0.14198673 0.29903272 0.017028335 -0.027103376
-0.39059025 0.10920504 -0.32929635 -0.25461385 0.25118205 -0.022000626 -0.24634667 -0.26376045
0.5203956 -0.02025516 -0.07113678 0.81196296 -0.075319156 0.15372673 0.5103328 -0.40425003
-0.2916588 -0.22400281 -0.0002729512 0.16953671 -0.034075063 -0.540432 0.29242194 -0.6320608
-0.23629685 -0.113915466 0.34857768 -0.31751084 -0.2967928 -0.15227771 -0.07382703 1.7179264
0.014508054 -0.20567505 -0.0017139482 0.19391085 1.0308561 -0.18877155 -0.12665999 0.62347955
0.11399862 0.8260953 -0.17480159 0.048134148 0.8045069 0.006072855 0.07683817 -0.3535678
0.048123937 -0.079377666 -0.022851272 0.25496572 0.645169 -0.21814892 -0.11649703 0.24296643
0.031494446 -0.16114937 0.33068755 0.1710547 0.06411715 0.5692681 0.21228448 -0.19105412
-0.45412648 -0.7299621 -0.07211907 0.11731318 0.058770668 -0.18142778

fc_hidden.weight f4 [100, 150]
00000000: 093f 513f 8bee a1be 8776 673d db51 69bf
00000010: d485 cb3e dae4 bb3d 55a4 b13d bbcd 91be
00000020: 64b8 06c0 5cf9 01bf aebd 913f 5a3d bfbe
00000030: 699d adbe 4798 80c0 5870 b43e 7811 2340
00000040: 53a7 ddbd 29a0 7cc0 5c66 24bf 739f aa3d
00000050: dc96 193f fc76 c93f 3d2b dc3e d1d1 a2be
00000060: c23e 9dbd 237d 45bf a8c9 cbbe df46 b4bc
00000070: e2f1 34c0 0872 74bf 35c8 24bf 8b83 7540
00000080: 7e37 39c0 d917 eabe b66b 99be 7d03 6c3f
00000090: f3b3 443f 406e 1b3d e5ae 80be 671c 673f
000000a0: 8aab 24bf a339 43bf e337 43c0 7750 b63f
000000b0: 0f1f 983e baa9 6dbf bd0c 61be 9523 e7be
000000c0: 50cc 813f 5292 54be 2153 a13f 8d32 f43e
000000d0: dfc0 8bbd bc03 0ebf 83fe a1be 3c52 fabf
000000e0: 1cd4 e8bf c061 373f fba1 91be c27c 0fbf
000000f0: 15e3 2bc0 3e09 c83f 8e49 ad3f 6e80 2ebf
00000100: fbe3 eebd 4f4a b33e aff5 cbbf 2c14 003e
00000110: d026 c0bf 8239 afbf 748b 19c0 2a37 1f3e
00000120: f2d1 2ec0 17a3 29bf bd3c 0bbf 99d0 893f
00000130: 2e44 923d 87b9 43bf 29e4 22be 01d7 d03f
00000140: e408 803f 3272 793e 3f87 52be 5342 ab3f
00000150: b149 ba3e f4c7 38bf b150 e23e 67f8 293e
00000160: 989d 983f c0fe 433d e31b ecbc c942 8abf
00000170: 3f69 743e cdb9 e5bd d5a9 e5be 20d6 2f3f
00000180: 03bc 913d 2079 debe 8f3a bcbe b467 55bf
00000190: 9e5e 5d3f b8b2 2c3f 5433 bcbe d6f0 1540
000001a0: 7da7 463f f584 153f 3667 ffbe 643c 743d
000001b0: 9030 b83f fdf3 8cbe 82f3 0040 2579 5e40
000001c0: c305 2fbd b61d e0be b487 7a3e b371 1bbe
000001d0: 29cd 98be 3d60 8ebd 9792 57bd 869b 08c0
000001e0: c7a7 d13e 4413 01bf 7ff8 823f 0523 42be
000001f0: 1767 9dbf 4929 513d c59f debc c3a8 e23f
00000200: 324b 423e d8ec 24be 61e5 763f c6b8 a13f
00000210: 5c2f 5b3f 416f 4dbe 6ed8 3abe fd7d 37bf
00000220: ce5e 4cbf b1ab d93f 7f35 b6bf 7885 1d3d
00000230: 6359 873e af4e 543e b3d6 4e3f 0eb9 843f
00000240: 59fe b93f 5c63 ba3f 060c c43a 5985 1dbe
00000250: f18c fd3e 3135 d13e de30 2ac0 e8e2 6940
00000260: a750 04bf ffee 8840 7f85 2fbe 1040 cf3c
00000270: 1df7 4b3f 26f3 333f a2aa 0640 ef69 c23f
00000280: d77b acbf 302b 25bf 1756 1cbf b18d a140
00000290: 82b3 6a40 1044 91bf 1182 823f c7af 58be
000002a0: 6d84 663f ac97 8a3f 1457 b93f 92e5 8b3f
000002b0: 56c4 8140 786d 4bbf 87c6 41bf 401a 5cbf
000002c0: 2f93 dfbf 3a85 53c0 af36 1840 83d2 ce3f
000002d0: 3a26 82c0 aa7b 7ebf 639c 1040 b181 debf
000002e0: b63a f23e ea34 4a3e abc5 43bf 5352 b33d
000002f0: e7b0 0dc0 c0de 17bf 9bbe 54bf 99d9 7bc0
00000300: 2f80 1940 31c9 4e3f 393b 97c0 5a5e febd
00000310: 4a0f 7b3f ac23 80c0 1b70 523f d77e 6abe
00000320: 7fac 92bf 06fa 37c0 b1f2 cbbf 2118 8abe
00000330: 8973 92bf 9d47 d3be 92b1 8dbe c262 d03f
00000340: 938d 8ebf 30f1 71bf 6a1e d0bf 63f8 f1bf
00000350: bbfd 0b3f 819c 14bf cca4 1dbf cec4 933e
00000360: 558b 4f3f 06d2 9cbf e569 013e b111 d43f
00000370: 3edf 0140 fbb2 8340 ee98 843f 9d09 9fc0
00000380: 9c66 973f e036 7bbf 4364 cb3f a92b 3c3f
00000390: 84ef a53f 6fea 6dbf 91d0 8dbf 246c 8a3f
000003a0: a143 88bf 4450 80bf 4bf3 3cbf 8bd7 6bbd
000003b0: 4650 63c0 c1e9 b7c0 edd9 a7be 1a8f 9fbf
000003c0: 8890 6bbf cd03 17c0 b75a e6bc d8cb 803f
000003d0: bf7b a3be abfa b43f 721f 2b3e 45dc 60bf
000003e0: df99 8540 870e 903f b40e 89bf ea20 49bf
000003f0: 0d0e afbf 9841 8abf ac75 80c0 9120 a3bf
0.8173681 -0.31627306 0.05650952 -0.91140527 0.3975054 0.09174509 0.08673922 -0.28477272
-2.1050043 -0.5077112 1.1386011 -0.37351495 -0.33909157 -4.0185885 0.3524196 2.5479412
-0.1082293 -3.9472754 -0.6421869 0.08331194 0.5999582 1.5739436 0.43001738 -0.31800702
-0.07677986 -0.7714407 -0.3980229 -0.02200645 -2.8272634 -0.954865 -0.6436799 3.8361537
-2.894012 -0.4572132 -0.2996499 0.9219282 0.7683708 0.03794694 -0.25133434 0.90277714
-0.6432425 -0.7625982 -3.050286 1.4243306 0.29711196 -0.9283711 -0.21977516 -0.45144334
1.0140476 -0.20758942 1.2603494 0.47694817 -0.068238966 -0.5547445 -0.3163949 -1.9556346
-1.8189731 0.7163353 -0.28443894 -0.5604974 -2.685735 1.562782 1.3538072 -0.6816472
-0.116645776 0.3501763 -1.5934352 0.12507695 -1.5011845 -1.3689425 -2.3991365 0.15548387
-2.731564 -0.6626448 -0.54389554 1.0766784 0.071419105 -0.7645497 -0.15907349 1.6315614
1.0002713 0.24359968 -0.20559405 1.3379616 0.36384347 -0.72180104 0.44202188 0.16598664
1.1923094 0.04785037 -0.028821891 -1.0801631 0.23868273 -0.11217079 -0.44856134 0.68686104
0.071159385 -0.43451786 -0.36763427 -0.83361363 0.864725 0.67460203 -0.3675791 2.3428245
0.77599317 0.58406 -0.4988343 0.059627905 1.438982 -0.27529898 2.0148625 3.476144
-0.042730104 -0.43772668 0.24465829 -0.15180092 -0.29844025 -0.0695195 -0.052630033 -2.1344924
0.40948316 -0.5042002 1.0232085 -0.18958671 -1.2297086 0.051064763 -0.027175793 1.7707752
0.18973997 -0.16105974 0.96443754 1.2634513 0.8561914 -0.20061971 -0.18246624 -0.7167662
-0.7983216 1.7005521 -1.4235076 0.038457364 0.26435384 0.2073314 0.80796355 1.0368974
1.4530746 1.4561572 0.0014957197 -0.153829 0.49521592 0.40860894 -2.6592326 3.6544743
-0.51685566 4.2791743 -0.17140768 0.025299102 0.7967394 0.7029289 2.1041646 1.5188578
-1.3475293 -0.64519024 -0.6106886 5.0485463 3.6672063 -1.1348896 1.0195943 -0.21160804
0.90045816 1.0827537 1.4479699 1.0929434 4.055217 -0.7946391 -0.75693554 -0.85977554
-1.7466792 -3.3050065 2.3783376 1.6157993 -4.0671663 -0.99407446 2.259545 -1.7383329
0.47310418 0.19746748 -0.7647349 0.087559365 -2.2139223 -0.59324265 -0.8310334 -3.935156
2.3984487 0.80775744 -4.7259793 -0.1242034 0.98070204 -4.0043545 0.8220231 -0.22899948
-1.1458892 -2.8746352 -1.5933439 -0.26971534 -1.1441509 -0.41265574 -0.27674538 1.6280138
-1.1136955 -0.9450865 -1.6259282 -1.8903927 0.54684037 -0.58051306 -0.61579585 0.28861088
0.8107198 -1.2251594 0.12638052 1.6567899 2.0292506 4.115598 1.035917 -4.9699235
1.1828189 -0.9813061 1.5889972 0.7350412 1.2963719 -0.9293584 -1.1079274 1.0814252
-1.0645639 -1.0024495 -0.73808736 -0.057578605 -3.5517745 -5.7472844 -0.32783452 -1.2465546
-0.9201741 -2.359607 -0.028119428 1.0062208 -0.31930348 1.4138998 0.16711214 -0.87836105
4.175033 1.1254433 -1.0707612 -0.7856585 -1.3676163 -1.0801268 -4.0143642 -1.2744313

fc_hidden.bias f4 [100]
00000000: 065d 60c0 2beb ba40 9e3a 9f40 dbbf b740
00000010: da77 9440 e319 d040 4f84 ca40 7063 a540
00000020: 841a d740 0729 1341 b3a8 3fc0 4f97 9b40
00000030: 91ee d640 f73f 5bc0 9878 5dc0 6921 8640
00000040: 8685 3ec0 25b8 3dc0 7569 b640 5ae2 66c0
00000050: e21d e240 de71 ba40 e11a bb40 dc10 bc40
00000060: e845 63c0 936e 5ec0 875a 1dbf 91a1 be40
00000070: 2c7a bb40 7636 3ec0 1e11 b840 42c8 ba40
00000080: a656 61c0 1304 b840 1b2c bb40 6f02 d940
00000090: 51a3 bb40 7d23 b840 dc2d b840 d25b b740
000000a0: a3a3 ba40 7775 5dc0 455c 0241 03c4 5dc0
000000b0: 8dbd 0e41 f871 b440 097a bd40 4ef8 68c0
000000c0: 27c5 0241 6a1e 45bf 4c07 bc40 13fb bb40
000000d0: f434 36c0 f444 b840 aa7f b740 d88a 5dc0
000000e0: 84f3 d040 beef 43bf 9e60 e340 5abb 5cc0
000000f0: b527 d440 4d14 5ec0 2121 1441 ad18 0041
00000100: 7b5b 9f40 4eaa ba40 ee52 bd40 dca7 5ac0
00000110: e0bc b740 78d7 b940 333e bc40 797a 5ec0
00000120: d648 b440 5b30 bb40 1b9e d640 4c72 e640
00000130: 6df1 e140 e126 a740 9ced 58c0 e449 bebd
00000140: d14c b940 ac31 26be e11d 5bc0 414e 1241
00000150: d271 62c0 5fa5 a140 039c 57c0 e852 61c0
00000160: d94e 67c0 8303 9740 8298 0041 0c32 01c0
00000170: d9ab b440 7d4c 3bc0 4f5c 5bbf 597c 8940
00000180: 1475 ce40 f1db ba40 d810 5ac0 f7f3 60c0
-3.5056777 5.841207 4.9759054 5.74217 4.6396303 6.50316 6.328651 5.1683884
6.721987 9.197516 -2.9946716 4.8622203 6.716622 -3.425779 -3.4604855 4.1915784
-2.9768996 -2.9643643 5.700373 -3.6075654 7.066148 5.8264 5.847031 5.877058
-3.5511417 -3.475499 -0.6146626 5.9572225 5.8586636 -2.972074 5.7520895 5.8369455
-3.5209136 5.7504973 5.849134 6.781547 5.863686 5.754332 5.755598 5.7299585
5.832475 -3.4602945 8.147527 -3.4650886 8.921277 5.638912 5.921147 -3.6401553
8.173133 -0.76999533 5.8758907 5.8743987 -2.846982 5.758417 5.734334 -3.4615993
6.529726 -0.7653769 7.105544 -3.448935 6.629847 -3.469989 9.258088 8.006024
4.979917 5.833289 5.9163733 -3.4164953 5.741806 5.8075523 5.8825927 -3.4762251
5.633891 5.849653 6.7068 7.2014523 7.060721 5.223496 -3.3895025 -0.09291437
5.790627 -0.16229886 -3.4236987 9.144105 -3.538197 5.051437 -3.3688972 -3.5206852
-3.6141875 4.7191787 8.037233 -2.0186796 5.6459775 -2.9265435 -0.85687727 4.296429
6.451792 5.8393483 -3.407278 -3.5148904

fc_out.weight f4 [5, 100]
00000000: 69c0 15c1 635c da40 cd72 b640 f0a2 dd40
00000010: 7977 ad40 016d 0841 1d7c f440 6996 c340
00000020: 6412 ea40 a1e2 4d41 9bf8 14c1 755e be40
00000030: 3664 f240 3017 1ac1 4944 1ac1 6c44 b240
00000040: 25ad 11c1 e0a8 16c1 78fa d740 b703 14c1
00000050: 16da 0b41 71a4 da40 0e2d e040 bf54 db40
00000060: 7baf 17c1 d856 18c1 77dc 8dc0 7899 e440
00000070: 1ff5 dc40 da55 16c1 251c db40 e84b d940
00000080: 88cc 1bc1 1d72 dc40 ea05 d940 80ca 0d41
00000090: cfc6 da40 a4ba d940 dd85 dc40 6726 dd40
000000a0: ccb0 da40 2bda 16c1 382c 3a41 bc23 16c1
000000b0: 73cf 1e41 f611 dd40 2d58 da40 fa97 11c1
000000c0: 44da 3941 56bc c0c0 6b54 da40 eca3 db40
000000d0: 0e2c 15c1 0876 db40 4559 d940 f8be 19c1
000000e0: b11b 0741 b1b9 bcc0 a3ca 0741 e7e2 16c1
000000f0: 2f1c f740 f75d 18c1 3ad5 4a41 6ff6 3941
00000100: 5af6 bd40 52e9 d840 7817 da40 6e02 1bc1
00000110: 9cec dc40 d175 db40 e9f0 dc40 0169 18c1
00000120: 8573 d740 020a db40 1e8c 0741 75ca 0741
00000130: 5ca5 f140 ad22 c040 a603 19c1 74e7 86bd
00000140: 7499 d740 8d36 bc3d 836c 1ac1 c0c5 4c41
00000150: 96b6 19c1 9bfa bd40 76b8 1ac1 2410 19c1
00000160: acfc 14c1 86fa ae40 e3c8 3b41 2620 0bc1
00000170: 46ca d840 e187 17c1 987f bec0 e95a a340
00000180: d6a0 f440 01d4 dd40 22d4 19c1 45b1 16c1
00000190: d51b 17c1 1d19 db40 f40f b240 70f7 da40
000001a0: b324 b040 dfe4 0541 4ffc ee40 579c c140
000001b0: a7b9 eb40 cd90 4c41 2ad4 14c1 87ae ba40
000001c0: 0ddf f440 dc11 18c1 0221 19c1 bcc8 b340
000001d0: f225 14c1 b330 15c1 ad2c db40 d077 15c1
000001e0: 3b40 0c41 09a7 dd40 f403 df40 b0be dd40
000001f0: ed71 17c1 3797 19c1 39b8 8cc0 bcd2 e540
00000200: 89ee db40 a83c 15c1 5ef7 db40 35a4 dc40
00000210: 2399 1ac1 833e da40 984b d740 2031 0f41
00000220: 6518 dd40 a5d3 d540 4b41 d740 dc5c d840
00000230: 5d9f d840 c7d2 17c1 e2c4 3941 a698 14c1
00000240: 4174 1d41 6f85 dc40 76f4 d940 4fa6 11c1
00000250: b7fa 3a41 4ce5 b9c0 946b dd40 8e27 d740
00000260: 82fc 13c1 9c55 d840 181e dc40 d597 18c1
00000270: d5d3 0641 ba29 bbc0 c5b5 0541 572a 16c1
00000280: 39fc f240 2675 18c1 6b77 4c41 964a 3a41
00000290: 65f9 ba40 7591 db40 1610 dc40 e994 1cc1
000002a0: beaf d940 9f8d db40 7155 d840 ccb7 17c1
000002b0: 3dd3 da40 6063 dc40 7330 0741 6527 0741
000002c0: 7dfc f240 7150 be40 8e33 19c1 1470 383d
000002d0: 413a db40 5436 76bc 0447 1ac1 0104 4b41
000002e0: ae00 18c1 ea4b ba40 f0d3 18c1 d80f 17c1
000002f0: 294c 16c1 4569 af40 fd52 3841 22f1 09c1
00000300: a0fa d440 a083 15c1 966f bec0 ff24 9f40
00000310: 516d f340 f22b d940 80a7 1ac1 8307 18c1
00000320: 549f 17c1 8b95 db40 a154 b140 4331 d840
00000330: c3d7 ab40 1b3c 0741 e2be ee40 7424 c140
00000340: 1ff5 e640 460c 4a41 f675 19c1 f1bd bd40
00000350: 6731 f340 d86e 18c1 9840 19c1 bad4 b040
00000360: a1d1 13c1 8bba 15c1 66ae db40 22f3 15c1
00000370: 3436 0a41 7bc1 d740 412d dc40 2509 d940
00000380: 5907 19c1 b33c 16c1 4d30 8cc0 1af1 e240
00000390: 3a5d da40 5bff 14c1 129c da40 c0fc d840
000003a0: bb6f 1ac1 8994 d840 adec da40 e6b4 0d41
000003b0: 999d d840 53f9 d740 b413 dd40 12ec d940
000003c0: 5933 dc40 3f74 15c1 bce1 3941 c979 15c1
000003d0: 482e 1c41 1711 db40 ba22 d840 14ac 14c1
000003e0: 823d 3841 edc3 bec0 20c2 d740 5926 dd40
000003f0: f3dc 13c1 d3e3 d940 dece d840 7911 18c1
-9.359475 6.8237777 5.701514 6.92614 5.420834 8.526612 7.6401505 6.1121106
7.314745 12.867829 -9.310695 5.9490304 7.574733 -9.630661 -9.641671 5.5708523
-9.104772 -9.416229 6.749325 -9.250907 8.740744 6.8325734 7.0055 6.854095
-9.480342 -9.521202 -4.433162 7.143734 6.904922 -9.39596 6.8471856 6.790516
-9.737434 6.88893 6.781972 8.861938 6.8367686 6.8040333 6.8913407 6.910938
6.8340816 -9.428264 11.635796 -9.383724 9.925647 6.9084425 6.8232636 -9.099604
11.6157875 -6.02299 6.822805 6.86376 -9.323256 6.858158 6.792147 -9.609123
8.444261 -5.8976674 8.486972 -9.430396 7.7221904 -9.522941 12.677057 11.622664
5.936322 6.7784815 6.815365 -9.688093 6.903883 6.858132 6.904408 -9.525636
6.7328515 6.8449717 8.471708 8.486928 7.5514355 6.004233 -9.563391 -0.06587115
6.737482 0.09190092 -9.651492 12.798279 -9.607077 5.9368415 -9.670034 -9.566441
-9.311687 5.4680815 11.736545 -8.695349 6.7746916 -9.470674 -5.9530754 5.1048474
7.6446333 6.9321294 -9.61429 -9.418279 -9.444295 6.8468156 5.5644474 6.842705
5.50448 8.368377 7.4682994 6.0503345 7.3664126 12.785352 -9.301798 5.8338046
7.652228 -9.50436 -9.570559 5.6182537 -9.259264 -9.324389 6.8492036 -9.341751
8.765681 6.92664 6.9692326 6.9295273 -9.465314 -9.599418 -4.397488 7.1819744
6.872868 -9.327309 6.873946 6.895045 -9.662387 6.820131 6.7279778 8.949493
6.909228 6.6820855 6.7267203 6.7613354 6.7694535 -9.488959 11.610567 -9.287268
9.840882 6.8912883 6.8110914 -9.103103 11.68621 -5.8092403 6.919382 6.7235785
-9.249147 6.7604504 6.8786736 -9.537068 8.426717 -5.8488436 8.356877 -9.385337
7.593289 -9.528601 12.779155 11.643209 5.8429437 6.861506 6.8769636 -9.786355
6.802703 6.8610377 6.76043 -9.482372 6.838286 6.8871307 8.449328 8.447118
7.5933213 5.9473195 -9.575087 0.04502876 6.850861 -0.015027601 -9.642338 12.6884775
-9.500166 5.821767 -9.551743 -9.441368 -9.393594 5.4816003 11.520261 -8.62137
6.655594 -9.344635 -5.9511213 4.973266 7.6070943 6.7866144 -9.665894 -9.501834
-9.476398 6.8620048 5.5415807 6.7560134 5.370088 8.452174 7.460801 6.0357
7.217422 12.627996 -9.591299 5.929436 7.5997806 -9.527061 -9.57827 5.5259676
-9.238679 -9.358043 6.865039 -9.371859 8.638233 6.742368 6.880524 6.7823663
-9.564294 -9.389819 -4.380896 7.0919313 6.82388 -9.312343 6.8315516 6.7808533
-9.652278 6.7681317 6.841391 8.856665 6.769238 6.749185 6.908655 6.810067
6.881268 -9.34088 11.617611 -9.342233 9.761299 6.845836 6.754239 -9.292011
11.515017 -5.9614167 6.742447 6.910931 -9.241443 6.8090606 6.7752523 -9.504266

fc_out.bias f4 [5]
00000000: b989 0e41 31ad 0d41 c10c 0f41 7250 0e41
00000010: c3e7 0d41
8.908624 8.854783 8.940614 8.89464 8.869082
