checkpoints/pre_relu/forcaster_fc_hidden_30/model.Forecaster_fc_hidden(input_features=1,encoder_hidden_features=100,fc_hidden=100,output_length=5)train.train_model(m, train_data, val_data, num_epochs=30,batch_size=10000,learning_rate=1e-5).pt (torch, 86095 bytes, 8 tensors)

encoder.weight_ih_l0 f4 [100, 1]
0.0844181 0.090892464 -0.107148185 0.09175895 0.090328515 0.02284363 0.030517144 0.062473647
-0.05786518 -0.07131215 -0.01628247 0.08014447 0.06787708 0.08117072 0.084135525 0.08282679
0.05425698 0.07939486 -0.04112691 0.039483786 0.06046424 -0.089899555 0.030526739 0.02116402
0.055457532 0.04455457 -0.044176385 -0.025179623 0.018763786 0.026695678 0.093590446 0.083575256
0.05108518 -0.050482903 0.070805825 0.1069954 -0.10920929 0.047067992 0.022735232 -0.06828947
0.0820184 -0.09862941 -0.0228465 -0.09821587 -0.04204545 0.10124974 0.09307681 -0.00059703476
0.06064336 0.034147345 0.046623327 -0.0976826 0.06305018 -0.09889103 0.04388102 0.06618033
-0.09106612 -0.10668212 -0.051995408 -0.055649217 0.1057127 -0.047834266 0.08568549 -0.109041944
0.052599005 -0.037457447 -0.0646103 0.03887974 0.04244584 0.07808411 0.06398106 0.04097188
-0.10515483 -0.0545768 0.028772252 -0.10100084 -0.035845075 0.027286563 0.057888146 0.09234526
0.029441092 0.11067402 0.041775797 -0.030100303 0.07805584 0.06857696 -0.05589268 -0.08166418
0.08621244 -0.04963306 -0.09788952 0.07872239 0.06555433 -0.0036124133 0.100638784 -0.078706935
0.023425005 -0.1129867 0.04799828 -0.056842186
00000000: 66e3 ac3d d425 ba3d 8270 dbbd 1eec bb3d
00000010: 28fe b83d 9022 bb3c 17ff f93c 5ee4 7f3d
00000020: 0a04 6dbd 1b0c 92bd d162 85bc c922 a43d
00000030: 2303 8b3d d63c a63d 3f4f ac3d 18a1 a93d
00000040: 913c 5e3d c699 a23d b174 28bd c0b9 213d
00000050: 5aa9 773d 421d b8bd 3613 fa3c 2b60 ad3c
00000060: 7027 633d da7e 363d 4cf2 34bd 7f45 cebc
00000070: 83b6 993c e5b0 da3c 59ac bf3d 8129 ab3d
00000080: b23e 513d 29c7 4ebd a502 913d 6720 db3d
00000090: 1fa9 dfbd 5eca 403d 3d3f ba3c 5adb 8bbd
000000a0: 43f9 a73d 37fe c9bd 9528 bbbc 6725 c9bd
000000b0: da37 2cbd 065c cf3d 0e9f be3d 5382 1cba
000000c0: 2c65 783d 16de 0b3d 1af8 3e3d d10d c8bd
000000d0: 7420 813d 6187 cabd 96bc 333d 8e89 873d
000000e0: e080 babd 287c dabd 23f9 54bd 6ff0 63bd
000000f0: e67f d83d dded 43bd e07b af3d 6251 dfbd
00000100: 0e72 573d fb6c 19bd 6852 84bd 5d40 1f3d
00000110: b0db 2d3d 90ea 9f3d 8108 833d 21d2 273d
00000120: 6a5b d7bd ec8b 5fbd c9b3 eb3c 87d9 cebd
00000130: 49d2 12bd 1288 df3c 1f1c 6d3d 831f bd3d
00000140: 722e f13c 10a9 e23d 191d 2b3d e994 f6bc
00000150: bedb 9f3d 1472 8c3d b9ef 64bd 8d3f a7bd
00000160: 2690 b03d 094c 4bbd 4d7a c8bd 3439 a13d
00000170: 5941 863d 3dbe 6cbb b51b ce3d 1a31 a1bd
00000180: cce5 bf3c 9265 e7bd d899 443d 5ad3 68bd

encoder.weight_hh_l0 f4 [100, 100]
-0.07710571 0.024522506 0.0047669676 -0.044878397 0.07363471 -0.017937858 -0.020121932 0.033530757
-0.08248078 -0.019777093 -0.05581466 -0.0750249 0.08646291 -0.05246303 0.054342214 0.014897745
0.06399553 0.10765968 -0.015818002 -0.07473375 0.08933085 -0.04291405 0.058593914 0.09260949
0.08606238 -0.057755575 0.05452511 -0.049098037 0.025857037 -0.085321955 0.08241362 0.06526555
0.0054017776 -0.109793045 0.051295027 0.09906515 -0.08522494 0.022735683 -0.09687492 -0.057957076
-0.0065481695 -0.018138636 0.0037255823 -0.027373614 -0.013016504 0.045022234 -0.05499131 0.043805946
0.021611886 0.0024802345 -0.076785296 0.008354943 0.066605955 0.02786317 -0.04804851 0.032312337
-0.06484817 -0.04888115 0.002881829 -0.01842921 -0.018661145 -0.096743636 -0.025339704 -0.018213224
-0.06890621 -0.05379879 0.0024291447 0.011727 0.006999027 0.06389675 -0.055089366 0.06723315
0.07095064 0.03431007 0.008095697 0.052611515 -0.052448045 0.09418571 -0.04271989 0.08570497
0.07267131 -0.015081399 -0.052197784 -0.04512396 0.10602256 0.06340867 -0.03926901 -0.016921684
0.014670457 0.0030139973 0.046201307 0.05460254 -0.038639337 0.05420101 -0.025488177 0.037414175
0.011583853 -0.056284785 0.025836928 -0.016898444 -0.08473223 0.06479638 -0.020691484 -0.03972061
-0.041108675 0.03556172 0.08587822 0.060789254 -0.054238506 0.060124107 0.090444565 -0.04546642
0.06726651 0.07793895 0.028018218 -0.05081899 0.017325094 0.07793815 -0.0026539154 -0.07959233
-0.06514039 0.03648887 -0.045756456 -0.015430001 0.013407985 0.06234916 -0.012632233 -0.01011182
0.023222735 -0.07049589 0.069829434 0.056665022 -0.023545897 -0.029982258 -0.04061362 0.094050676
0.06195544 -0.05329032 -0.004470077 -0.09558246 -0.0064623337 -0.023110135 -0.0033150031 -0.07287177
0.047730334 -0.07412519 0.009524158 -0.052772522 0.08111627 0.07286596 -0.08257211 0.07366569
-0.054895107 0.04357558 0.043869585 0.03331469 -0.08766224 -0.05579421 -0.06910585 0.048078913
-0.06796281 -0.065142535 -0.07321615 -0.030807981 0.047604848 0.06117618 -0.02318368 -0.087066434
0.05160992 0.09414496 0.012361634 0.021912826 -0.07477027 -0.09401229 0.04772848 0.08521012
0.026863586 0.1017723 0.06317005 0.060067553 -0.02203471 0.068210535 0.055931255 -0.022605496
0.04561242 0.10829895 -0.08604245 -0.089028716 0.07794516 0.08764745 -0.027376268 -0.06662225
0.05076945 -0.0027488295 -0.037800558 -0.08030827 0.05607309 0.05699246 -0.07551479 0.027153514
-0.008676827 0.05314806 0.10756321 -0.109594725 -0.032706335 -0.0005468812 0.0059820088 -0.05054488
-0.04921276 -0.047120094 -0.06741997 -0.06554888 -0.049371306 0.05245197 -0.0716997 0.051571127
0.020311624 0.03748255 -0.026616504 -0.03766588 0.011822982 0.09309485 0.08240067 0.055294927
-0.022856612 0.06912795 0.009784674 0.043670837 -0.09971291 -0.012056787 0.016407875 -0.06673183
0.0486206 -0.07384731 0.04128711 -0.103366524 0.0469229 0.08392082 -0.07232646 -0.04251301
-0.037370615 0.021671046 0.115309976 -0.046534054 -0.019979661 -0.026778594 -0.10702741 0.0763562
0.02364073 -0.09052727 0.048026506 0.07900883 0.07561704 0.065893896 -0.10195953 -0.09951204
00000000: 99e9 9dbd 6ce3 c83c 3934 9c3b 69d2 37bd
00000010: cbcd 963d 6af2 92bc c0d6 a4bc 8c57 093d
00000020: afeb a8bd 9203 a2bc ea9d 64bd a8a6 99bd
00000030: 7713 b13d 79e3 56bd f195 5e3d ac15 743c
00000040: 1710 833d ae7c dc3d c194 81bc 020e 99bd
00000050: 18f3 b63d a5c6 2fbd 2c00 703d 0baa bd3d
00000060: 7941 b03d 1c91 6cbd b955 5f3d 061b 49bd
00000070: 23d2 d33c 47bd aebd 79c8 a83d f2a9 853d
00000080: 6501 b13b 2ddb e0bd bc1a 523d abe2 ca3d
00000090: 6a8a aebd 2f40 ba3c 5c66 c6bd 6664 6dbd
000000a0: 0792 d6bb 7a97 94bc e628 743b a13e e0bc
000000b0: 2d43 55bc 3c69 383d 913e 61bd dd6d 333d
000000c0: 690b b13c 6e8b 223b 9c41 9dbd 2ce3 083c
000000d0: b468 883d 4d41 e43c 84ce 44bd f159 043d
000000e0: 1ecf 84bd 9a37 48bd 11dd 3c3b dbf8 96bc
000000f0: 42df 98bc 8721 c6bd 3695 cfbc e633 95bc
00000100: b31e 8dbd 1f5c 5cbd 4932 1f3b 9a22 403c
00000110: 1858 e53b 4ddc 823d 63a5 61bd 89b1 893d
00000120: 924e 913d b788 0c3d d0a3 043c 2c7f 573d
00000130: c3d3 56bd 70e4 c03d 0dfb 2ebd 1686 af3d
00000140: b2d4 943d f917 77bc 58cd 55bd e7d3 38bd
00000150: 5b22 d93d 68dc 813d 8bd8 20bd 589f 8abc
00000160: 5b5c 703c 7c86 453b 953d 3d3d eaa6 5f3d
00000170: 4844 1ebd e101 5e3d 95cc d0bc 9b3f 193d
00000180: 33ca 3d3c e08a 66bd f7a7 d33c 9b6e 8abc
00000190: 1788 adbd f7b3 843d 3081 a9bc 14b2 22bd
000001a0: 9261 28bd 2ba9 113d ece0 af3d 27fe 783d
000001b0: 3229 5ebd b244 763d 003b b93d ff3a 3abd
000001c0: 06c3 893d 759e 9f3d 7686 e53c 9327 50bd
000001d0: 5bed 8d3c 099e 9f3d 50ed 2dbb 4e01 a3bd
000001e0: 5368 85bd 5a75 153d 1f6b 3bbd 1dce 7cbc
000001f0: 2aad 5b3c d561 7f3d 6df7 4ebc 0cac 25bc
00000200: 9b3d be3c 2660 90bd bc02 8f3d 9519 683d
00000210: 53e3 c0bc 5a9d f5bc 785a 26bd a49d c03d
00000220: fdc4 7d3d f346 5abd b979 92bb bdc0 c3bd
00000230: fcc1 d3bb 7751 bdbc 8640 59bb cb3d 95bd
00000240: e280 433d f3ce 97bd 370b 1c3c 0028 58bd
00000250: 4920 a63d c03a 953d 911b a9bd 0ade 963d
00000260: b1d9 60bd 4f7c 323d 98b0 333d fc74 083d
00000270: 4388 b3bd 7888 64bd 5e87 8dbd 65ee 443d
00000280: 1630 8bbd 7369 85bd 59f2 95bd 0561 fcbc
00000290: 4dfd 423d e093 7a3d b3eb bdbc e34f b2bd
000002a0: ec64 533d 13cf c03d 7388 4a3c 8782 b33c
000002b0: 2821 99bd 8489 c0bd f07e 433d a582 ae3d
000002c0: 0611 dc3c ff6d d03d 4d5f 813d 6509 763d
000002d0: 2382 b4bc f7b1 8b3d 2c18 653d 292f b9bc
000002e0: 17d4 3a3d d7cb dd3d 0637 b0bd b054 b6bd
000002f0: b6a1 9f3d 8280 b33d 3244 e0bc 3f71 88bd
00000300: a0f3 4f3d b525 34bb c2d4 1abd aa78 a4bd
00000310: e5ac 653d ed70 693d 80a7 9abd 0c71 de3c
00000320: 4029 0ebc c8b1 593d 1a4a dc3d 3373 e0bd
00000330: 14f7 05bd 935c 0fba ba04 c43b 2608 4fbd
00000340: 5293 49bd 0001 41bd 7b13 8abd 7e3e 86bd
00000350: 9139 4abd e0d7 563d 4bd7 92bd 3f3c 533d
00000360: 9064 a63c 4d87 193d db0a dabc 8a47 1abd
00000370: 2eb5 413c 83a8 be3d afc1 a83d ef7c 623d
00000380: ca3d bbbc f492 8d3d e64f 203c 31e0 323d
00000390: 4836 ccbd d489 45bc cf69 863c b3aa 88bd
000003a0: 6526 473d 423d 97bd ac1c 293d d4b1 d3bd
000003b0: 3a32 403d aede ab3d e51f 94bd 1f22 2ebd
000003c0: ee11 19bd 7a87 b13c a327 ec3d 7e9a 3ebd
000003d0: 63ac a3bc c85e dbbc 3031 dbbd a460 9c3d
000003e0: 34aa c13c 5d66 b9bd 71b7 443d 62cf a13d
000003f0: 1bdd 9a3d 61f3 863d 28d0 d0bd f8cc cbbd

encoder.bias_ih_l0 f4 [100]
0.091637254 0.01773244 0.047585744 0.06513895 -0.026096517 -0.04063392 0.030575093 0.09725739
0.06604957 -0.109640725 -0.055826146 0.0019637828 0.028057367 0.09967109 0.056198876 0.079558045
0.024569444 -0.05458185 -0.035472166 0.102374814 0.08434565 -0.07677692 0.035365053 0.07477279
-0.011120022 0.09899891 -0.027221315 0.06358145 -0.040045276 -0.0014909047 0.038660657 0.1084341
-0.07944211 0.031437714 -0.061992604 0.024195235 0.042943787 -0.010645248 -0.0449463 -0.024891516
0.056599855 -0.079827905 0.058461662 -0.07004495 0.085326195 0.054892883 0.094732895 -0.028913798
0.015554466 -0.05917704 -0.025526142 0.0753891 -0.008827263 -0.08110065 0.09204475 -0.0010578838
-0.028577987 -0.021326616 -0.060210366 -0.06815354 0.10467182 -0.019781277 -0.009631943 -0.05434105
-0.044957362 0.048930164 -0.013120252 0.02683858 0.038366318 0.058194384 0.082498446 -0.05800511
-0.11077831 0.058370546 -0.068850204 -0.10672672 0.03860662 0.10415236 -0.004767194 0.06159654
0.018279301 0.038500763 -0.06250822 0.0062673385 0.01281771 -0.03793691 -0.0134700155 0.0013217586
-0.07222205 -0.061293453 -0.05766987 0.013498736 0.039554324 -0.0698539 0.095738605 -0.06602788
0.016791869 -0.112495646 0.069801725 -0.051575616
00000000: 50ac bb3d 9f43 913c 45e9 423d 9267 853d
00000010: 5dc8 d5bc c16f 26bd 9e78 fa3c e22e c73d
00000020: ff44 873d 518b e0bd f5a9 64bd cfb2 003b
00000030: 90d8 e53c 5b20 cc3d cb30 663d 54ef a23d
00000040: dc45 c93c 3891 5fbd 434b 11bd e3a9 d13d
00000050: 6abd ac3d 383d 9dbd f2da 103d 7a22 993d
00000060: c130 36bc f1bf ca3d 3cff debc fe36 823d
00000070: 8406 24bd 766a c3ba a35a 1e3d b312 de3d
00000080: 8cb2 a2bd d5c4 003d f5eb 7dbd 1635 c63c
00000090: d3e5 2f3d 6869 2ebc 9d19 38bd 4be9 cbbc
000000a0: 40d5 673d d07c a3bd 7f75 6f3d ba73 8fbd
000000b0: 80bf ae3d 5cd7 603d 5203 c23d a1dc ecbc
000000c0: 29d8 7e3c a063 72bd 331c d1bc 9a65 9a3d
000000d0: 39a0 10bc 1918 a6bd f581 bc3d b1a8 8aba
000000e0: 621c eabc 28b5 aebc 259f 76bd 1594 8bbd
000000f0: 2e5e d63d 580c a2bc 4ccf 1dbc b994 5ebd
00000100: 3625 38bd ff6a 483d 53f6 56bc 95dc db3c
00000110: 0026 1d3d 3c5d 6e3d f2f4 a83d c496 6dbd
00000120: bddf e2bd f415 6f3d 5601 8dbd 8a93 dabd
00000130: fa21 1e3d d54d d53d 1f36 9cbb a74c 7c3d
00000140: 79be 953c fab2 1d3d 4f04 80bd 3f5e cd3b
00000150: 5f01 523c bc63 1bbd 57b1 5cbc dc3e ad3a
00000160: 27e9 93bd d80e 7bbd 3e37 6cbd cd29 5d3c
00000170: b703 223d 900f 8fbd 9a12 c43d a039 87bd
00000180: 1a8f 893c 1e64 e6bd 35f4 8e3d f440 53bd

encoder.bias_hh_l0 f4 [100]
0.05105542 0.06507234 0.04001241 0.061980885 0.0619709 0.09436059 0.041658364 0.08292544
-0.05764812 -0.012878253 0.025739115 0.10134168 -0.06689812 0.104628064 -0.054466806 -0.08487074
-0.07712835 -0.0033831159 -0.06804677 0.07636339 0.081414774 -0.105416045 0.04587446 -0.012681343
-0.029982958 0.002763687 -0.077814 0.047734745 0.05754032 0.091479 0.00638207 0.07062377
0.10260368 -0.07631924 -0.091412045 0.10247976 0.06000714 0.08771216 0.014220244 0.04361508
0.0018738958 -0.09869344 0.036863144 -0.08093888 -0.09573683 -0.032459468 0.0016780933 0.05718029
4.2037034e-05 0.027840478 0.09926042 -0.08760186 0.021739332 0.019861089 -0.05023865 -0.010736103
0.018526074 0.022154467 -0.06951931 0.005376905 -0.060800917 -0.10214384 -0.09038509 0.049786963
0.002435381 0.012685153 0.036815822 0.00062333595 0.026383525 -0.02417288 0.07978821 -0.030389566
-0.031678837 0.06285582 0.029986952 -0.018747339 -0.031370584 0.0060767513 0.045329835 0.06353417
-0.048312824 0.095745906 0.026560798 -0.096079856 -0.09079236 0.05338225 0.010537906 0.087974496
0.07454896 -0.049940497 0.07751231 0.06603436 0.018647484 -0.045889147 -0.019976903 -0.029236216
0.03493851 -0.08534505 0.11071263 -0.09216565
00000000: 7d1f 513d a644 853d 0ee4 233d abdf 7d3d
00000010: 33d5 7d3d 2040 c13d f6a1 2a3d d0d4 a93d
00000020: 6f20 6cbd 4fff 52bc d6da d23c 3a8c cf3d
00000030: e201 89bd 3d47 d63d 9618 5fbd b6d0 adbd
00000040: 78f5 9dbd 44b7 5dbb 1b5c 8bbd 6964 9c3d
00000050: cabc a63d 5ee4 d7bd dce6 3b3d 68c5 4fbc
00000060: d29e f5bc f91e 353b f25c 9fbd 8285 433d
00000070: 66af 6b3d 5859 bb3d af20 d13b 32a3 903d
00000080: e121 d23d 434d 9cbd 3d36 bbbd e9e0 d13d
00000090: 0cca 753d 6fa2 b33d 07fc 683c baa5 323d
000000a0: 829d f53a c91f cabd cffd 163d 49c3 a5bd
000000b0: ac11 c4bd 38f4 04bd 78f3 db3a e135 6a3d
000000c0: ec50 3038 b711 e43c 0c49 cb3d 9b68 b3bd
000000d0: af16 b23c b9b3 a23c 0bc7 4dbd 7be6 2fbc
000000e0: fec3 973c 497d b53c 2460 8ebd c030 b03b
000000f0: 620a 79bd ca30 d1bd d11b b9bd 6aed 4b3d
00000100: ea9a 1f3b 63d5 4f3c 30cc 163d 5e67 233a
00000110: 4322 d83c 3406 c6bc 0068 a33d 8af3 f8bc
00000120: abc1 01bd 8dba 803d 32a7 f53c 0594 99bc
00000130: 717e 00bd 7c1f c73b c7ab 393d 341e 823d
00000140: abe3 45bd 6e16 c43d 0896 d93c 84c5 c4bd
00000150: 58f1 b9bd 59a7 5a3d 2ea7 2c3c f92b b43d
00000160: 20ad 983d 688e 4cbd c6be 9e3d 063d 873d
00000170: 9cc2 983c 42f6 3bbd 9aa6 a3bc ca80 efbc
00000180: af1b 0f3d 63c9 aebd 4ebd e23d 58c1 bcbd

fc_hidden.weight f4 [100, 100]
-0.04903608 0.038904574 0.047720473 -0.008251262 -0.0077490495 0.06316388 -0.072961204 -0.07281309
-0.07367268 0.06701546 -0.050066415 -0.008642801 0.0012271436 -0.07810221 0.012707616 -0.055857316
0.061700244 -0.027795536 -0.057588354 -0.040335 0.04396217 0.094652146 -0.08718902 -0.019087968
0.06083974 -0.012624968 -0.026442476 0.045390945 -0.055898357 -0.07849357 -0.11653832 -0.08008478
0.058980986 -0.056369383 -0.006438101 0.06351558 -0.0066689816 -0.11300005 0.06429322 0.04087866
-0.0635253 0.0775022 -0.06439388 0.018124515 0.05505589 -0.0034952003 0.06709958 0.07013169
-0.10729172 0.06887063 0.05587006 0.09836422 -0.02985695 -0.07351543 0.07687223 -0.09407894
0.06446582 0.07869231 0.0786579 0.091631286 -0.034126624 0.012136098 0.005138506 0.070167415
-0.025187355 0.07380553 -0.037680387 -0.10658284 -0.0579486 0.0040500583 -0.07580735 -0.009056996
0.08277685 -0.02822657 -0.015706647 0.021039411 -0.019416276 -0.0403143 -0.044837046 -0.112632915
-0.11617363 -0.11605281 0.028454926 0.07274926 0.020726142 0.043291986 -0.012774746 0.08504742
-0.015048583 -0.0744265 0.07201947 0.060622822 -0.050045174 0.029244578 -0.004334871 -0.035810415
0.031187318 -0.07447328 -0.06052807 -0.055643264 -0.03683819 -0.10047577 0.039612696 -0.105173185
0.044460636 -0.091980495 0.032624885 0.06555654 -0.03480294 0.10008741 0.09711028 0.03439724
0.040530607 -0.02012911 -0.026482416 -0.061508056 -0.084065236 0.021773795 0.045432676 -0.015081993
-0.05463052 -0.013056093 -0.039887894 0.031576872 0.04066277 -0.035856236 -0.059923366 0.068503976
-0.059679445 -0.053325586 0.034274995 0.046920724 0.0649124 -0.056249913 -0.07960849 -0.09038913
-0.05875325 0.06693776 -0.10825321 -0.06233548 0.001996041 0.09599804 0.00879374 0.057509355
-0.011707135 -0.02456462 0.079007275 -0.0025056335 -0.09988287 0.037109718 0.022643248 -0.0005967397
-0.018695882 0.08405685 -0.04722076 -0.010979645 -0.06178221 0.016388083 0.011538961 0.040036865
-0.039765984 0.07353941 -0.08537981 0.07422293 -0.046147127 -0.0010736925 -0.01792617 -0.06958829
0.08498675 -0.10741684 -0.108374074 -0.08869953 0.040271502 0.07318445 0.05212262 0.048927207
0.021766823 0.01970424 -0.07347837 -0.032580372 -0.024885006 -0.055671595 0.021116596 -0.019709392
-0.10882883 -0.010217686 0.005766326 0.018763581 -0.07932486 -0.048164338 -0.06010528 -0.072318144
0.086458385 0.05216031 0.013627512 0.05528897 -0.066248804 -0.03072602 -0.09289299 -0.078757115
-0.028659208 -0.11017474 0.01986221 -0.046193104 -0.05637563 0.033307485 -0.0845246 -0.021062072
0.07832991 -0.029651104 -0.047006283 -0.11091844 0.043196034 0.05133547 -0.07611575 0.012613026
0.017905666 -0.10944304 0.069644235 0.0658088 -0.03598528 -0.024294198 -0.07513221 0.0373586
0.005835743 -0.08779603 -0.017480835 0.067852 -0.11299076 -0.09608866 -0.050314415 0.011159178
-0.10359451 -0.012590731 -0.07550808 0.01846652 -0.0024544955 0.04900641 0.028147632 -0.013008191
-0.020770067 -0.052380227 -0.029224006 0.005176872 -0.06433929 -0.0019916974 0.033428587 0.067634024
0.010098609 -0.11297491 0.041132208 -0.019252878 -0.06378074 -0.056090437 -0.030610606 0.06837171
00000000: 0eda 48bd 675a 1f3d 8b76 433d 4d30 07bc
00000010: bdeb fdbb 105c 813d af6c 95bd 081f 95bd
00000020: b4e1 96bd 673f 893d 7112 4dbd 899a 0dbc
00000030: 1bd8 a03a 0df4 9fbd 9b33 503c a4ca 64bd
00000040: 65b9 7c3d 77b3 e3bc c4e1 6bbd 5036 25bd
00000050: ad11 343d fcd8 c13d 2890 b2bd 5f5e 9cbc
00000060: 1733 793d f4d8 4ebc e49d d8bc dbeb 393d
00000070: adf5 64bd 3dc1 a0bd a5ab eebd 7d03 a4bd
00000080: 0c96 713d 95e3 66bd b5f6 d2bb 7514 823d
00000090: 7987 dabb 926c e7bd 2aac 833d 6270 273d
000000a0: 8d19 82bd 79b9 9e3d f0e0 83bd dd79 943c
000000b0: 4982 613d bb0f 65bb 816b 893d 34a1 8f3d
000000c0: c3bb dbbd 0b0c 8d3d 01d8 643d 2e73 c93d
000000d0: 9096 f4bc 428f 96bd 306f 9d3d 76ac c0bd
000000e0: a806 843d 6f29 a13d 6517 a13d 2fa9 bb3d
000000f0: 5cc8 0bbd 7cd6 463c ea60 a83b efb3 8f3d
00000100: b655 cebc 5b27 973d c056 1abd 1b48 dabd
00000110: 835b 6dbd 5ab6 843b e240 9bbd cb63 14bc
00000120: e986 a93d 683b e7bc 3aab 80bc d85a ac3c
00000130: e20e 9fbc 9c20 25bd 0da7 37bd 16ac e6bd
00000140: 71ec edbd 18ad edbd 4e1a e93c 90fd 943d
00000150: dfc9 a93c f052 313d 2b4d 51bc 572d ae3d
00000160: 558e 76bc ec6c 98bd f27e 933d a34f 783d
00000170: 2bfc 4cbd 5392 ef3c 890b 8ebb f1ad 12bd
00000180: 8c7c ff3c 7285 98bd 48ec 77bd 31ea 63bd
00000190: a4e3 16bd 3ec6 cdbd ec40 223d 0a65 d7bd
000001a0: 5b1c 363d 4560 bcbd aca1 053d 8242 863d
000001b0: 878d 0ebd a1fa cc3d c1e1 c63d 1fe4 0c3d
000001c0: 6c03 263d cee5 a4bc a7f1 d8bc dfef 7bbd
000001d0: 652a acbd f55e b23c 9d17 3a3d 771a 77bc
000001e0: 41c4 5fbd 39e9 55bc 7d61 23bd c056 013d
000001f0: 018e 263d fddd 12bd 3472 75bd d04b 8c3d
00000200: 6f72 74bd ee6b 5abd f063 0c3d f22f 403d
00000210: cbf0 843d 4f66 66bd c709 a3bd f01d b9bd
00000220: 3fa7 70bd aa16 893d dcb3 ddbd 7d53 7fbd
00000230: 03d0 023b 9f9a c43d 9e13 103c ee8e 6b3d
00000240: 48cf 3fbc be3b c9bc 91ce a13d 8e35 24bb
00000250: 648f ccbd 5c00 183d 557e b93c 866e 1cba
00000260: 1b28 99bc ff25 ac3d 8e6a 41bd f8e3 33bc
00000270: 580f 7dbd 4d40 863c e90d 3d3c b2fd 233d
00000280: a8e1 22bd d59b 963d 9cdb aebd 3102 983d
00000290: c504 3dbd 24bb 8cba e7d9 92bc 4e84 8ebd
000002a0: 880d ae3d 5cfd dbbd 3af3 ddbd 19a8 b5bd
000002b0: bbf3 243d bbe1 953d 877e 553d e567 483d
000002c0: 5650 b23c c96a a13c d47b 96bd ff72 05bd
000002d0: a4db cbbc e607 64bd b6fc ac3c 9775 a1bc
000002e0: a6e1 debd 1568 27bc 73f3 bc3b 15b6 993c
000002f0: 1275 a2bd f847 45bd f430 76bd 891b 94bd
00000300: 1811 b13d 0da6 553d ee45 5f3c b076 623d
00000310: 74ad 87bd 22b5 fbbc ae3e bebd 694b a1bd
00000320: b7c6 eabc 4ba3 e1bd 13b6 a23c fb34 3dbd
00000330: 22ea 66bd 6e6d 083d 3c1b adbd 5e8a acbc
00000340: 6f6b a03d dfe6 f2bc a989 40bd 3529 e3bd
00000350: 53ee 303d 2445 523d 93e2 9bbd dea6 4e3c
00000360: e7ae 923c ac23 e0bd a3a1 8e3d c4c6 863d
00000370: 4d65 13bd a004 c7bc ebde 99bd 5505 193d
00000380: c339 bf3b 68ce b3bd f833 8fbc fdf5 8a3d
00000390: b367 e7bd 22ca c4bd 7d16 4ebd fcd4 363c
000003a0: 5c29 d4bd 5a49 4ebc fba3 9abd 1947 973c
000003b0: 9adb 20bb f2ba 483d dd95 e63c 4f20 55bc
000003c0: fd25 aabc a68c 56bd 2f67 efbc c0a2 a93b
000003d0: 51c4 83bd 2387 02bb 6aec 083d b583 8a3d
000003e0: a374 253c 645f e7bd 3f7a 283d 36b8 9dbc
000003f0: 7a9f 82bd 16bf 65bd 18c3 fabc 7806 8c3d

fc_hidden.bias f4 [100]
-0.06441773 -0.002942027 -0.012045806 -0.01640499 0.053574666 0.07782112 0.08754401 -0.021594713
0.11504322 -0.031172069 -0.07451114 -0.078750566 -0.025150737 -0.09368446 -0.026201205 0.056632716
-0.033731844 -0.087703 0.029363004 0.11189311 -0.10972457 -0.04744376 -0.10150928 -0.016871234
-0.006033273 0.019987037 0.013366979 0.098630734 -0.10520451 -0.0075735156 0.09134759 -0.035942093
0.034053817 0.016388388 0.018752335 0.016127886 0.093200274 0.08573485 -0.10043393 0.10643184
-0.038667608 0.051758133 0.010835597 -0.092753105 -0.117809765 0.042818684 0.032376867 0.079110034
0.08194769 -0.04734207 0.01628102 -0.020264814 0.021487908 -0.033351835 0.0077176136 0.09270244
-0.07236232 -0.030948697 0.042895317 -0.100464 -0.010822692 0.086863115 0.026547208 0.05634138
0.10058862 -0.07438945 0.017011479 -0.039631188 -0.025599789 0.106163405 0.012411688 0.08436646
-0.10023522 0.12375769 -0.06958172 -0.046752542 0.038292173 -0.020799223 0.006601121 -0.057423823
0.07063616 -0.06559379 -0.09096323 -0.066066585 0.0031479334 -0.035524145 0.07659523 -0.015615605
0.061600287 -0.07591764 0.07758589 0.04309729 -0.08264763 -0.090689875 -0.019978438 0.033284437
-0.07068685 0.045538638 -0.04530837 -0.01829895
00000000: 71ed 83bd 06cf 40bb c65b 45bc c263 86bc
00000010: 1c71 5b3d ae60 9f3d 464a b33d 65e7 b0bc
00000020: c89b eb3d 915c ffbc 4c99 98bd fa47 a1bd
00000030: eb08 cebc a3dd bfbd e9a3 d6bc b5f7 673d
00000040: 672a 0abd a19d b3bd af8a f03c 3728 e53d
00000050: 46b7 e0bd 6354 42bd 19e4 cfbd 8b35 8abc
00000060: c3b2 c5bb dbbb a33c 2c01 5b3c e9fe c93d
00000070: 7675 d7bd 412b f8bb 7214 bb3d 0438 13bd
00000080: 047c 0b3d f140 863c 7f9e 993c a11e 843c
00000090: c9df be3d c195 af3d 4eb0 cdbd f0f8 d93d
000000a0: ed61 1ebd 5600 543d ca87 313c 57f5 bdbd
000000b0: 3f46 f1bd a562 2f3d 9b9d 043d 7104 a23d
000000c0: 31d4 a73d c2e9 41bd c65f 853c 6502 a6bc
000000d0: 6907 b03c ef9b 08bd 09e4 fc3b c7da bd3d
000000e0: b232 94bd 1f88 fdbc 00b3 2f3d 12c0 cdbd
000000f0: a951 31bc 4ae5 b13d 8879 d93c 38c6 663d
00000100: 6801 ce3d 7f59 98bd a85b 8b3c 5054 22bd
00000110: a6b6 d1bc 336c d93d 655a 4b3c 53c8 ac3d
00000120: 1f48 cdbd ac74 fd3d dc80 8ebd 987f 3fbd
00000130: 41d8 1c3d 2263 aabc 374e d83b 3e35 6bbd
00000140: b1a9 903d 0956 86bd ee4a babd eb4d 87bd
00000150: 8f4d 4e3b c481 11bd f6dd 9c3d 98d8 7fbc
00000160: 9550 7c3d b57a 9bbd 5ae5 9e3d c986 303d
00000170: 2943 a9bd 9dbb b9bd d2a9 a3bc 4355 083d
00000180: 44c4 90bd b986 3a3d 4595 39bd aee7 95bc

fc_out.weight f4 [5, 100]
-0.06963045 -0.052704025 -0.10213213 0.06451869 0.024974063 0.03907022 0.018348975 -0.07936572
0.09542665 0.039098024 -0.054343354 0.041596867 0.089846335 -0.06463703 0.03334057 -0.0065488312
-0.075475395 0.013311812 0.099973604 0.10342148 0.046294868 -0.0031277484 -0.079943426 -0.112979025
0.06604209 -0.00016962993 -0.114178374 0.016000364 -0.076893486 0.08290365 0.09292165 0.036554035
0.00559424 0.06195844 0.011416414 0.07350841 -0.024500983 0.09364577 0.08292353 0.09376334
-0.022565298 0.06044048 0.08253753 -0.03931612 -0.021060597 0.05396397 0.11170946 -0.017252317
0.03366853 0.030421548 0.088024914 0.0124998065 -0.04936148 -0.07249487 -0.031149 -0.028992245
0.081816226 0.038962554 -0.05513417 0.028464219 0.056971174 0.06957864 -0.11618339 -0.055737745
0.050035708 -0.06266802 -0.09202516 -0.0826882 0.047328208 -0.009028135 -0.10297343 -0.02905433
-0.041378986 -0.03157843 0.063267626 0.009734415 -0.06271562 -0.0356366 0.06618826 0.021039903
0.118352026 -0.0035314353 -0.06293539 0.059768576 -0.052087322 0.040906463 -0.035616174 0.03458976
-0.036776785 0.034517735 -0.022997418 0.06983352 0.0035287803 0.022141406 -0.05372058 -0.094351135
0.11228959 0.07515104 0.053491633 0.08756692 -0.008462448 0.034180585 0.052761022 0.037482727
-0.060005 0.10233308 0.06169806 -0.06839062 0.112027176 0.08984475 -0.096750505 -0.019151881
0.034498837 -0.046789397 -0.027319329 -0.009179787 -0.04573556 -0.0241853 0.07366085 0.0807111
0.04169758 0.09175716 -0.076218076 0.07489334 0.0299484 0.06407058 -0.037978485 0.11989762
-0.07321197 0.056861907 -0.042575773 0.0072955936 0.010835799 0.05254347 0.065700896 0.078018524
0.085547544 -0.04905595 -0.053633444 0.029806485 0.06301174 -0.047493458 0.10559372 -0.0228302
-0.020382972 0.042558175 0.057356168 -0.10368719 -0.022439642 -0.016148051 0.12152737 0.07349247
0.09472474 -0.095720515 0.081822805 0.118780866 -0.070943095 0.04290886 0.040300645 -0.0713735
-0.0610228 0.050248418 0.04399098 -0.026474334 0.018241014 -0.07565779 0.018790811 0.08040044
-0.040225357 0.061899517 -0.034139454 0.08802409 -0.075066485 0.1134323 -0.017211493 0.07471131
0.00560599 -0.05730943 -0.0007104261 -0.11029854 0.013328584 0.022476096 0.038884453 -0.008388504
0.03360133 0.102395535 0.015004849 0.019073106 -0.047577053 0.08092117 0.107261136 -0.08257618
-0.063512914 0.009853776 0.0018892532 0.035839323 0.09057621 0.022248836 0.06520348 0.046884242
-0.014432838 0.04760817 -0.06930336 0.0124135995 -0.10787259 0.013046444 -0.05005321 -0.030582326
-0.0446413 0.071944885 0.036818586 -0.0727985 -0.067439355 -0.0031257034 0.026119743 -0.026145807
0.04911345 -0.08158623 0.024272159 0.047400486 -0.07671868 0.044040687 0.07072124 -0.033320434
0.08124277 0.09070243 -0.0745654 0.10398386 -0.077456795 -0.0030504032 0.0078705 -0.027844973
-0.10177136 0.040227123 0.082202815 0.041424178 0.09350377 -0.014265771 -0.1120031 -0.024826987
0.007902904 -0.06723823 -0.044798546 -0.07198174 -0.022489596 0.08184974 0.07576328 -0.112743914
0.0068320055 0.07085612 0.01906293 -0.0877521 0.013851375 -0.03446565 0.029934341 0.049332898
00000000: 699a 8ebd 2de0 57bd a62a d1bd 6022 843d
00000010: 6896 cc3c 1808 203d 9750 963c 7f8a a2bd
00000020: 0c6f c33d 4025 203d 2397 5ebd 7a61 2a3d
00000030: 5b01 b83d 6b60 84bd 1f90 083d 9497 d6bb
00000040: d892 9abd c919 5a3c f6be cc3d a4ce d33d
00000050: b09f 3d3d e9fa 4cbb 61b9 a3bd 8c61 e7bd
00000060: 1341 873d b0de 31b9 5ad6 e9bd 3213 833c
00000070: 557a 9dbd 64c9 a93d b54d be3d afb9 153d
00000080: e34f b73b 22c8 7d3d e90b 3b3c 948b 963d
00000090: 49b6 c8bc 5ac9 bf3d d0d3 a93d fe06 c03d
000000a0: dcda b8bc 7090 773d 7009 a93d f109 21bd
000000b0: 4687 acbc 5309 5d3d eec7 e43d bb54 8dbc
000000c0: 03e8 093d 9c36 f93c 6846 b43d fdcb 4c3c
000000d0: 432f 4abd 3178 94bd 302c ffbc 2581 edbc
000000e0: 448f a73d 3397 1f3d 5ed4 61bd cb2d e93c
000000f0: 9b5a 693d 3f7f 8e3d 8ff1 edbd 434d 64bd
00000100: 3ef2 4c3d 1758 80bd b077 bcbd 6e58 a9bd
00000110: 39db 413d beea 13bc bce3 d2bd 5903 eebc
00000120: 037d 29bd 6258 01bd 7592 813d 197d 1f3c
00000130: 0c71 80bd aff7 11bd b68d 873d e05b ac3c
00000140: 8c62 f23d a76f 67bb 45e4 80bd e5cf 743d
00000150: 8459 55bd 898d 273d 44e2 11bd fead 0d3d
00000160: 41a3 16bd 7862 0d3d 1565 bcbc e004 8f3d
00000170: 1c43 673b e561 b53c 1c0a 5cbd 2b3b c1bd
00000180: 16f8 e53d cae8 993d 0b1a 5b3d 4956 b33d
00000190: 14a6 0abc f100 0c3d f11b 583d 7d87 193d
000001a0: cec7 75bd 0194 d13d 1bb7 7c3d 6210 8cbd
000001b0: 816e e53d 8600 b83d 2125 c6bd 68e4 9cbc
000001c0: a74e 0d3d 3da6 3fbd c9cc dfbc d166 16bc
000001d0: 3655 3bbd 4020 c6bc 80db 963d dc4b a53d
000001e0: 15cb 2a3d 2eeb bb3d 3918 9cbd ae61 993d
000001f0: 5956 f53c 7037 833d 548f 1bbd e28c f53d
00000200: 28f0 95bd 08e8 683d ef63 2ebd e00f ef3b
00000210: a388 313c d237 573d 318e 863d 2dc8 9f3d
00000220: 8d33 af3d e4ee 48bd beae 5bbd bb2c f43c
00000230: 4d0c 813d 8088 42bd 8541 d83d 6606 bbbc
00000240: 31fa a6bc 7b51 2e3d 4dee 6a3d f359 d4bd
00000250: 57d3 b7bc eb48 84bc 57e3 f83d 3883 963d
00000260: 0bff c13d 1e09 c4bd b792 a73d 6243 f33d
00000270: 9d4a 91bd 33c1 2f3d 4a12 253d 452c 92bd
00000280: 0bf3 79bd 49d1 4d3d e32f 343d b4e0 d8bc
00000290: 2e6e 953c 79f2 9abd 30ef 993c fca8 a43d
000002a0: 58c3 24bd 598a 7d3d d0d5 0bbd f945 b43d
000002b0: 75bc 99bd 324f e83d 1eff 8cbc 3e02 993d
000002c0: 74b2 b73b 4bbd 6abd e33b 3aba 33e4 e1bd
000002d0: 2260 5a3c ca1f b83c 4e45 1f3d f06f 09bc
000002e0: 8ca1 093d c0b4 d13d e6d6 753c 343f 9c3c
000002f0: 28e0 42bd 00ba a53d baab db3d b31d a9bd
00000300: 0f13 82bd bb71 213c d1a0 f73a 41cc 123d
00000310: 0580 b93d 3143 b63c 6789 853d b109 403d
00000320: b677 6cbc c900 433d ecee 8dbd 6962 4b3c
00000330: 4eec dcbd c1c0 553c 9804 4dbd c987 fabc
00000340: ccd9 36bd d757 933d 16cf 163d 6117 95bd
00000350: a51d 8abd 9ad8 4cbb 12f9 d53c bb2f d6bc
00000360: 2f2b 493d ae16 a7bd 68d6 c63c 0327 423d
00000370: af1e 9dbd 0264 343d 4cd6 903d 027b 08bd
00000380: 9c62 a63d 32c2 b93d bfb5 98bd 7df5 d43d
00000390: aba1 9ebd 46e9 47bb 45f3 003c 241b e4bc
000003a0: 816d d0bd 32c5 243d f359 a83d 66ac 293d
000003b0: e87e bf3d fbba 69bc e261 e5bd f761 cbbc
000003c0: 2f7b 013c 32b4 89bd ae7e 37bd 2a6b 93bd
000003d0: 1a3c b8bc d6a0 a73d c729 9b3d 48e6 e6bd
000003e0: 04df df3b 031d 913d dd29 9c3c 5fb7 b3bd
000003f0: e1f0 623c da2b 0dbd dd38 f53c 4b11 4a3d

fc_out.bias f4 [5]
-0.04509909 0.08676494 -0.04075573 -0.042486854 -0.021964699
00000000: d3b9 38bd d1b1 b13d 7bef 26bd b206 2ebd
00000010: 50ef b3bc
