checkpoints/ nn.Sequential(nn.Linear(120, 100), nn.Linear(100, 20)).pt (torch, 57951 bytes, 4 tensors)

0.weight f4 [100, 120]
00000000: c657 573d 0620 b53d 30c9 613d 8045 febc
00000010: 2e32 0b3d e48b a9bb a66d 85bd 6595 babd
00000020: 71f2 353d 1d29 91bd 8f0c 893d d0cd 673d
00000030: 9147 05bd e0b4 8c3c 18b2 443d 43e0 ca3d
00000040: 64d3 1dbd baf6 e0bc f3a3 8ebd 466a 86bd
00000050: fe0b 7d3d 9897 89bd b5fd e8bb f9d4 e43c
00000060: 2b01 97bd 819f 0b3d 9670 c2bd aef4 3fbd
00000070: ef70 813d 2027 f6bb 039c 5ebd 4798 4a3d
00000080: ad8a 9bbd 5032 3f3c 4a5b e5bc 9500 abbc
00000090: d00b f4bc 7dba 85bd 923b a63d 06e6 8cbd
000000a0: b5af 7d3c 935b 1fbd 68bd 5b3c 002a 9e3d
000000b0: 3edd 073c 73aa cc3c f9f5 133d f9a3 953d
000000c0: 8263 9abd c4bd 52bd d542 193d a4aa 8bbc
000000d0: 643f a4bd 9d52 8d3d b7f6 97bd 0bd5 ddbc
000000e0: de8c a2bd 9aa3 46bd f04f 24bd ea7c aabd
000000f0: 03d3 a23d 3abb 88bd 2d56 ee3c 29ee 103d
00000100: 2b99 cc3d a56b 9b3d 619e 273c 73b3 873d
00000110: 532b fd3b 7d68 383d 97df 0d3d b863 6b3d
00000120: 0fdf 5abd c95c 403b 7dd4 89bd c42f 43bd
00000130: 9dcc c43d ea02 8cbd 7e99 e2bc 3ae9 85bd
00000140: a270 b0bd dd72 c1ba 9148 bfbd b452 45bd
00000150: 1201 97bd 324a 373d ac16 5c3b 8905 97bd
00000160: 08f7 1dbc d185 57bd 6588 88bd 82d5 653d
00000170: 3f72 88bc 9b1f fb3c 3567 383d 0e8f a1bd
00000180: 9e1c abbb 0b4f fcbc 0fee 973d 8268 b3bb
00000190: 0d74 96bd 95aa aebd d8b4 5ebd 1833 623c
000001a0: ffea 53bd 9a20 84bd 8554 bd3d 6000 77bd
000001b0: 41be e7bc 94ca 683d b537 f13c 7c4a 603d
000001c0: 498d 943d 4214 6b3d 35de 4d3b 6000 083d
000001d0: e140 3bbd ed4f bebd a3ca 25bd 7cc5 303d
000001e0: bd8e 233d 4fbf 573c b4de 7dbd c261 95bd
000001f0: 0d1b ce3b f0f4 abbd ee01 993b 4e7e a63d
00000200: 3dc4 c7bd b202 9bb9 e136 203c 5133 93bb
00000210: ad40 ccbd ea2f 97bb ff78 bd3d 3965 45bc
00000220: 86e7 4b3d df96 9a3c 7add 853d 7b9f 453d
00000230: 49d7 6a3d 5f54 8abc a8e3 11bd 7db1 963b
00000240: bfaf 96bd 519f 973c 764b 9abd f2ea 9a3d
00000250: c00c 16bc 7b70 95bd 6cd5 9b3d 7a41 64bd
00000260: bd58 403d dfd1 34bc 190c bb3c 1436 a83d
00000270: df73 b1bd 8025 833b 2f29 07bd 9982 713d
00000280: 973e 293d 84b0 963d 3d28 a4bc 3f80 5a3d
00000290: b3e4 9ebd 9ff4 b1bd a9b5 09bc 1ce1 853b
000002a0: ef93 9dbc f8c8 bbbd 76b6 86bc 0aa4 d33b
000002b0: 5760 7b3d 5328 b73d 64ce a43d c877 ab3d
000002c0: ea2e 9d3d f934 c5bb 9984 85bd d726 003d
000002d0: d81d 373c 7123 51bd 83cf 14bd 5106 8d3d
000002e0: b3d2 0b3d 8055 8dbd 1abf 723d d98c a13d
000002f0: b61e 683b 1bc2 893d 3f2a b3ba 2263 903c
00000300: d312 cfbc cfbe 83bd e13c 2dbd 9239 3a3d
00000310: 6c23 083d 586a 04bd e09b 5cbd 569f 9dbd
00000320: 6ea1 9c3d aafd 26bd 783f a83c 1620 b43d
00000330: 5274 7e3d 5210 82bc ec79 89bd b038 8dbb
00000340: dae2 8c3d 2eb8 753d 6583 98bd a80f bc3d
00000350: 611b adbd 9625 8b3c d35b fe3c 6a66 b23d
00000360: 7b62 943c b61d b13d f096 86bc 6956 803c
00000370: 150b 2abd fbe7 063d fa58 d33b d4c6 f3bc
00000380: 9cc1 303d 349a 213c 2d71 913d 2f94 b33d
00000390: 38e7 c1bc be42 8e3d 6066 883c 1bb3 633d
000003a0: 5161 53ba 66c2 573d 7cd8 a0bd 84cb 32bd
000003b0: 16f1 2cbc 2753 513c b242 983d 0397 433d
000003c0: 4332 c4bc dc3f 51bd 73b7 c73d fb60 1abd
000003d0: 9128 22bd bb63 573d 6208 13bc d592 85bd
000003e0: f572 78bd 795a 403d 19f7 583d 37ba 5dbb
000003f0: feaa cebc e739 503d 7a7c 813d e737 fcbc
0.05257394 0.088439986 0.055123508 -0.031039 0.033983402 -0.005174147 -0.065150544 -0.09110526
0.044420663 -0.0708792 0.066918485 0.056592762 -0.032538954 0.017176092 0.048021406 0.09906056
-0.038531676 -0.027461398 -0.069648646 -0.06563239 0.061779015 -0.06718367 -0.0071103224 0.027933585
-0.0737327 0.03408766 -0.0949413 -0.046864204 0.063203685 -0.0075119883 -0.054348003 0.04946163
-0.0759481 0.01166971 -0.027997632 -0.020874301 -0.029790789 -0.065297104 0.08116831 -0.06879811
0.015483786 -0.03890569 0.013411857 0.077228546 0.008292494 0.02498362 0.03612325 0.07306666
-0.07538511 -0.051450506 0.03741725 -0.017049141 -0.08019903 0.06900523 -0.07420104 -0.027079126
-0.079370245 -0.048495866 -0.040115297 -0.08324607 0.079504035 -0.06676336 0.029093826 0.035383377
0.09990152 0.07588891 0.010230632 0.06626024 0.007726112 0.045021523 0.03463706 0.057468146
-0.05343538 0.002935218 -0.06729982 -0.047652975 0.096093394 -0.06836493 -0.027661081 -0.06538625
-0.08615233 -0.0014758963 -0.09340013 -0.048174575 -0.07373251 0.044748493 0.003358285 -0.073741026
-0.009641416 -0.05261785 -0.0666664 0.05611182 -0.01665604 0.03065472 0.0450203 -0.07888614
-0.0052219173 -0.03079941 0.07418453 -0.005475105 -0.07346354 -0.0852863 -0.054371685 0.013806127
-0.05173778 -0.06451531 0.092446364 -0.060303092 -0.028288962 0.05683382 0.029445508 0.054758534
0.072535105 0.057392366 0.0031412963 0.033203483 -0.04571617 -0.092925884 -0.040476453 0.043157086
0.039931048 0.01316817 -0.061979964 -0.072940364 0.006289846 -0.083963275 0.0046694195 0.081295595
-0.09754226 -0.00029565912 0.009778709 -0.0044922014 -0.099732734 -0.004613866 0.09251594 -0.012048059
0.049781345 0.018870769 0.06536384 0.048247796 0.05733422 -0.016885934 -0.0356175 0.004598795
-0.0735774 0.018508585 -0.07533924 0.075643435 -0.009158313 -0.072968446 0.07609066 -0.055726506
0.046959627 -0.011036365 0.022832917 0.082134396 -0.08664679 0.004002273 -0.03299826 0.05896244
0.041319456 0.073578864 -0.020038718 0.05334496 -0.07758465 -0.08689236 -0.008405128 0.004085673
-0.01923558 -0.09169191 -0.016444426 0.006458764 0.061371174 0.08943238 0.080471784 0.08372456
0.07674964 -0.0060182777 -0.065194316 0.03128704 0.011176549 -0.05105919 -0.03633071 0.068859704
0.034136485 -0.069010735 0.05926428 0.07888193 0.0035418696 0.06726476 -0.0013669207 0.017625395
-0.02527753 -0.06432878 -0.042294387 0.04546506 0.033236906 -0.03232798 -0.05385959 -0.076964065
0.07647978 -0.040769257 0.020538077 0.087951824 0.06212265 -0.015876923 -0.06712708 -0.004309736
0.06879206 0.0599901 -0.074469365 0.09182674 -0.08452488 0.016985696 0.031049645 0.0871094
0.018113365 0.08648245 -0.016429394 0.015666204 -0.041514475 0.032936078 0.006449816 -0.029757895
0.04315339 0.009863425 0.07101665 0.08768498 -0.023669824 0.06946324 0.016650379 0.05559073
-0.00080635125 0.052675627 -0.07853791 -0.04365112 -0.010555526 0.012776173 0.07434596 0.047751438
-0.023949748 -0.05108629 0.09751787 -0.037690144 -0.03958947 0.052585345 -0.008974167 -0.065221466
-0.060656507 0.04696128 0.052970026 -0.0033832917 -0.02522802 0.05083647 0.0632257 -0.030788375

0.bias f4 [100]
00000000: 90ef 00bd 931d a2bb 3299 febc 035b b9bd
00000010: 88fb 2cbd 9fc8 703d 3c2b 383d 7c44 be3d
00000020: f8db bb3c de39 653c bb3e 1c3d e297 8cbb
00000030: c4c8 28bc 134e 8fbd ab80 93bd 9f54 2d3d
00000040: 823f 22bc cd37 ec3c da5b 08b9 6405 4dbc
00000050: 3589 713d 012c 00bb 8c3f a7bd 37f3 9e3d
00000060: f0f3 e33c 2b45 45bd bb1b 5abd 9073 87bd
00000070: 84ac 44bd b5ee 47bd d86e 9d3d 7aff 0c3d
00000080: 2ca8 c43b 86e2 863d d642 31bc dab0 7d3c
00000090: 1d2d c83c cced 1f3c 561c 8b3d c476 58bd
000000a0: cfba fcbc e07f 2fbd 3cb2 3b3d 1b21 f93c
000000b0: 0bd0 61bd 3386 753d 8346 d13c b531 8ebd
000000c0: 9180 36bc 6c37 d53c 7708 dbbc 08da 4cbd
000000d0: c3d3 db3c 4d69 70bd f87e dc3c f353 263d
000000e0: 7929 823d ad48 13bd 5087 d9bc ef03 3c3d
000000f0: a6bd cfbc cd8b aebd ff4c a3bd be7c 25bc
00000100: 69ab 10bd e9b0 2cbd c157 b63d 1797 813d
00000110: baf6 40bb 9f92 0e3d 5383 2dbd 5dc3 17bd
00000120: cc23 7a3d d34e 96bd 1652 bfba a009 7ebd
00000130: a301 5a3c b506 7b3b dda4 4ebd e441 913b
00000140: faae c9bc af6d d8bc 53c1 47bd fa29 043d
00000150: a27b 97bc 358f 8dbd f983 20bd e862 5abc
00000160: ba56 2d3d 6bfe 1abc c11c 533d f897 f73c
00000170: 4d3c 9a3d c6bf 75bd 02a6 9e3d cc58 a0bc
00000180: f84d 433c 65a8 7cbd c4c4 4b3c 0b31 e1bc
-0.031478465 -0.004947373 -0.031078909 -0.09050562 -0.042232066 0.058785077 0.044963107 0.09290406
0.022932038 0.013990847 0.038145762 -0.004290567 -0.0103017725 -0.06997313 -0.07202276 0.04231703
-0.009902837 0.028835202 -0.00013004188 -0.012513492 0.05896874 -0.0019557478 -0.081664175 0.07761233
0.02782628 -0.048161667 -0.053249102 -0.06613839 -0.048016086 -0.048811633 0.076871574 0.03442333
0.006001493 0.06586175 -0.010819158 0.015484059 0.024435574 0.009761285 0.06792514 -0.05284764
-0.030850796 -0.04284656 0.045824274 0.030411294 -0.055130046 0.059942435 0.025546318 -0.069430746
-0.011139051 0.026027404 -0.026737435 -0.05001262 0.026834374 -0.058694173 0.026916012 0.040607404
0.063555665 -0.03595798 -0.02655378 0.04590219 -0.025358986 -0.08522759 -0.0797367 -0.010100542
-0.03531972 -0.042160902 0.089034565 0.06327646 -0.0029443935 0.034807798 -0.04236157 -0.037051547
0.061069295 -0.07339253 -0.0014596607 -0.062020898 0.013306054 0.0038303558 -0.050450195 0.0044329036
-0.024619568 -0.026419489 -0.048768353 0.032266594 -0.01849157 -0.0691208 -0.03918836 -0.013329245
0.042319037 -0.009460072 0.051541094 0.030223832 0.07531033 -0.059997343 0.07746507 -0.019573592
0.011920445 -0.06168403 0.012437049 -0.027489206

1.weight f4 [20, 100]
00000000: 85a1 b6bd 322f b4bd 8a55 103c abcb eebc
00000010: 9385 dabd 4503 a5bc cb44 bbbd b1e7 883c
00000020: b7c3 6fbc b59e 243d ed64 e0bc 022d 3d3d
00000030: ac4b 733d 2120 d43d b884 56bc 3898 afbd
00000040: 52cb 8bbd 5740 22bb 4b6d 093d b4e5 abbd
00000050: b835 b8bd 9033 84bc 2644 c93d 52c5 8e3d
00000060: f9ba b9bc 2c88 f0bc 0d8c 28bd 5a3b 98bd
00000070: faa4 613d 5670 83bc 5d19 43bd 8836 e3bc
00000080: 182f 7bbd 045d 903d 3d9f 803c a6d4 453c
00000090: 6ae4 42bd 3e3c a13d 065d 733d e914 6e3d
000000a0: c696 f73c f90b 3abd 959d 35bd e5df 783d
000000b0: 577d 8c3c b258 bfbc a48a 52bd b7ff d33c
000000c0: bc70 3a3d 26c3 da3d e54c 2a3d f24c cebc
000000d0: 8f65 23bc 8615 33bd acbf 3f3d 97e1 2b3b
000000e0: f54a df3d 1477 8b3c 35af b9bc 1aab afbd
000000f0: a208 4b3c 84a4 8abd 9f6f 41bd a8de d5bd
00000100: d2b7 973d 5adc 693d 8b8c 9a3d 2455 cabd
00000110: 1ae5 9bbc ccc2 48bd 1833 b2bc 906f 04bd
00000120: 1407 86bc ac59 afb9 2ed1 abbd 5f8c 13bd
00000130: 71ab 463d 89da 493c d8bd 88bd bb8a b6ba
00000140: 947e 903d 1872 283d 5020 26bb 3b1d 8f3d
00000150: a39c c13c d1cc 263d 4ad6 253d 68f6 8e3d
00000160: 83b1 bcbc 14b6 c7ba 1fb5 43bd 6f02 ae3a
00000170: 2fb1 da3d d29e 3b3d 55a3 e5bc fc0d c2bd
00000180: 7e2c 103d 4ff5 57bd 32c0 803d 0839 d63d
00000190: f247 71bd 182b 873d 85a6 9e3d 26d8 893d
000001a0: a946 23bd c097 46bd 43e2 8a3c 40f0 9a3c
000001b0: ef6f c93c e67e 94bd ad16 aebd bc96 633b
000001c0: faf1 eb3b 362d f63c be88 76bc 238d 9f3d
000001d0: 57ac a2bc edb7 ae3d a037 bf3d 7d0b 9e3a
000001e0: fc14 a23a 64d4 32bc eb7c ad3c 43db 04bc
000001f0: 47a9 8a3c a735 cabd 20f9 acbd 0de9 783c
00000200: 616d 2e3d 8b9a d7bc 1051 913d 9437 f73c
00000210: b07f 833c f2fc aebd 1887 e23d 97ba 4bbb
00000220: 73d3 653d 4232 9dbd 52bd 33bc 81d9 4c3d
00000230: c722 a7bd 80eb 8a3d 7901 c63c 6d4e 953b
00000240: f432 513d 560b 8a3c 7e06 673d a398 7ebd
00000250: 4b4e 773d 5418 ac3d 36b5 bc3c 4cd6 1a3d
00000260: 2b7c 05bc 65b7 88bd 84b5 fa3c 108f 66bc
00000270: f1fd 8fbd 3b4a 893d 98a6 83bd fe41 7a3c
00000280: 7775 56bc fb3e ecbc 7750 9a3d f725 35bd
00000290: fd95 823d 84cf 28bd 2a9f c63d 689d 903d
000002a0: 766d 5c3c 0e85 04bc 5b31 c43c 824a 903c
000002b0: a436 9abd f298 bcbc fffb 603d 6600 74bd
000002c0: a4cf 68bd afb7 45bd 2c0f 873d 83aa bebb
000002d0: 4c49 4fbd 5f10 b4bc afbf 13bd 1649 d4bc
000002e0: 54cc cb3d 7a28 9bbd 6385 bd39 59e1 73bd
000002f0: 7c68 653d 9563 da3d 6522 163d 3eaf ca3c
00000300: dbbc 6abd 93e5 4dbd db89 fabc 4284 75bc
00000310: a5d2 3a3d 22f8 c73c 16d7 a1bd 20bd af3d
00000320: 5db0 1bbd d305 173c 25f9 bebd 96e4 443d
00000330: 67df 933d 8fcf 103d 628a 8dbd 8a09 74bd
00000340: fc71 9fbd b7ac 483b 54f1 79bd 5bd5 32bd
00000350: fbf4 cabd be87 903d 6c2b ccbc 562b 5fbc
00000360: 0116 7fbd 2800 58bd cb75 1dbd 1e0f bdbd
00000370: b811 61bc 1779 aebd ee8e 853d 8196 a7bd
00000380: 2dba 97bd 9342 b33d 2447 5c3d b479 73bd
00000390: 92e9 823d 1487 82bd d2c3 bc3d 2a41 afbd
000003a0: 4127 7fbd d291 b03d 1e7f 29bd 84f1 0cbc
000003b0: 17f9 3dbd cac1 b1bd e1c0 b63d 9d5c 503d
000003c0: 2f19 c73d 4e52 91bd c800 46bd 5e93 a33d
000003d0: d735 3dbd a567 ad3b c2b4 b7bd a360 333d
000003e0: 8a82 33bd 0ad1 ef3c d307 d6bd f896 6d3c
000003f0: d732 bc3c 9b62 ba3c 3807 95bd a6d5 bcbd
-0.08917526 -0.08798064 0.008809457 -0.02914985 -0.106700085 -0.02014316 -0.091439806 0.016712042
-0.014634064 0.040190417 -0.027391875 0.0461855 0.05939834 0.103576906 -0.013093166 -0.08573955
-0.0682589 -0.0024757588 0.033551496 -0.08393422 -0.08994621 -0.016137868 0.098274514 0.069712296
-0.022672163 -0.029361807 -0.041149188 -0.074331954 0.055088975 -0.016044777 -0.04763161 -0.027735963
-0.06132421 0.07048991 0.01570093 0.012074625 -0.047581114 0.078728184 0.059414886 0.05812541
0.030223262 -0.045421574 -0.044339735 0.060760397 0.01714961 -0.023357723 -0.05140175 0.02587877
0.045517668 0.10681753 0.04157724 -0.025183175 -0.009972944 -0.0437217 0.046813652 0.0026226991
0.10902969 0.017024554 -0.022666553 -0.08577557 0.012392195 -0.0676966 -0.04722559 -0.10442859
0.07408108 0.05709491 0.07546338 -0.098795205 -0.019030143 -0.049013898 -0.021752879 -0.032332957
-0.016360797 -0.00033445412 -0.08389507 -0.03602254 0.048503343 0.012320169 -0.06676835 -0.0013926843
0.07055393 0.041124433 -0.002534885 0.06987997 0.02363426 0.040722672 0.040487565 0.06980592
-0.023033863 -0.0015236759 -0.047780152 0.0013275872 0.10678326 0.04580576 -0.028031984 -0.094753236
0.03519868 -0.05272418 0.06286658 0.104600966 -0.058906503 0.06600016 0.07746605 0.0673068
-0.03986231 -0.048484564 0.016953593 0.018913388 0.024589507 -0.072507665 -0.08500419 0.0034727296
0.0072004767 0.030050855 -0.01504725 0.077905916 -0.019857569 0.08531175 0.093367815 0.0012057867
0.0012365873 -0.010914896 0.02117773 -0.008108917 0.01692642 -0.098735146 -0.08445954 0.015192282
0.04258478 -0.026318809 0.070955396 0.030177869 0.016052097 -0.08544339 0.11060923 -0.0031086558
0.056109857 -0.076756015 -0.01097043 0.050012115 -0.0816093 0.06783199 0.024170624 0.004556468
0.051073983 0.016851109 0.056402676 -0.062157284 0.0603774 0.08403078 0.023035627 0.037802026
-0.00814728 -0.06675605 0.030604132 -0.014072195 -0.07030857 0.067036115 -0.064282596 0.015274523
-0.013089529 -0.028838625 0.07534879 -0.04422566 0.06376264 -0.041213527 0.09698327 0.07061273
0.013453832 -0.008088363 0.023949316 0.017613653 -0.07529953 -0.023022149 0.054927822 -0.059570692
-0.056838647 -0.048270877 0.06594691 -0.0058186664 -0.05060701 -0.021980463 -0.036071476 -0.025913756
0.09951082 -0.0757608 0.0003614827 -0.05954108 0.056007847 0.10663525 0.036653895 0.024741765
-0.057309013 -0.050267767 -0.030583313 -0.014985146 0.045611043 0.024410311 -0.079023525 0.085809946
-0.03800999 0.009217697 -0.09324864 0.04806956 0.07220345 0.035354193 -0.0691116 -0.05957941
-0.07785413 0.0030620524 -0.061021164 -0.043660503 -0.099100076 0.07057141 -0.024923049 -0.013621172
-0.062276844 -0.052734524 -0.038442414 -0.09231399 -0.013737135 -0.0851919 0.06521402 -0.08183003
-0.07408557 0.087529324 0.053778782 -0.059442237 0.06392206 -0.0637342 0.09217037 -0.08557351
-0.062293295 0.08621563 -0.041380994 -0.008602504 -0.04638013 -0.086795405 0.089235075 0.050869573
0.097216 -0.070957765 -0.04834059 0.079870924 -0.046193924 0.0052918964 -0.08970024 0.04379333
-0.043825664 0.029274482 -0.10450711 0.014501326 0.022973461 0.022752097 -0.072767675 -0.09220438

1.bias f4 [20]
00000000: c495 fd3c e696 a3bc 54ff e9bc 14cf 9abc
00000010: ac51 ac3c bb28 36bd 0553 1b3d eb64 ccbd
00000020: 7e56 d13d 67f0 1abc 427d 10bc 77f5 e9bb
00000030: 6853 e83b eb02 943d 966a 16bd 4d51 b63d
00000040: 2949 293d e309 4bbd 08c4 843d c1c7 ad3d
0.030955203 -0.019969415 -0.028564133 -0.01889757 0.021035038 -0.044472437 0.03792097 -0.09980186
0.10221575 -0.00945673 -0.008818926 -0.0071398574 0.007090021 0.07227119 -0.036722742 0.08902226
0.041329537 -0.049569976 0.064827025 0.08485366
