checkpoints/test_data_forecaster_fc_hidden_20/forecaster_fc_hidden(1,150,100,5)epoch_19.pt (torch, 156815 bytes, 8 tensors)

encoder.weight_ih_l0 f4 [150, 1]
0	0xbd1088ab	-0.035286587
1	0x3d9b356f	0.07578551
2	0xbc697cd5	-0.014250954
3	0xbda709d1	-0.08156169
4	0xbdb49b2f	-0.088186614
5	0xbc7f0678	-0.015565507
6	0xbcd9d5f3	-0.026591277
7	0xbb71c377	-0.0036890188
8	0xbd04d5af	-0.032430347
9	0xbc85f610	-0.016352683
10	0xbce4d6e7	-0.027934505
11	0x388b821e	6.652273e-05
12	0xbcceb50d	-0.025232816
13	0xbce2e790	-0.027698308
14	0x3c82f9d7	0.015988274
15	0x3cad412c	0.02114924
16	0xbdc7b34a	-0.097509935
17	0xbc9d45b6	-0.01919828
18	0x3c178535	0.009248068
19	0xbc221dad	-0.009894771
20	0xbc3fb840	-0.0117016435
21	0xbd855a5d	-0.06511376
22	0xbb183ef2	-0.0023230878
23	0xbd809bb7	-0.062797
24	0x3d98d17a	0.074618295
25	0x3ca36838	0.019947156
26	0xba9e7b20	-0.0012091137
27	0xbbd42775	-0.00647443
28	0xbe1304ae	-0.14357254
29	0x3d018d5e	0.03162896
30	0x3db2e402	0.08734895
31	0x3c9b7524	0.018976755
32	0x3db7e877	0.08979886
33	0x3cbb9f81	0.022903206
34	0x3bf4b908	0.0074683465
35	0x3c62677f	0.013818621
36	0xbc8891ad	-0.016671026
37	0xbc8c6c75	-0.01714156
38	0xbc8e021d	-0.017334992
39	0x3c7f1c41	0.015570701
40	0x3d00faef	0.03148931
41	0x3ceca793	0.0288885
42	0xbc09618e	-0.008385075
43	0x3d346c44	0.044048563
44	0xbc8da3cf	-0.017290024
45	0x3a28d5e2	0.00064405624
46	0xbd02cd35	-0.031933982
47	0x3c381f7c	0.011237975
48	0x3cf922e5	0.030412147
49	0x3ce5a8b0	0.028034538
50	0xbcce03cc	-0.025148295
51	0x3cdb59b0	0.026776165
52	0xbccb1e15	-0.024794618
53	0x3d15cc2a	0.03657166
54	0x3d02fdbc	0.03198026
55	0xbbc88b13	-0.0061200946
56	0x3b283c9d	0.0025670894
57	0x3ce88533	0.028383827
58	0x3d75fb5e	0.060054176
59	0x3d89416e	0.06701933
60	0xbd993038	-0.074799
61	0x3b9f3b2d	0.004859349
62	0xbd3c22ae	-0.04593151
63	0xbd0255d7	-0.031820145
64	0xbd742e73	-0.05961461
65	0x3c97da11	0.0185366
66	0xbc382f08	-0.011241682
67	0x3ccaa976	0.024739008
68	0x3a661db6	0.0008778231
69	0x3cef3c97	0.029203696
70	0xbc8e4f03	-0.01737166
71	0x3c5c8cb5	0.013461282
72	0xbd03d39f	-0.03218424
73	0x3d0f3a8c	0.034967944
74	0xbb72776a	-0.0036997446
75	0x3d0c932c	0.03432004
76	0x3e114e36	0.14189991
77	0xb8c8b180	-9.569805e-05
78	0x3d4bcda2	0.049756654
79	0x3d921c9b	0.07134362
80	0xbd7f41ac	-0.06231849
81	0x3d0aa916	0.03385266
82	0xbd03ed14	-0.032208517
83	0x3cf1af4c	0.029502533
84	0xbd97104b	-0.073761545
85	0xbc9c3ac2	-0.019070987
86	0xbcb31689	-0.021861332
87	0x3c8a4cbf	0.016882299
88	0xbcefeddd	-0.029288227
89	0xbc617421	-0.013760597
90	0x3cf62186	0.030045282
91	0xbda91ea9	-0.08257801
92	0xbc4f253a	-0.012643153
93	0xbc98f467	-0.018671228
94	0xbd4b679e	-0.049659364
95	0x3e1a2bda	0.1505579
96	0x3cdc4fa5	0.026893446
97	0xbd96a100	-0.07354927
98	0xbc313b3b	-0.010817344
99	0xbca79924	-0.020458765
100	0xbd9acb44	-0.07558301
101	0x3c91825d	0.017762357
102	0x3bacaed6	0.0052698655
103	0xbd7e52c3	-0.062090646
104	0x3d2abb73	0.04168267
105	0x3cd1d039	0.025611984
106	0x3d829477	0.06375974
107	0xbccf8d90	-0.025336057
108	0x3d27ca8a	0.04096464
109	0x3c517b0b	0.012785683
110	0xbc0bd4b6	-0.008534601
111	0xbccfb1d9	-0.025353359
112	0xbcc8d237	-0.0245143
113	0x3cd5f130	0.026115984
114	0xbdd42d41	-0.10360194
115	0xbcf9d419	-0.030496644
116	0x3d71bcb8	0.059017867
117	0x3ce524b0	0.027971596
118	0x3ca0d6e6	0.019633722
119	0xbd9f127f	-0.077672
120	0xbc4103b3	-0.011780667
121	0xbce4fc20	-0.027952254
122	0x3c735470	0.014851674
123	0x3c3775e3	0.01119754
124	0xbc8837a3	-0.016628092
125	0x3cafc2d3	0.021455204
126	0xbbcc5e19	-0.0062368033
127	0xbcc3079c	-0.02380734
128	0x3c7b209b	0.015327598
129	0x3cc32f5e	0.023826297
130	0xbcf47f1a	-0.029845763
131	0xbbb0002a	-0.0053711133
132	0xbce73d6e	-0.028227534
133	0x3d5c6add	0.05381285
134	0x3b1fb7da	0.0024371059
135	0xbc9ada40	-0.018902898
136	0x3d23cbed	0.0399894
137	0xbc146752	-0.009057837
138	0x3cd0369c	0.025416665
139	0xbcc8e39f	-0.0245226
140	0xbc9c0a3a	-0.019047845
141	0x3d183533	0.03716011
142	0xbcf217fd	-0.029552454
143	0xbce77aa7	-0.028256727
144	0xbce85d90	-0.028364927
145	0x3ca61d99	0.020277785
146	0xbd3d3b97	-0.046199407
147	0xbcede3bb	-0.029039254
148	0xbd806286	-0.06268792
149	0x3d4557da	0.048179485

encoder.weight_hh_l0 f4 [150, 150]
0	0xbdbb2a37	-0.09138911
1	0xbdfc27d0	-0.12312281
2	0xbe57296e	-0.21011898
3	0x3dd02c76	0.1016473
4	0x3d1b9ed9	0.037993286
5	0x3cc8c572	0.024508212
6	0x3de3a108	0.11114699
7	0xbd3ee6ab	-0.0466067
8	0xbc9afd98	-0.018919751
9	0xbca78f2c	-0.020454012
10	0x3e178066	0.14795074
11	0xbd2f5e3e	-0.042814486
12	0xbdfc511f	-0.1232016
13	0x3dfaf5d5	0.1225392
14	0xbdb0b6b4	-0.08628598
15	0x3d582cd8	0.05277714
16	0x3b7490df	0.0037317795
17	0xbdfad82c	-0.12248263
18	0x3db4cf44	0.08828595
19	0xbde6cdbd	-0.1126971
20	0x3d908397	0.07056349
21	0x3d931b98	0.071829975
22	0x3d66e1a6	0.05636754
23	0xbd42351a	-0.047413923
24	0xbd329c61	-0.043606166
25	0xbd1ef234	-0.0388052
26	0x3b887aaf	0.0041650156
27	0xbe8045c5	-0.2505323
28	0x3da90472	0.08252801
29	0xbd1ce3e3	-0.038303267
30	0xbd955b5c	-0.07292816
31	0x3e08b279	0.13349332
32	0xbd782c32	-0.060589023
33	0x3d81eb56	0.06343715
34	0xbe0f2b6b	-0.13981406
35	0xbe1ddb96	-0.15415797
36	0x3e013aaf	0.12620042
37	0xbd20ee83	-0.039289963
38	0xbb89d343	-0.0042060926
39	0xbe169084	-0.14703566
40	0x3d426afe	0.047465317
41	0x3e053559	0.13008632
42	0x3d6e4072	0.05816693
43	0x3b302107	0.0026875155
44	0xbe034ff7	-0.12823473
45	0xbc6bc54b	-0.0143903
46	0x3dedfc9f	0.11620449
47	0x3ddcf565	0.10788993
48	0x3d725741	0.059165243
49	0x3d297733	0.041373443
50	0x3d9caafa	0.07649799
51	0xbdf6faca	-0.12059553
52	0xbd99c8e0	-0.07509017
53	0xbdb02d31	-0.086023696
54	0x3e843aa3	0.25825986
55	0x3a0d0b7c	0.00053804344
56	0x3da93757	0.08262508
57	0xbd48b721	-0.04900277
58	0x3daa7296	0.08322637
59	0xbd43f934	-0.04784508
60	0x3dccd7a9	0.100020714
61	0xbd910cb7	-0.07082503
62	0x3def9426	0.11698179
63	0xbdf32d89	-0.118739195
64	0x3db02909	0.08601577
65	0x3d9b7035	0.07589761
66	0x3d486f66	0.048934363
67	0xbd43cdb9	-0.047803614
68	0x3e075545	0.13216121
69	0x3c079c4c	0.00827701
70	0xbb9c7047	-0.0047741267
71	0xbe7ca088	-0.24670613
72	0xbd50260f	-0.050817546
73	0xbcf0220d	-0.029313112
74	0xbdd62194	-0.10455623
75	0xbe288af2	-0.16459253
76	0xbd89d7f0	-0.0673064
77	0x3cbad23d	0.022805328
78	0x3c53db89	0.012930759
79	0xbe00ff02	-0.12597278
80	0xbc73f638	-0.014890246
81	0xbd2d1c98	-0.042263597
82	0x3cab278f	0.020892886
83	0xbdab27ed	-0.083572246
84	0xbca18a12	-0.019719157
85	0xbe80741a	-0.25088578
86	0xbdd6ba71	-0.104847796
87	0xbc923fb9	-0.017852651
88	0x3d73d3d4	0.059528187
89	0x3db18e5d	0.08669732
90	0xbca29211	-0.01984504
91	0x3d94ea48	0.07271248
92	0x3d5afdb8	0.05346462
93	0x3d9832cc	0.07431564
94	0x3cb37be5	0.021909663
95	0xbd8403b7	-0.06446021
96	0x3deb6140	0.11493158
97	0x3dc9bf7b	0.09850975
98	0xbd4a3f1b	-0.04937659
99	0x3d4cf4cf	0.050038155
100	0xbe207505	-0.1566964
101	0x3ceb3768	0.028712943
102	0x3d45b145	0.04826476
103	0x3d3d05e4	0.046148196
104	0x3c22f7f6	0.009946814
105	0x3df9b301	0.121923454
106	0xbce2d1f7	-0.02768801
107	0x3d53b6e7	0.0516881
108	0xbe2743ea	-0.16334501
109	0xbc1ea926	-0.009683883
110	0x3d9e9bf4	0.077445894
111	0x3dbfaacf	0.09358751
112	0xbdd03658	-0.10166615
113	0xbe05a323	-0.13050513
114	0x3d31948f	0.043354567
115	0xbc747693	-0.014920848
116	0x3dd251a6	0.102694795
117	0x3bdaa6a7	0.0066726985
118	0x3c649516	0.0139515605
119	0xbd38746f	-0.045032915
120	0x3dc3c637	0.09559291
121	0xbd969d2c	-0.07354197
122	0x3d714977	0.058907952
123	0x3b3f43b9	0.0029184653
124	0xbd64a1e5	-0.055818457
125	0x3d736ff9	0.059432957
126	0xbbca9c6f	-0.006183199
127	0x3ca278a6	0.01983292
128	0xbbe567a1	-0.007000879
129	0x3c7538cf	0.0149671575
130	0xbd044d24	-0.03230013
131	0x3e056c26	0.13029537
132	0x3d93f2ab	0.072240196
133	0x3d33402f	0.043762382
134	0xbbd630a7	-0.0065365615
135	0x3d4bfbb9	0.04980061
136	0x3e649db0	0.22325778
137	0xbca1ac36	-0.019735437
138	0xbca97b6e	-0.020688739
139	0xbd46b081	-0.04850817
140	0xbdeaff22	-0.11474444
141	0xbe48e8a3	-0.19619994
142	0xbddd7b10	-0.10814488
143	0x3d787c0e	0.060665183
144	0x3d8f7a60	0.07005763
145	0xbdc465e2	-0.09589745
146	0x3d27902a	0.04090897
147	0xbd25ebb7	-0.040508
148	0x3e0af2b5	0.13569148
149	0xbe1f0b15	-0.15531571
150	0xbea042dd	-0.31301013
151	0x3e2dafae	0.16961548
152	0x3ec41311	0.38295797
153	0xbe7531aa	-0.23944727
154	0xbea5ae3a	-0.32359487
155	0xbd87799d	-0.06614993
156	0xbe4759e8	-0.1946789
157	0x3ea54b01	0.32283786
158	0xbde77845	-0.113022365
159	0x3e455b6e	0.19273159
160	0x3dde4329	0.108526535
161	0xbe91d878	-0.28485465
162	0x3ec3da59	0.38252524
163	0x3ed05943	0.406931
164	0x3e22e560	0.15907812
165	0xbe8362c4	-0.2566129
166	0xbe84e86c	-0.25958574
167	0x3d3914ab	0.045185726
168	0xbef3b78c	-0.47600973
169	0x3e10a845	0.1412669
170	0xbe4bbcd2	-0.19896248
171	0xbf09731e	-0.5369128
172	0x3e1af7a1	0.15133525
173	0xbe5e2401	-0.21693422
174	0x3ee7ac14	0.45248473
175	0xbed47c21	-0.41500953
176	0xbed049ad	-0.4068121
177	0x3e24f0ba	0.16107455
178	0xbf26ec37	-0.65204185
179	0x3e98a5b7	0.2981393
180	0x3eeca845	0.4622213
181	0xbeab3363	-0.33437642
182	0x3ef38a7e	0.475666
183	0x3e9525f3	0.29130515
184	0xbd850054	-0.06494203
185	0xbd2a986d	-0.04164927
186	0x3db8b662	0.09019162
187	0x3ab08de9	0.0013470027
188	0x3e282a51	0.16422392
189	0xbe1b11c8	-0.15143502
190	0x3eb71d19	0.35764387
191	0xbe012946	-0.12613401
192	0x3eb99f73	0.36254463
193	0x3d115aeb	0.035487097
194	0xbeaf0a0e	-0.3418736
195	0xbeb877d3	-0.3602892
196	0xbe30a3d4	-0.17249995
197	0xbe100a6e	-0.14066479
198	0xbe31560f	-0.17317985
199	0xbec6219d	-0.3869752
200	0xbea4cb3a	-0.321863
201	0x3e8e5716	0.27800816
202	0x3e90688e	0.2820477
203	0x3e424f70	0.18975616
204	0x3d87167c	0.065960854
205	0xbc83f58a	-0.016108293
206	0xbe5e0975	-0.21683295
207	0x3ebe0c51	0.37118772
208	0xbec52a90	-0.38509035
209	0x3e85ed5f	0.26157662
210	0xbe7595ce	-0.23982927
211	0xbdf94a6b	-0.12172397
212	0xbdcac0b9	-0.0990004
213	0x3e291f20	0.1651578
214	0xbf175435	-0.59112865
215	0xbe1303f6	-0.1435698
216	0xbe7e5e8e	-0.24840757
217	0xbeaead0c	-0.341164
218	0xbe74e0bc	-0.23913854
219	0xbea9419d	-0.3305787
220	0xbecd2ff1	-0.4007564
221	0x3e5598bf	0.2085905
222	0xbd722c95	-0.059124548
223	0x3e6aa25e	0.229135
224	0x3e6eea8a	0.23331657
225	0x3d1744f1	0.036930982
226	0x3f16f5a7	0.58968586
227	0xbecff7aa	-0.4061864
228	0x3ee45a4e	0.44600147
229	0x3e5364d9	0.20643939
230	0xbe07ca8c	-0.13260859
231	0x3e74338c	0.23847789
232	0xbea510ad	-0.32239285
233	0x3ea37d26	0.31931418
234	0xbf2308b5	-0.6368516
235	0x3e59bea1	0.21264125
236	0x3df4094c	0.11915836
237	0x3ee15610	0.44010973
238	0xbe9ce04b	-0.30639872
239	0x3eaadae5	0.33370128
240	0xbeac23a8	-0.33620954
241	0xbe8654be	-0.26236528
242	0xbe625659	-0.22103252
243	0x3c0ac6cd	0.008470249
244	0xbe8a7bd3	-0.27047595
245	0x3f0aacd6	0.54169977
246	0xbeb341f5	-0.3501126
247	0xbdeef306	-0.11667447
248	0xbe9b52ab	-0.30336508
249	0xbe3ce7e5	-0.18447836
250	0xbe35c889	-0.1775228
251	0x3e9559cd	0.29170075
252	0x3eb878f0	0.36029768
253	0xbdea1509	-0.114297934
254	0x3e4b11c6	0.19830999
255	0x3ec2d97b	0.3805655

encoder.bias_ih_l0 f4 [150]
0	0xbe102759	-0.1407751
1	0x3f01a1f0	0.5063772
2	0x3ea5b9bb	0.32368264
3	0xbe7a9896	-0.2447227
4	0xbefc5954	-0.49286902
5	0x3d9f2706	0.07771115
6	0xbd0b1cc5	-0.033962984
7	0x3eab3f4a	0.33446723
8	0x3f023dcd	0.5087555
9	0xbc429a1f	-0.011877566
10	0xbd72d372	-0.05928368
11	0x3e8ed709	0.27898434
12	0x3e5a8345	0.21339138
13	0xbe4e808c	-0.20166224
14	0x3cb47013	0.022026097
15	0xbb5436ed	-0.003238137
16	0xbe125a30	-0.14292216
17	0x3dd4e8f4	0.10395995
18	0xbe37a693	-0.17934637
19	0x3e9e4451	0.30911496
20	0xbdf7f4fa	-0.121072724
21	0xbe83aff2	-0.25720173
22	0xbd6e0afc	-0.058115944
23	0xbe81bef2	-0.25340992
24	0x3f2a172e	0.6644162
25	0xbdb891e8	-0.090122044
26	0xbf60075e	-0.8751124
27	0x3d24f435	0.040271956
28	0xbcdbcf87	-0.026832355
29	0x3ec19bf7	0.37814304
30	0x3e8dbc96	0.27682942
31	0xbdcf2489	-0.101143904
32	0x3e038658	0.12844217
33	0x3d9a2c6b	0.07528003
34	0x3f0eaf89	0.55736595
35	0x3e20256c	0.15639275
36	0xbe6ea639	-0.23305596
37	0xbd9e6781	-0.077345856
38	0x3e119e16	0.14220461
39	0x3ecd3f66	0.40087432
40	0xbdcf7377	-0.10129445
41	0xbd3c37a7	-0.04595151
42	0x3e0006fc	0.12502664
43	0x3ea23210	0.3167882
44	0x3bde3c02	0.006782056
45	0x3db70823	0.08937099
46	0xbf09ba1b	-0.537996
47	0xbd457deb	-0.048215788
48	0xbe87b9f0	-0.26509047
49	0xbe918f9e	-0.28429884
50	0xbe3c86fd	-0.18410869
51	0x3e918f4e	0.28429645
52	0x3e44648c	0.1917898
53	0x3d0d79a9	0.034539852
54	0x3daf3d36	0.08556597
55	0x3d720d07	0.059094455
56	0x3f872b59	1.0560104
57	0x3c58ee6b	0.013240437
58	0x3d41d105	0.047318477
59	0x3f4565f6	0.77108705
60	0xbf171758	-0.59019995
61	0x3db9990f	0.09062397
62	0xbe3fbc8a	-0.18724266
63	0x3e9dea00	0.3084259
64	0xbf2e972b	-0.68199414
65	0xbc253b60	-0.010084957
66	0x3e0d2522	0.13783696
67	0x3db381c6	0.08764987
68	0x3d11c624	0.035589352
69	0x3e57963c	0.21053404
70	0xbef1b407	-0.47207662
71	0x3d8cce7b	0.068753205
72	0xbe092e6a	-0.13396612
73	0x3ec5382a	0.38519412
74	0x3d73751d	0.05943786
75	0xbd99fbe3	-0.07518747
76	0x3e0392e8	0.12849009
77	0x3ea2b8a2	0.3178149
78	0xbc9314b7	-0.017954214
79	0x3e8d71b5	0.27625814
80	0xbf0c5360	-0.5481472
81	0x3f75d72e	0.96031463
82	0xbe600bf8	-0.21879566
83	0x3e8e4397	0.27785942
84	0xbf0d1ca9	-0.55121857
85	0x3cf051f5	0.029335955
86	0x3d466bb3	0.048442554
87	0x3efc84f7	0.49320194
88	0xbdb5c4e9	-0.08875448
89	0x3ef36d85	0.47544494
90	0x3eacd750	0.3375802
91	0xbecf7690	-0.40520144
92	0xbd25ec15	-0.04050835
93	0x3d98dbe6	0.07463817
94	0xbe93ba71	-0.2885318
95	0x3de47069	0.11154253
96	0xbd23a506	-0.0399523
97	0xbec4d830	-0.38446188
98	0xbd2971aa	-0.041368164
99	0x3daa553c	0.083170384
100	0xbdbab714	-0.09116951
101	0x3e1a4b53	0.15067796
102	0x3dcb3065	0.0992134
103	0xbf5f398c	-0.87197185
104	0x3e17b117	0.14813648
105	0x3c8f77c2	0.01751316
106	0x3db602e3	0.08887269
107	0x3eb0bd2f	0.34519336
108	0x3ad1fe7f	0.001602128
109	0xbe3b9f01	-0.18322374
110	0xbda23f4d	-0.0792223
111	0xbdbf1681	-0.09330464
112	0x3f1d2b90	0.61394596
113	0x3ea07ac0	0.3134365
114	0xbec8e97f	-0.39240643
115	0x3d892e18	0.06698245
116	0xbd8a99d2	-0.0676762
117	0xbd26d27a	-0.04072807
118	0x3ced2ca0	0.028951943
119	0xbe126c19	-0.14299048
120	0xbe8f415e	-0.2797956
121	0x3cc41a40	0.023938298
122	0xbe990228	-0.29884458
123	0xbd83e304	-0.06439784
124	0x3e87704c	0.26452863
125	0xbda151e2	-0.07876946
126	0x3cc4b045	0.024009833
127	0x3d58814a	0.052857675
128	0xbe28a40b	-0.16468827
129	0xbe0c17e8	-0.13680995
130	0x3e91b54f	0.2845864
131	0x3e0a3815	0.13497956
132	0xbd195e1e	-0.037443273
133	0x3da4ad88	0.08040911
134	0x3d790be1	0.060802344
135	0xbd8582e8	-0.06519109
136	0xbe707359	-0.23481502
137	0xbe5c3107	-0.21503077
138	0xbcea04c2	-0.028566722
139	0xbf791b7d	-0.9730757
140	0xbef3b3b2	-0.47598034
141	0x3ef5a9fb	0.47981247
142	0x3e169d4e	0.14708444
143	0x3cb456b7	0.022014005
144	0xbeb6abae	-0.35677856
145	0x3da16dc1	0.07882262
146	0xbd3eef5c	-0.04661499
147	0xbeda0446	-0.42581385
148	0xbe6fe0c2	-0.23425582
149	0x3e2494eb	0.16072433

encoder.bias_hh_l0 f4 [150]
0	0xbd6c0683	-0.057623398
1	0x3f0a79de	0.54092205
2	0x3e854b0f	0.26033828
3	0xbead28d5	-0.33820215
4	0xbefa12e1	-0.48842528
5	0x3dff7f1b	0.12475415
6	0xbc375ed5	-0.011192043
7	0x3eb5caff	0.35506436
8	0x3ee2b213	0.44276485
9	0x3d35f655	0.044424374
10	0x3bd3fbe7	0.006469238
11	0x3e2193ce	0.1577904
12	0x3e81948f	0.25308654
13	0xbe713d11	-0.23558451
14	0x3c8541af	0.016266672
15	0xbc40a87c	-0.01175892
16	0xbc9f0e30	-0.019415945
17	0x3e14678d	0.14492626
18	0xbd8d83f6	-0.06909935
19	0x3ec45b7d	0.3835105
20	0xbe23b209	-0.15985884
21	0xbe29a9f2	-0.16568735
22	0xbd8a39f7	-0.06749337
23	0xbddc8b18	-0.107687175
24	0x3f12d308	0.5735326
25	0x3d85aa42	0.06526615
26	0xbf6df91a	-0.92958224
27	0x3e16fd2e	0.14745018
28	0xbde2732f	-0.11057126
29	0x3ee606d3	0.4492708
30	0x3e9a850b	0.3017963
31	0xbc80579d	-0.015666777
32	0x3deec834	0.116592795
33	0x3cac7a22	0.021054331
34	0x3f06bb02	0.526291
35	0x3d45685e	0.048195235
36	0xbe871154	-0.26380408
37	0xbdae3b60	-0.08507419
38	0x3e03daa5	0.12876375
39	0x3ec62a08	0.38703942
40	0xbdda7003	-0.10665896
41	0xbe0dc0ce	-0.1384308
42	0x3e1111ab	0.14166896
43	0x3ec87914	0.39154875
44	0x3d2f4ca1	0.04279769
45	0x3d945c12	0.072441235
46	0xbeebf3a0	-0.4608431
47	0xbc263f35	-0.010146906
48	0xbe8af4f3	-0.27140006
49	0xbe73ef28	-0.238217
50	0xbe031b3f	-0.12803362
51	0x3e62aacf	0.22135471
52	0x3dfe5410	0.124183774
53	0xbb6da1b2	-0.0036259708
54	0x3d343b9e	0.044002168
55	0xbd0ffb4d	-0.03515177
56	0x3f74e706	0.95665014
57	0xbd3998d9	-0.045311783
58	0x3c90bf07	0.017669214
59	0x3f6971be	0.9118918
60	0xbf17ce53	-0.592992
61	0x3db57664	0.08860472
62	0xbe37cb1f	-0.17948578
63	0x3e5afb68	0.21384966
64	0xbf22e418	-0.63629293
65	0xbc8c0e32	-0.017096613
66	0x3e0c4519	0.13698234
67	0x3decf3ef	0.11569964
68	0x3d446adb	0.047953468
69	0x3e2e2e32	0.1700981
70	0xbeaf6419	-0.34256056
71	0x3e11473d	0.14187331
72	0xbe3a3a28	-0.18186247
73	0x3eb09dae	0.344953
74	0x3d7cc78f	0.06171375
75	0xbde32439	-0.11090893
76	0x3d9077bc	0.070540875
77	0x3e4b4dce	0.19853899
78	0x3db61e22	0.08892466
79	0x3eaf4609	0.3423312
80	0xbef8d7b6	-0.48602074
81	0x3f6c6bd0	0.9235201
82	0xbe93073e	-0.28716463
83	0x3ea8e3b9	0.3298624
84	0xbf147a7b	-0.5799939
85	0x3d302f06	0.043013595
86	0x3d4ecee8	0.05049029
87	0x3efe3543	0.4965001
88	0xbd2f2a9c	-0.042765245
89	0x3eb0e539	0.34549883
90	0x3e840a92	0.25789315
91	0xbee15a0c	-0.44014013
92	0xbd1b0ac4	-0.037852064
93	0x3e187c3c	0.14891142
94	0xbe82268b	-0.2542003
95	0x3e468cad	0.19389601
96	0xbd621bc0	-0.055202246
97	0xbef3f388	-0.47646737
98	0x3ab1588e	0.001353042
99	0xbb3ba05c	-0.0028629517
100	0xbe29b8a9	-0.16574349
101	0x3dd3a78b	0.10334691
102	0x3dbb29f7	0.091388635
103	0xbf605752	-0.8763324
104	0x3e53da64	0.20688778
105	0x3ac782f2	0.001522152
106	0x3d704521	0.058659676
107	0x3ea07661	0.31340316
108	0x3cf4dd72	0.02989075
109	0xbe2a7715	-0.16646989
110	0xbdde68ec	-0.10859856
111	0xbd164e2c	-0.036695644
112	0x3f34ec02	0.7067262
113	0x3e49a7d7	0.19692932
114	0xbee743c3	-0.45168886
115	0x3d80bf74	0.06286517
116	0xbd904fe0	-0.07046485
117	0x3d702bc6	0.058635496
118	0x3d4de747	0.05026939
119	0xbe79c9e4	-0.24393421
120	0xbe83eedb	-0.2576817
121	0x3a81ceef	0.000990359
122	0xbe85e61a	-0.26152116
123	0xbd14b312	-0.036303587
124	0x3e8c0fcb	0.273558
125	0x3d2e598f	0.04256588
126	0x3dfff1dd	0.12497304
127	0x3dea8857	0.11451786
128	0xbdf44975	-0.11928073
129	0xbe044906	-0.12918481
130	0x3e6926a9	0.22768654
131	0x3e12d529	0.14339127
132	0xbcf4f8d6	-0.02990381
133	0x3da7239c	0.08161089
134	0xbc589a69	-0.013220408
135	0xbd4231ae	-0.04741066
136	0xbe756c8c	-0.23967189
137	0xbe7998ec	-0.24374741
138	0x3dab895d	0.08375809
139	0xbf608975	-0.8770974
140	0xbed1e4c8	-0.4099486
141	0x3ee436c0	0.4457302
142	0x3da24e7e	0.079251274
143	0x3b2a41d4	0.0025979178
144	0xbefa00b3	-0.48828658
145	0x3e0c4449	0.13697924
146	0xbda96e9e	-0.08273052
147	0xbea3a7de	-0.3196401
148	0xbe186c60	-0.14885092
149	0x3e38ccd3	0.18046884

fc_hidden.weight f4 [100, 150]
0	0xbece4f00	-0.40294647
1	0x405ae860	3.420433
2	0x3f2be6ef	0.6714925
3	0xbf095f8c	-0.5366142
4	0xc0721ba6	-3.7829375
5	0xbe00946a	-0.12556615
6	0x3e9305a8	0.28715253
7	0x4010dd13	2.2634933
8	0xbf79af72	-0.97533333
9	0x3dbe04d9	0.09278268
10	0xbd9216be	-0.07133244
11	0xc076b3cb	-3.8547237
12	0x3fcbe731	1.5929929
13	0x3f299a9a	0.6625153
14	0xbeac3ed9	-0.336417
15	0xbfc7580b	-1.5573744
16	0x3fae77bb	1.3630289
17	0x3dabda26	0.08391218
18	0xc0d136cd	-6.5379395
19	0x3f909d6c	1.1298041
20	0xbfcd68d5	-1.6047617
21	0xc04a2680	-3.1585999
22	0x3f3f8e0d	0.7482613
23	0xbf039e43	-0.51413363
24	0x40399575	2.8997471
25	0xbfca02c2	-1.5782092
26	0x40914b07	4.5404086
27	0x3e7e4729	0.24831833
28	0xc0d47d9f	-6.6403346
29	0x408ec377	4.4613605
30	0x3fe719ef	1.8054789
31	0xbefa7a7c	-0.48921573
32	0x40d58b56	6.673259
33	0x3f9c8acd	1.2229859
34	0xbfd79843	-1.6843342
35	0xbea91111	-0.33020833
36	0x3da69d47	0.08135467
37	0x3f44a7f9	0.76818806
38	0x3daf44f3	0.08558073
39	0xc00d9805	-2.2124035
40	0x3f5d2394	0.8638241
41	0xbebe1eba	-0.37132818
42	0x3fc7545b	1.5572618
43	0x3f337987	0.7010731
44	0xbe224b1c	-0.15848964
45	0xbfb8c25f	-1.4434317
46	0xbf1dfe6e	-0.61716354
47	0xbda4ca80	-0.08046436
48	0xbf1bb20b	-0.60818547
49	0xbfda39a7	-1.7048844
50	0xbe57a77d	-0.21059985
51	0xc0242afd	-2.5651238
52	0x3e405e72	0.18786028
53	0x3e7cba58	0.2468046
54	0x3dc64a54	0.09682146
55	0xbdad1302	-0.08450891
56	0xc094bcff	-4.648071
57	0x3ed3a0af	0.4133353
58	0xbde135ab	-0.109965645
59	0x3e3a1e7f	0.18175696
60	0xbfe07a47	-1.7537316
61	0xbe9c43e3	-0.30520543
62	0xbde6885a	-0.11256476
63	0x3fbadefd	1.4599301
64	0xc022a146	-2.5410933
65	0xbef778be	-0.48334306
66	0xc008d9da	-2.1382966
67	0xbee2bc11	-0.44284108
68	0xbfdd877c	-1.7306972
69	0xc0219924	-2.524972
70	0xc0845dcb	-4.1364493
71	0xbe729b17	-0.23691975
72	0x3d21fc47	0.03954723
73	0xbe9ce2d1	-0.30641797
74	0x3fea73cf	1.8316592
75	0x3dda5ffc	0.10662839
76	0x40d5fc20	6.687027
77	0xc0a8f8ae	-5.2803564
78	0x3f8fc776	1.1232746
79	0x3e735f33	0.23766784
80	0xc01e8830	-2.4770622
81	0xbffc0ea7	-1.9691972
82	0xbf07aae2	-0.5299512
83	0x3ff16c48	1.886117
84	0xc08957c1	-4.291962
85	0x3f1ba2d1	0.60795313
86	0xbbd7d634	-0.0065868143
87	0x408bd5b7	4.369838
88	0xc0266f43	-2.6005409
89	0x403c094d	2.9380677
90	0xc06478cf	-3.5698736
91	0xc03a3e72	-2.9100614
92	0xbe1ad8d5	-0.15121777
93	0x3dc9c36b	0.09851726
94	0x3f6d3c0a	0.9266974
95	0x40d77cc5	6.7339807
96	0xbf1b267e	-0.6060561
97	0xc06ad8d7	-3.6694849
98	0xbfce842f	-1.6134089
99	0x3ed5b5ec	0.41740358
100	0xbf9bc6f9	-1.2170097
101	0xbd1f265f	-0.038854953
102	0x3e8f7db3	0.28025588
103	0xbe956913	-0.29181728
104	0x3efb7e8f	0.49119994
105	0x3d8b6aa1	0.06807447
106	0x3f2e137a	0.6799847
107	0x4026eb5e	2.6081157
108	0xbea1232a	-0.3147214
109	0xbfa1fef2	-1.2655928
110	0x3fb1c334	1.3887696
111	0x3fa3a975	1.2786089
112	0xbd679910	-0.056542456
113	0xbbdb5c2a	-0.0066943364
114	0xc08a933a	-4.330472
115	0x3e7a54b0	0.24446368
116	0x3e7bc4d3	0.24586801
117	0xc04291b1	-3.0401423
118	0x3e0b00c5	0.13574512
119	0xbf559949	-0.8343702
120	0x3d0a90ac	0.033829376
121	0x3d811436	0.06302683
122	0xbe902c2a	-0.28158695
123	0xbf9c13bc	-1.2193522
124	0xbd9226a1	-0.07136274
125	0xbf1c8db0	-0.611537
126	0x3e5e2495	0.21693642
127	0x3f2e7a1a	0.6815506
128	0xbe4a0c0e	-0.19731161
129	0xbe39a229	-0.18128265
130	0x4009442c	2.144786
131	0x3f2e2bfa	0.6803585
132	0xbe2abed5	-0.16674359
133	0x3fe62aa6	1.7981765
134	0xbe88ed52	-0.2674356
135	0x3fbbca21	1.467106
136	0x3ef13fd0	0.47118998
137	0xbea44d11	-0.32090047
138	0xbfe6b53e	-1.8024061
139	0x40395886	2.896028
140	0x3fbf2d07	1.4935616
141	0xbdded3b8	-0.10880226
142	0x3e9176f9	0.2841108
143	0x3f3111d4	0.6916783
144	0x3f3be72b	0.7339961
145	0xc0170109	-2.3594382
146	0xc027503f	-2.6142728
147	0x3d4de01e	0.050262563
148	0x3dbeb4e9	0.093118496
149	0x3e966126	0.29370993
150	0xbec30687	-0.38090917
151	0x4062161f	3.5326002
152	0x3f2a0810	0.6641855
153	0xbec3b501	-0.38224033
154	0xc06bcceb	-3.6843822
155	0xbd7df906	-0.062005065
156	0x3e95f5a2	0.29288965
157	0x40168183	2.3516548
158	0xbf871e75	-1.055617
159	0x3c76268c	0.015023839
160	0xbdd4a198	-0.10382384
161	0xc074bcb8	-3.8240185
162	0x3fd2e325	1.6475569
163	0x3f30b44b	0.69025105
164	0xbe218402	-0.15773013
165	0xbfbdd3e1	-1.4830285
166	0x3fab5326	1.338475
167	0x3b8690d8	0.004106622
168	0xc0d0c834	-6.524439
169	0x3f880bb1	1.0628568
170	0xbfd2673a	-1.6437752
171	0xc0456db6	-3.0848212
172	0x3f2cbca7	0.6747536
173	0xbeca00b0	-0.3945365
174	0x4039d1d0	2.903431
175	0xbfc9344f	-1.5719088
176	0x40928e44	4.5798664
177	0x3e3e9e73	0.18615131
178	0xc0d17657	-6.545696
179	0x408f616f	4.4806437
180	0x3fe58455	1.793101
181	0xbeeb31ba	-0.45936376
182	0x40d50c75	6.6577706
183	0x3f92ea6f	1.1477793
184	0xbfcd2b22	-1.6028788
185	0xbe8fde6a	-0.28099376
186	0x3d63a0ef	0.0555734
187	0x3f4d4187	0.8017811
188	0x3e0e2aa3	0.13883452
189	0xc00c6ca3	-2.1941307
190	0x3f43a91c	0.76429915
191	0xbea167b8	-0.31524444
192	0x3fc321ee	1.524473
193	0x3f2411d3	0.640897
194	0xbe6942ff	-0.22779463
195	0xbfcab2df	-1.5835837
196	0xbf16a2f2	-0.58842385
197	0x3d79af87	0.06095841
198	0xbf2ecff2	-0.6828605
199	0xbfdf0ca3	-1.7425731
200	0xbe8dea21	-0.2771769
201	0xc01cbe57	-2.4491174
202	0x3e3fbc9e	0.18724295
203	0x3df97253	0.12180009
204	0x3e011705	0.12606438
205	0xbdb840c9	-0.08996732
206	0xc0953fec	-4.664053
207	0x3f0aa74b	0.5416152
208	0xbd807d39	-0.06273884
209	0x3e736a11	0.2377093
210	0xbfdd5539	-1.7291633
211	0xbe94a185	-0.2902948
212	0xbdfe34b7	-0.12412398
213	0x3fc19bff	1.5125731
214	0xc022eb56	-2.5456138
215	0xbed95590	-0.42448092
216	0xc0010ea4	-2.0165186
217	0xbee40902	-0.44538122
218	0xbfdf9350	-1.7466831
219	0xc0232f84	-2.5497751
220	0xc082419c	-4.070509
221	0xbedc6f96	-0.43053883
222	0x3db8e7bf	0.09028577
223	0xbe8b603f	-0.27221867
224	0x3fee6702	1.8625185
225	0x3d30853e	0.04309582
226	0x40d1ac44	6.5522785
227	0xc0a78eca	-5.2361803
228	0x3f8140e9	1.0097934
229	0x3e894b40	0.26815224
230	0xc01b3a2d	-2.4254258
231	0xc002ca2d	-2.0435898
232	0xbebb63ae	-0.36599487
233	0x3ff0580f	1.8776873
234	0xc08a9559	-4.330731
235	0x3f28b85b	0.65906304
236	0xbd98e0a2	-0.0746472
237	0x408a562d	4.3230195
238	0xc01f63ce	-2.4904666
239	0x40351356	2.8293052
240	0xc0654cdf	-3.5828168
241	0xc03c6051	-2.9433787
242	0xbdad764e	-0.084698305
243	0xbb02b10e	-0.0019941959
244	0x3f6ece46	0.932835
245	0x40d2d72e	6.588767
246	0xbf2a2ec1	-0.6647759
247	0xc0674966	-3.613855
248	0xbfd1e125	-1.6396834
249	0x3ee2fbca	0.44332725
250	0xbf969009	-1.1762706
251	0xbdd110b5	-0.10208265
252	0x3e7e16d9	0.24813403
253	0xbe8a2f7b	-0.2698935
254	0x3f1d7819	0.6151138
255	0x3d6f0071	0.05835003

fc_hidden.bias f4 [100]
0	0x40d94e7f	6.790832
1	0x40d47964	6.639818
2	0xbfbf994d	-1.4968659
3	0xbf0cb3a7	-0.5496163
4	0xbfd48723	-1.660374
5	0x40d4dcff	6.651977
6	0xbfc68eea	-1.5512364
7	0x40d35450	6.604042
8	0xbfbd2ce4	-1.4779325
9	0x40d4215f	6.6290736
10	0xbfc2d4e3	-1.5221218
11	0xbd24fa1c	-0.040277585
12	0x40d578f0	6.671013
13	0x40d51ca4	6.659746
14	0xbe42b3d9	-0.19013919
15	0x40d352c9	6.6038556
16	0x40b6315b	5.693525
17	0x40d2280f	6.56739
18	0x40d28970	6.579277
19	0x40d3f716	6.623912
20	0x40d24f05	6.572146
21	0xbe38ea33	-0.1805809
22	0x40d6986f	6.7061076
23	0x40943c09	4.6323285
24	0xbfcdb2f4	-1.6070237
25	0x405fafb0	3.495098
26	0xbfc407f4	-1.5314927
27	0x40d526dc	6.6609936
28	0xbfc4d778	-1.5378256
29	0xbe0a104b	-0.13482778
30	0xbfc28305	-1.5196234
31	0xbfb1277f	-1.3840178
32	0xbfc32507	-1.5245675
33	0xbe71a182	-0.23596767
34	0x40d93329	6.787495
35	0x40d75c95	6.7300515
36	0x3f1252f5	0.5715783
37	0x40d64493	6.695871
38	0x40d6f2e2	6.717149
39	0x40d3825a	6.609662
40	0x40d13c57	6.5386157
41	0xbfa1cc74	-1.2640519
42	0xbfa49b0c	-1.2859817
43	0xbfc097d2	-1.5046332
44	0x40d7cb82	6.7435923
45	0xbfbddb6d	-1.4832588
46	0x40d64bc3	6.6967483
47	0xbefe9ec7	-0.49730512
48	0x408d889e	4.422927
49	0x40d80701	6.750855
50	0xbfd13a0f	-1.6345843
51	0x40cfa6df	6.48912
52	0x40d48afb	6.6419654
53	0x40d673d1	6.7016377
54	0x40d67a7e	6.7024527
55	0x40d9e6b0	6.80941
56	0x40d8f031	6.7793202
57	0xbfbcc8a4	-1.4748731
58	0x40d6a2d0	6.7073746
59	0x40d7cd83	6.743837
60	0x40d315ec	6.596426
61	0xbfcdf81a	-1.609134
62	0x4083eb7b	4.122495
63	0x40774aa9	3.863932
64	0xbf1e7d43	-0.61909884
65	0xbf7e7c64	-0.99408555
66	0xbfa1873a	-1.2619393
67	0x40203818	2.5034237
68	0x40d88092	6.7656946
69	0xbfbe5fbe	-1.4872968
70	0x40d5e288	6.6839027
71	0x40d57ce6	6.6714964
72	0x40d5048f	6.6568065
73	0x40a3eb9b	5.1225104
74	0xbf98658c	-1.190599
75	0x3ff482a9	1.9102374
76	0x40c1f177	6.0607257
77	0x40d6ca33	6.7121825
78	0xbfcd73e0	-1.6050987
79	0x40d187f2	6.547845
80	0xbfc79af5	-1.5594164
81	0xbfccf483	-1.6012119
82	0x40d5dd9f	6.6833034
83	0x40d3cc2a	6.6186724
84	0x40d6ae8a	6.708806
85	0x40d78ca3	6.7359176
86	0x40d47956	6.6398115
87	0x40d27ccc	6.577734
88	0xbfc5f74e	-1.5466096
89	0x40d5dfc3	6.6835647
90	0xbfd40551	-1.6564122
91	0x40d7f7ea	6.749013
92	0x40d4b472	6.647027
93	0x40d63bc2	6.6947947
94	0x40501622	3.2513509
95	0xbfa9d826	-1.3269088
96	0x40d5870b	6.6727347
97	0x40d1d36f	6.55706
98	0xbfa0a5aa	-1.2550557
99	0xbfc76c90	-1.5580006

fc_out.weight f4 [5, 100]
0	0x4119abf4	9.604481
1	0x411ca768	9.790871
2	0xc0c8c87d	-6.2744737
3	0xc0695b1d	-3.646186
4	0xc0c242b8	-6.0706444
5	0x4118d131	9.551072
6	0xc0be01a3	-5.9377
7	0x411a349c	9.637844
8	0xc0c05582	-6.010438
9	0x411b346c	9.700298
10	0xc0c4776c	-6.139578
11	0x3d7b4bcb	0.06135158
12	0x4113a5ef	9.228011
13	0x411441d2	9.266069
14	0x3d4d4ad3	0.050120186
15	0x411c2194	9.758198
16	0x40cec836	6.46194
17	0x411b34f7	9.700431
18	0x411aea99	9.682275
19	0x41180437	9.501029
20	0x411bc5ba	9.735773
21	0x3d0f135d	0.034930576
22	0x411b49b5	9.705495
23	0x40a11b80	5.034607
24	0xc0be79fc	-5.9523907
25	0x40861aa7	4.1907535
26	0xc0b806e7	-5.7508426
27	0x411ae63d	9.6812105
28	0xc0c140ee	-6.039176
29	0xbc9e8dfb	-0.019354811
30	0xc0c2d655	-6.0886636
31	0xc0bedd5e	-5.9645224
32	0xc0c20f22	-6.0643473
33	0xbd43dc41	-0.047817472
34	0x41150897	9.314597
35	0x41140840	9.252014
36	0x3ff3d462	1.9049189
37	0x410aa6d7	8.665732
38	0x411b8411	9.719743
39	0x410b8021	8.718781
40	0x411b23f0	9.696274
41	0xc0b91c88	-5.784733
42	0xc0b10ba1	-5.5326695
43	0xc0bca6a5	-5.8953424
44	0x411cb8f1	9.795152
45	0xc0c2d449	-6.0884137
46	0x41195175	9.582387
47	0xc06e083a	-3.719252
48	0x40a2645d	5.0747514
49	0x41146c3b	9.276423
50	0xc0c1fd2e	-6.0621557
51	0x41195c6e	9.585066
52	0x411adae5	9.678441
53	0x410d9832	8.849657
54	0x4117675d	9.462735
55	0x411a82ab	9.656901
56	0x411ab3ea	9.668924
57	0xc0bf38ea	-5.9756975
58	0x411c8c01	9.784181
59	0x411465e1	9.274873
60	0x4117c157	9.484702
61	0xc0c5377a	-6.163022
62	0x409ad207	4.838138
63	0x408cc42b	4.3989463
64	0xc0720f72	-3.7821927
65	0xc0bb38a2	-5.850663
66	0xc0b6e5f6	-5.7155714
67	0x403fe051	2.9980662
68	0x411b1065	9.691503
69	0xc0c4bad6	-6.147807
70	0x411530ae	9.324385
71	0x4116ebb6	9.432547
72	0x41154ae8	9.330788
73	0x40ac3d6c	5.382498
74	0xc0be05b9	-5.9381986
75	0x401c56ab	2.4427898
76	0x40e41040	7.1269836
77	0x41141d06	9.257086
78	0xc0c04413	-6.00831
79	0x4119cc5a	9.6123905
80	0xc0c43be0	-6.132309
81	0xc0be1f0f	-5.9412913
82	0x4119b964	9.607761
83	0x411337ba	9.201105
84	0x4115f8dc	9.373257
85	0x411654bc	9.395687
86	0x411c61c0	9.773865
87	0x41163864	9.388767
88	0xc0c5cacf	-6.181007
89	0x4119dbcf	9.616164
90	0xc0bc9254	-5.8928623
91	0x411b1285	9.692021
92	0x411684ab	9.40739
93	0x411bd93e	9.740538
94	0x4075cce9	3.8406317
95	0xc0bc8bf1	-5.8920827
96	0x410a92a8	8.660805
97	0x4114d0c1	9.300965
98	0xc0b5b868	-5.6787605
99	0xc0c5d8cf	-6.182716
100	0x41169f03	9.413821
101	0x411ad2f1	9.676499
102	0xc0c803c6	-6.2504606
103	0xc0686d29	-3.6316626
104	0xc0bce3e1	-5.9028172
105	0x4118aa2d	9.541547
106	0xc0bd370c	-5.9129696
107	0x411c9ac2	9.787783
108	0xc0c38d46	-6.1109953
109	0x411ac9d9	9.674279
110	0xc0c29445	-6.0805993
111	0x3d5219f7	0.051294293
112	0x4114c77c	9.298702
113	0x41142500	9.259033
114	0xbd961587	-0.07328325
115	0x411aeed7	9.6833105
116	0x40ceee0a	6.4665575
117	0x411aec26	9.682653
118	0x411a022f	9.625533
119	0x41172b01	9.447999
120	0x411c255b	9.75912
121	0xbc1f32eb	-0.00971673
122	0x41197c3b	9.59283
123	0x409c5920	4.8858795
124	0xc0c05297	-6.010082
125	0x4083e199	4.121289
126	0xc0b78aae	-5.7356787
127	0x4119a24d	9.602124
128	0xc0c23b78	-6.0697594
129	0x3d756cc9	0.0599182
130	0xc0be71ae	-5.951377
131	0xc0bd4211	-5.9143147
132	0xc0c085d9	-6.016339
133	0xbda24370	-0.07923019
134	0x4114e222	9.305208
135	0x4114a887	9.291144
136	0x3fee6bc8	1.8626642
137	0x410c6aef	8.776107
138	0x411a153a	9.630182
139	0x410b6874	8.713001
140	0x411c12d7	9.7546
141	0xc0b458cf	-5.635841
142	0xc0ae0686	-5.4382963
143	0xc0bb85e9	-5.8600965
144	0x411a492e	9.642866
145	0xc0c3958d	-6.1120057
146	0x4116ea16	9.43215
147	0xc06df6ea	-3.7181954
148	0x40a15140	5.041168
149	0x4115affd	9.355466
150	0xc0c091c7	-6.017795
151	0x4118f46c	9.559673
152	0x411963b6	9.5868435
153	0x410bec91	8.745255
154	0x411543ee	9.329084
155	0x411a7674	9.653919
156	0x411b4089	9.703256
157	0xc0bd4dad	-5.915732
158	0x411a61bc	9.648861
159	0x4115f384	9.371952
160	0x41151525	9.317662
161	0xc0c3d3f8	-6.119625
162	0x4095d869	4.6826673
163	0x4090fbf5	4.5307565
164	0xc0746737	-3.8187997
165	0xc0b9349b	-5.7876716
166	0xc0b5c11a	-5.679822
167	0x403e1fec	2.9706984
168	0x411bef65	9.745946
169	0xc0c3460b	-6.1023
170	0x41137b85	9.217656
171	0x4116cc0b	9.424815
172	0x41163155	9.387044
173	0x40aba84e	5.364295
174	0xc0b9cfef	-5.8066325
175	0x401f4210	2.4884071
176	0x40e1fb54	7.0619297
177	0x41154610	9.329605
178	0xc0c14506	-6.0396757
179	0x4117a4e6	9.477758
180	0xc0c0793e	-6.0148
181	0xc0bebb08	-5.960331
182	0x4119a538	9.602837
183	0x4115a4b1	9.352708
184	0x4112d2a6	9.176428
185	0x411465c1	9.274842
186	0x411c0285	9.750615
187	0x4113f19c	9.246487
188	0xc0c2c31c	-6.086317
189	0x411aa256	9.664633
190	0xc0b94087	-5.789127
191	0x411b2df4	9.698719
192	0x4115a52b	9.352824
193	0x4119d1a0	9.613678
194	0x40767cb9	3.8513625
195	0xc0bab945	-5.835116
196	0x410c6172	8.77379
197	0x4112f6ae	9.185225
198	0xc0b3cd1b	-5.6187873
199	0xc0c4fbe4	-6.1557484
200	0x41162471	9.383897
201	0x411b9b5e	9.725431
202	0xc0c794ff	-6.236938
203	0xc062200b	-3.5332057
204	0xc0be34d4	-5.9439487
205	0x4116ce1d	9.425321
206	0xc0beb0e1	-5.9590917
207	0x411aa68a	9.665659
208	0xc0c39cdb	-6.1128974
209	0x4118c1d5	9.547322
210	0xc0c37265	-6.107714
211	0x3e25d5e1	0.1619487
212	0x41142414	9.258808
213	0x4113170b	9.193126
214	0xbd99d0f4	-0.07510558
215	0x411b8eea	9.722391
216	0x40d15b9a	6.542432
217	0x411b491a	9.705347
218	0x4119ddff	9.616698
219	0x4115a7f6	9.353506
220	0x411aa1d7	9.664512
221	0x3cde133c	0.027108781
222	0x411831b9	9.512139
223	0x409c1d02	4.878541
224	0xc0bc1fec	-5.8788967
225	0x40845b0b	4.1361136
226	0xc0ba3fad	-5.820273
227	0x411a6be3	9.65134
228	0xc0c26d19	-6.0758176
229	0xbd9f2c0f	-0.077720754
230	0xc0bdf181	-5.9357305
231	0xc0bd3ccd	-5.913672
232	0xc0bf6e56	-5.9822187
233	0xbdd5130b	-0.10404023
234	0x41139ea0	9.226227
235	0x411483ad	9.282147
236	0x3fea76d3	1.8317512
237	0x410bf0c6	8.746283
238	0x41193985	9.576543
239	0x410bf86e	8.748152
240	0x411aad68	9.6673355
241	0xc0b3ebc1	-5.6225286
242	0xc0ae2176	-5.4415846
243	0xc0b83858	-5.756878
244	0x411a14a9	9.630044
245	0xc0be153d	-5.9400926
246	0x4117f162	9.496431
247	0xc0640ec1	-3.5634005
248	0x40a0aed3	5.021341
249	0x4112c64a	9.17341
250	0xc0be32bb	-5.9436927
251	0x4116154c	9.380199
252	0x411b89cf	9.721145
253	0x410be83b	8.744197
254	0x4114eeb8	9.308281
255	0x411b379c	9.7010765

fc_out.bias f4 [5]
0	0x40a961fd	5.2932115
1	0x40ac2a30	5.38015
2	0x40aba34d	5.363684
3	0x40a78419	5.234875
4	0x40a98dd9	5.2985654
